{"class_name": "Model", "config": {"name": "model_1", "layers": [{"name": "REACTOME_GLYCOGEN_BREAKDOWN_GLYCOGENOLYSIS", "class_name": "InputLayer", "config": {"batch_input_shape": [null, 17], "dtype": "float32", "sparse": false, "name": "REACTOME_GLYCOGEN_BREAKDOWN_GLYCOGENOLYSIS"}, "inbound_nodes": []}, {"name": "REACTOME_TRANSLATION", "class_name": "InputLayer", "config": {"batch_input_shape": [null, 170], "dtype": "float32", "sparse": false, "name": "REACTOME_TRANSLATION"}, "inbound_nodes": []}, {"name": "REACTOME_PYRIMIDINE_CATABOLISM", "class_name": "InputLayer", "config": {"batch_input_shape": [null, 11], "dtype": "float32", "sparse": false, "name": "REACTOME_PYRIMIDINE_CATABOLISM"}, "inbound_nodes": []}, {"name": "REACTOME_RNA_POL_III_TRANSCRIPTION_INITIATION_FROM_TYPE_2_PROMOTER", "class_name": "InputLayer", "config": {"batch_input_shape": [null, 23], "dtype": "float32", "sparse": false, "name": "REACTOME_RNA_POL_III_TRANSCRIPTION_INITIATION_FROM_TYPE_2_PROMOTER"}, "inbound_nodes": []}, {"name": "REACTOME_INHIBITION_OF_THE_PROTEOLYTIC_ACTIVITY_OF_APC_C_REQUIRED_FOR_THE_ONSET_OF_ANAPHASE_BY_MITOTIC_SPINDLE_CHECKPOINT_COMPONENTS", "class_name": "InputLayer", "config": {"batch_input_shape": [null, 18], "dtype": "float32", "sparse": false, "name": "REACTOME_INHIBITION_OF_THE_PROTEOLYTIC_ACTIVITY_OF_APC_C_REQUIRED_FOR_THE_ONSET_OF_ANAPHASE_BY_MITOTIC_SPINDLE_CHECKPOINT_COMPONENTS"}, "inbound_nodes": []}, {"name": "REACTOME_PYRUVATE_METABOLISM_AND_CITRIC_ACID_TCA_CYCLE", "class_name": "InputLayer", "config": {"batch_input_shape": [null, 41], "dtype": "float32", "sparse": false, "name": "REACTOME_PYRUVATE_METABOLISM_AND_CITRIC_ACID_TCA_CYCLE"}, "inbound_nodes": []}, {"name": "REACTOME_EXTRINSIC_PATHWAY_FOR_APOPTOSIS", "class_name": "InputLayer", "config": {"batch_input_shape": [null, 13], "dtype": "float32", "sparse": false, "name": "REACTOME_EXTRINSIC_PATHWAY_FOR_APOPTOSIS"}, "inbound_nodes": []}, {"name": "REACTOME_PTM_GAMMA_CARBOXYLATION_HYPUSINE_FORMATION_AND_ARYLSULFATASE_ACTIVATION", "class_name": "InputLayer", "config": {"batch_input_shape": [null, 26], "dtype": "float32", "sparse": false, "name": "REACTOME_PTM_GAMMA_CARBOXYLATION_HYPUSINE_FORMATION_AND_ARYLSULFATASE_ACTIVATION"}, "inbound_nodes": []}, {"name": "REACTOME_APOPTOTIC_CLEAVAGE_OF_CELLULAR_PROTEINS", "class_name": "InputLayer", "config": {"batch_input_shape": [null, 37], "dtype": "float32", "sparse": false, "name": "REACTOME_APOPTOTIC_CLEAVAGE_OF_CELLULAR_PROTEINS"}, "inbound_nodes": []}, {"name": "REACTOME_RNA_POL_I_TRANSCRIPTION_TERMINATION", "class_name": "InputLayer", "config": {"batch_input_shape": [null, 21], "dtype": "float32", "sparse": false, "name": "REACTOME_RNA_POL_I_TRANSCRIPTION_TERMINATION"}, "inbound_nodes": []}, {"name": "REACTOME_FORMATION_OF_THE_TERNARY_COMPLEX_AND_SUBSEQUENTLY_THE_43S_COMPLEX", "class_name": "InputLayer", "config": {"batch_input_shape": [null, 55], "dtype": "float32", "sparse": false, "name": "REACTOME_FORMATION_OF_THE_TERNARY_COMPLEX_AND_SUBSEQUENTLY_THE_43S_COMPLEX"}, "inbound_nodes": []}, {"name": "REACTOME_ACTIVATION_OF_THE_PRE_REPLICATIVE_COMPLEX", "class_name": "InputLayer", "config": {"batch_input_shape": [null, 30], "dtype": "float32", "sparse": false, "name": "REACTOME_ACTIVATION_OF_THE_PRE_REPLICATIVE_COMPLEX"}, "inbound_nodes": []}, {"name": "REACTOME_PROCESSING_OF_INTRONLESS_PRE_MRNAS", "class_name": "InputLayer", "config": {"batch_input_shape": [null, 14], "dtype": "float32", "sparse": false, "name": "REACTOME_PROCESSING_OF_INTRONLESS_PRE_MRNAS"}, "inbound_nodes": []}, {"name": "REACTOME_GAP_JUNCTION_DEGRADATION", "class_name": "InputLayer", "config": {"batch_input_shape": [null, 10], "dtype": "float32", "sparse": false, "name": "REACTOME_GAP_JUNCTION_DEGRADATION"}, "inbound_nodes": []}, {"name": "REACTOME_BASE_EXCISION_REPAIR", "class_name": "InputLayer", "config": {"batch_input_shape": [null, 19], "dtype": "float32", "sparse": false, "name": "REACTOME_BASE_EXCISION_REPAIR"}, "inbound_nodes": []}, {"name": "REACTOME_BILE_ACID_AND_BILE_SALT_METABOLISM", "class_name": "InputLayer", "config": {"batch_input_shape": [null, 27], "dtype": "float32", "sparse": false, "name": "REACTOME_BILE_ACID_AND_BILE_SALT_METABOLISM"}, "inbound_nodes": []}, {"name": "REACTOME_SYNTHESIS_OF_BILE_ACIDS_AND_BILE_SALTS_VIA_7ALPHA_HYDROXYCHOLESTEROL", "class_name": "InputLayer", "config": {"batch_input_shape": [null, 15], "dtype": "float32", "sparse": false, "name": "REACTOME_SYNTHESIS_OF_BILE_ACIDS_AND_BILE_SALTS_VIA_7ALPHA_HYDROXYCHOLESTEROL"}, "inbound_nodes": []}, {"name": "REACTOME_RECYCLING_OF_BILE_ACIDS_AND_SALTS", "class_name": "InputLayer", "config": {"batch_input_shape": [null, 11], "dtype": "float32", "sparse": false, "name": "REACTOME_RECYCLING_OF_BILE_ACIDS_AND_SALTS"}, "inbound_nodes": []}, {"name": "REACTOME_SIGNALING_BY_RHO_GTPASES", "class_name": "InputLayer", "config": {"batch_input_shape": [null, 112], "dtype": "float32", "sparse": false, "name": "REACTOME_SIGNALING_BY_RHO_GTPASES"}, "inbound_nodes": []}, {"name": "REACTOME_SIGNALING_BY_WNT", "class_name": "InputLayer", "config": {"batch_input_shape": [null, 62], "dtype": "float32", "sparse": false, "name": "REACTOME_SIGNALING_BY_WNT"}, "inbound_nodes": []}, {"name": "REACTOME_METABOLISM_OF_NON_CODING_RNA", "class_name": "InputLayer", "config": {"batch_input_shape": [null, 49], "dtype": "float32", "sparse": false, "name": "REACTOME_METABOLISM_OF_NON_CODING_RNA"}, "inbound_nodes": []}, {"name": "REACTOME_SYNTHESIS_OF_BILE_ACIDS_AND_BILE_SALTS_VIA_24_HYDROXYCHOLESTEROL", "class_name": "InputLayer", "config": {"batch_input_shape": [null, 10], "dtype": "float32", "sparse": false, "name": "REACTOME_SYNTHESIS_OF_BILE_ACIDS_AND_BILE_SALTS_VIA_24_HYDROXYCHOLESTEROL"}, "inbound_nodes": []}, {"name": "REACTOME_SYNTHESIS_OF_BILE_ACIDS_AND_BILE_SALTS", "class_name": "InputLayer", "config": {"batch_input_shape": [null, 19], "dtype": "float32", "sparse": false, "name": "REACTOME_SYNTHESIS_OF_BILE_ACIDS_AND_BILE_SALTS"}, "inbound_nodes": []}, {"name": "REACTOME_METABOLISM_OF_STEROID_HORMONES_AND_VITAMINS_A_AND_D", "class_name": "InputLayer", "config": {"batch_input_shape": [null, 34], "dtype": "float32", "sparse": false, "name": "REACTOME_METABOLISM_OF_STEROID_HORMONES_AND_VITAMINS_A_AND_D"}, "inbound_nodes": []}, {"name": "REACTOME_ANDROGEN_BIOSYNTHESIS", "class_name": "InputLayer", "config": {"batch_input_shape": [null, 10], "dtype": "float32", "sparse": false, "name": "REACTOME_ANDROGEN_BIOSYNTHESIS"}, "inbound_nodes": []}, {"name": "REACTOME_SIGNALLING_BY_NGF", "class_name": "InputLayer", "config": {"batch_input_shape": [null, 212], "dtype": "float32", "sparse": false, "name": "REACTOME_SIGNALLING_BY_NGF"}, "inbound_nodes": []}, {"name": "REACTOME_CTNNB1_PHOSPHORYLATION_CASCADE", "class_name": "InputLayer", "config": {"batch_input_shape": [null, 15], "dtype": "float32", "sparse": false, "name": "REACTOME_CTNNB1_PHOSPHORYLATION_CASCADE"}, "inbound_nodes": []}, {"name": "REACTOME_INSULIN_RECEPTOR_RECYCLING", "class_name": "InputLayer", "config": {"batch_input_shape": [null, 23], "dtype": "float32", "sparse": false, "name": "REACTOME_INSULIN_RECEPTOR_RECYCLING"}, "inbound_nodes": []}, {"name": "REACTOME_COPI_MEDIATED_TRANSPORT", "class_name": "InputLayer", "config": {"batch_input_shape": [null, 9], "dtype": "float32", "sparse": false, "name": "REACTOME_COPI_MEDIATED_TRANSPORT"}, "inbound_nodes": []}, {"name": "REACTOME_NEF_MEDIATED_DOWNREGULATION_OF_MHC_CLASS_I_COMPLEX_CELL_SURFACE_EXPRESSION", "class_name": "InputLayer", "config": {"batch_input_shape": [null, 10], "dtype": "float32", "sparse": false, "name": "REACTOME_NEF_MEDIATED_DOWNREGULATION_OF_MHC_CLASS_I_COMPLEX_CELL_SURFACE_EXPRESSION"}, "inbound_nodes": []}, {"name": "REACTOME_SIGNALING_BY_SCF_KIT", "class_name": "InputLayer", "config": {"batch_input_shape": [null, 75], "dtype": "float32", "sparse": false, "name": "REACTOME_SIGNALING_BY_SCF_KIT"}, "inbound_nodes": []}, {"name": "REACTOME_DEVELOPMENTAL_BIOLOGY", "class_name": "InputLayer", "config": {"batch_input_shape": [null, 386], "dtype": "float32", "sparse": false, "name": "REACTOME_DEVELOPMENTAL_BIOLOGY"}, "inbound_nodes": []}, {"name": "REACTOME_CROSS_PRESENTATION_OF_SOLUBLE_EXOGENOUS_ANTIGENS_ENDOSOMES", "class_name": "InputLayer", "config": {"batch_input_shape": [null, 47], "dtype": "float32", "sparse": false, "name": "REACTOME_CROSS_PRESENTATION_OF_SOLUBLE_EXOGENOUS_ANTIGENS_ENDOSOMES"}, "inbound_nodes": []}, {"name": "REACTOME_SIGNALING_BY_NODAL", "class_name": "InputLayer", "config": {"batch_input_shape": [null, 18], "dtype": "float32", "sparse": false, "name": "REACTOME_SIGNALING_BY_NODAL"}, "inbound_nodes": []}, {"name": "REACTOME_DAG_AND_IP3_SIGNALING", "class_name": "InputLayer", "config": {"batch_input_shape": [null, 31], "dtype": "float32", "sparse": false, "name": "REACTOME_DAG_AND_IP3_SIGNALING"}, "inbound_nodes": []}, {"name": "REACTOME_SPRY_REGULATION_OF_FGF_SIGNALING", "class_name": "InputLayer", "config": {"batch_input_shape": [null, 13], "dtype": "float32", "sparse": false, "name": "REACTOME_SPRY_REGULATION_OF_FGF_SIGNALING"}, "inbound_nodes": []}, {"name": "REACTOME_TCA_CYCLE_AND_RESPIRATORY_ELECTRON_TRANSPORT", "class_name": "InputLayer", "config": {"batch_input_shape": [null, 119], "dtype": "float32", "sparse": false, "name": "REACTOME_TCA_CYCLE_AND_RESPIRATORY_ELECTRON_TRANSPORT"}, "inbound_nodes": []}, {"name": "REACTOME_BMAL1_CLOCK_NPAS2_ACTIVATES_CIRCADIAN_EXPRESSION", "class_name": "InputLayer", "config": {"batch_input_shape": [null, 35], "dtype": "float32", "sparse": false, "name": "REACTOME_BMAL1_CLOCK_NPAS2_ACTIVATES_CIRCADIAN_EXPRESSION"}, "inbound_nodes": []}, {"name": "REACTOME_ANTIGEN_PROCESSING_CROSS_PRESENTATION", "class_name": "InputLayer", "config": {"batch_input_shape": [null, 73], "dtype": "float32", "sparse": false, "name": "REACTOME_ANTIGEN_PROCESSING_CROSS_PRESENTATION"}, "inbound_nodes": []}, {"name": "REACTOME_GROWTH_HORMONE_RECEPTOR_SIGNALING", "class_name": "InputLayer", "config": {"batch_input_shape": [null, 24], "dtype": "float32", "sparse": false, "name": "REACTOME_GROWTH_HORMONE_RECEPTOR_SIGNALING"}, "inbound_nodes": []}, {"name": "REACTOME_TRIF_MEDIATED_TLR3_SIGNALING", "class_name": "InputLayer", "config": {"batch_input_shape": [null, 72], "dtype": "float32", "sparse": false, "name": "REACTOME_TRIF_MEDIATED_TLR3_SIGNALING"}, "inbound_nodes": []}, {"name": "REACTOME_CELL_CELL_COMMUNICATION", "class_name": "InputLayer", "config": {"batch_input_shape": [null, 118], "dtype": "float32", "sparse": false, "name": "REACTOME_CELL_CELL_COMMUNICATION"}, "inbound_nodes": []}, {"name": "REACTOME_ABCA_TRANSPORTERS_IN_LIPID_HOMEOSTASIS", "class_name": "InputLayer", "config": {"batch_input_shape": [null, 18], "dtype": "float32", "sparse": false, "name": "REACTOME_ABCA_TRANSPORTERS_IN_LIPID_HOMEOSTASIS"}, "inbound_nodes": []}, {"name": "REACTOME_ENDOSOMAL_VACUOLAR_PATHWAY", "class_name": "InputLayer", "config": {"batch_input_shape": [null, 9], "dtype": "float32", "sparse": false, "name": "REACTOME_ENDOSOMAL_VACUOLAR_PATHWAY"}, "inbound_nodes": []}, {"name": "REACTOME_TETRAHYDROBIOPTERIN_BH4_SYNTHESIS_RECYCLING_SALVAGE_AND_REGULATION", "class_name": "InputLayer", "config": {"batch_input_shape": [null, 13], "dtype": "float32", "sparse": false, "name": "REACTOME_TETRAHYDROBIOPTERIN_BH4_SYNTHESIS_RECYCLING_SALVAGE_AND_REGULATION"}, "inbound_nodes": []}, {"name": "REACTOME_ER_PHAGOSOME_PATHWAY", "class_name": "InputLayer", "config": {"batch_input_shape": [null, 59], "dtype": "float32", "sparse": false, "name": "REACTOME_ER_PHAGOSOME_PATHWAY"}, "inbound_nodes": []}, {"name": "REACTOME_MEIOSIS", "class_name": "InputLayer", "config": {"batch_input_shape": [null, 112], "dtype": "float32", "sparse": false, "name": "REACTOME_MEIOSIS"}, "inbound_nodes": []}, {"name": "REACTOME_NEGATIVE_REGULATION_OF_FGFR_SIGNALING", "class_name": "InputLayer", "config": {"batch_input_shape": [null, 36], "dtype": "float32", "sparse": false, "name": "REACTOME_NEGATIVE_REGULATION_OF_FGFR_SIGNALING"}, "inbound_nodes": []}, {"name": "REACTOME_G0_AND_EARLY_G1", "class_name": "InputLayer", "config": {"batch_input_shape": [null, 24], "dtype": "float32", "sparse": false, "name": "REACTOME_G0_AND_EARLY_G1"}, "inbound_nodes": []}, {"name": "REACTOME_REGULATION_OF_KIT_SIGNALING", "class_name": "InputLayer", "config": {"batch_input_shape": [null, 16], "dtype": "float32", "sparse": false, "name": "REACTOME_REGULATION_OF_KIT_SIGNALING"}, "inbound_nodes": []}, {"name": "REACTOME_MEMBRANE_TRAFFICKING", "class_name": "InputLayer", "config": {"batch_input_shape": [null, 124], "dtype": "float32", "sparse": false, "name": "REACTOME_MEMBRANE_TRAFFICKING"}, "inbound_nodes": []}, {"name": "REACTOME_NEF_MEDIATES_DOWN_MODULATION_OF_CELL_SURFACE_RECEPTORS_BY_RECRUITING_THEM_TO_CLATHRIN_ADAPTERS", "class_name": "InputLayer", "config": {"batch_input_shape": [null, 21], "dtype": "float32", "sparse": false, "name": "REACTOME_NEF_MEDIATES_DOWN_MODULATION_OF_CELL_SURFACE_RECEPTORS_BY_RECRUITING_THEM_TO_CLATHRIN_ADAPTERS"}, "inbound_nodes": []}, {"name": "REACTOME_IMMUNOREGULATORY_INTERACTIONS_BETWEEN_A_LYMPHOID_AND_A_NON_LYMPHOID_CELL", "class_name": "InputLayer", "config": {"batch_input_shape": [null, 62], "dtype": "float32", "sparse": false, "name": "REACTOME_IMMUNOREGULATORY_INTERACTIONS_BETWEEN_A_LYMPHOID_AND_A_NON_LYMPHOID_CELL"}, "inbound_nodes": []}, {"name": "REACTOME_ACTIVATED_AMPK_STIMULATES_FATTY_ACID_OXIDATION_IN_MUSCLE", "class_name": "InputLayer", "config": {"batch_input_shape": [null, 18], "dtype": "float32", "sparse": false, "name": "REACTOME_ACTIVATED_AMPK_STIMULATES_FATTY_ACID_OXIDATION_IN_MUSCLE"}, "inbound_nodes": []}, {"name": "REACTOME_VITAMIN_B5_PANTOTHENATE_METABOLISM", "class_name": "InputLayer", "config": {"batch_input_shape": [null, 11], "dtype": "float32", "sparse": false, "name": "REACTOME_VITAMIN_B5_PANTOTHENATE_METABOLISM"}, "inbound_nodes": []}, {"name": "REACTOME_BOTULINUM_NEUROTOXICITY", "class_name": "InputLayer", "config": {"batch_input_shape": [null, 18], "dtype": "float32", "sparse": false, "name": "REACTOME_BOTULINUM_NEUROTOXICITY"}, "inbound_nodes": []}, {"name": "REACTOME_METABOLISM_OF_VITAMINS_AND_COFACTORS", "class_name": "InputLayer", "config": {"batch_input_shape": [null, 51], "dtype": "float32", "sparse": false, "name": "REACTOME_METABOLISM_OF_VITAMINS_AND_COFACTORS"}, "inbound_nodes": []}, {"name": "REACTOME_TRANS_GOLGI_NETWORK_VESICLE_BUDDING", "class_name": "InputLayer", "config": {"batch_input_shape": [null, 57], "dtype": "float32", "sparse": false, "name": "REACTOME_TRANS_GOLGI_NETWORK_VESICLE_BUDDING"}, "inbound_nodes": []}, {"name": "REACTOME_PROTEOLYTIC_CLEAVAGE_OF_SNARE_COMPLEX_PROTEINS", "class_name": "InputLayer", "config": {"batch_input_shape": [null, 16], "dtype": "float32", "sparse": false, "name": "REACTOME_PROTEOLYTIC_CLEAVAGE_OF_SNARE_COMPLEX_PROTEINS"}, "inbound_nodes": []}, {"name": "REACTOME_RESOLUTION_OF_AP_SITES_VIA_THE_MULTIPLE_NUCLEOTIDE_PATCH_REPLACEMENT_PATHWAY", "class_name": "InputLayer", "config": {"batch_input_shape": [null, 17], "dtype": "float32", "sparse": false, "name": "REACTOME_RESOLUTION_OF_AP_SITES_VIA_THE_MULTIPLE_NUCLEOTIDE_PATCH_REPLACEMENT_PATHWAY"}, "inbound_nodes": []}, {"name": "REACTOME_GAMMA_CARBOXYLATION_TRANSPORT_AND_AMINO_TERMINAL_CLEAVAGE_OF_PROTEINS", "class_name": "InputLayer", "config": {"batch_input_shape": [null, 10], "dtype": "float32", "sparse": false, "name": "REACTOME_GAMMA_CARBOXYLATION_TRANSPORT_AND_AMINO_TERMINAL_CLEAVAGE_OF_PROTEINS"}, "inbound_nodes": []}, {"name": "REACTOME_IL_7_SIGNALING", "class_name": "InputLayer", "config": {"batch_input_shape": [null, 11], "dtype": "float32", "sparse": false, "name": "REACTOME_IL_7_SIGNALING"}, "inbound_nodes": []}, {"name": "REACTOME_CELL_CYCLE", "class_name": "InputLayer", "config": {"batch_input_shape": [null, 399], "dtype": "float32", "sparse": false, "name": "REACTOME_CELL_CYCLE"}, "inbound_nodes": []}, {"name": "REACTOME_SIGNALING_BY_ERBB4", "class_name": "InputLayer", "config": {"batch_input_shape": [null, 87], "dtype": "float32", "sparse": false, "name": "REACTOME_SIGNALING_BY_ERBB4"}, "inbound_nodes": []}, {"name": "REACTOME_ORC1_REMOVAL_FROM_CHROMATIN", "class_name": "InputLayer", "config": {"batch_input_shape": [null, 65], "dtype": "float32", "sparse": false, "name": "REACTOME_ORC1_REMOVAL_FROM_CHROMATIN"}, "inbound_nodes": []}, {"name": "REACTOME_O_LINKED_GLYCOSYLATION_OF_MUCINS", "class_name": "InputLayer", "config": {"batch_input_shape": [null, 53], "dtype": "float32", "sparse": false, "name": "REACTOME_O_LINKED_GLYCOSYLATION_OF_MUCINS"}, "inbound_nodes": []}, {"name": "REACTOME_SULFUR_AMINO_ACID_METABOLISM", "class_name": "InputLayer", "config": {"batch_input_shape": [null, 24], "dtype": "float32", "sparse": false, "name": "REACTOME_SULFUR_AMINO_ACID_METABOLISM"}, "inbound_nodes": []}, {"name": "REACTOME_DOWNREGULATION_OF_ERBB2_ERBB3_SIGNALING", "class_name": "InputLayer", "config": {"batch_input_shape": [null, 11], "dtype": "float32", "sparse": false, "name": "REACTOME_DOWNREGULATION_OF_ERBB2_ERBB3_SIGNALING"}, "inbound_nodes": []}, {"name": "REACTOME_ANTIVIRAL_MECHANISM_BY_IFN_STIMULATED_GENES", "class_name": "InputLayer", "config": {"batch_input_shape": [null, 65], "dtype": "float32", "sparse": false, "name": "REACTOME_ANTIVIRAL_MECHANISM_BY_IFN_STIMULATED_GENES"}, "inbound_nodes": []}, {"name": "REACTOME_PROLACTIN_RECEPTOR_SIGNALING", "class_name": "InputLayer", "config": {"batch_input_shape": [null, 14], "dtype": "float32", "sparse": false, "name": "REACTOME_PROLACTIN_RECEPTOR_SIGNALING"}, "inbound_nodes": []}, {"name": "REACTOME_SIGNALING_BY_ERBB2", "class_name": "InputLayer", "config": {"batch_input_shape": [null, 97], "dtype": "float32", "sparse": false, "name": "REACTOME_SIGNALING_BY_ERBB2"}, "inbound_nodes": []}, {"name": "REACTOME_SPHINGOLIPID_DE_NOVO_BIOSYNTHESIS", "class_name": "InputLayer", "config": {"batch_input_shape": [null, 30], "dtype": "float32", "sparse": false, "name": "REACTOME_SPHINGOLIPID_DE_NOVO_BIOSYNTHESIS"}, "inbound_nodes": []}, {"name": "REACTOME_TERMINATION_OF_O_GLYCAN_BIOSYNTHESIS", "class_name": "InputLayer", "config": {"batch_input_shape": [null, 21], "dtype": "float32", "sparse": false, "name": "REACTOME_TERMINATION_OF_O_GLYCAN_BIOSYNTHESIS"}, "inbound_nodes": []}, {"name": "REACTOME_DEFENSINS", "class_name": "InputLayer", "config": {"batch_input_shape": [null, 49], "dtype": "float32", "sparse": false, "name": "REACTOME_DEFENSINS"}, "inbound_nodes": []}, {"name": "REACTOME_SIGNALING_BY_CONSTITUTIVELY_ACTIVE_EGFR", "class_name": "InputLayer", "config": {"batch_input_shape": [null, 17], "dtype": "float32", "sparse": false, "name": "REACTOME_SIGNALING_BY_CONSTITUTIVELY_ACTIVE_EGFR"}, "inbound_nodes": []}, {"name": "REACTOME_GRB2_EVENTS_IN_ERBB2_SIGNALING", "class_name": "InputLayer", "config": {"batch_input_shape": [null, 22], "dtype": "float32", "sparse": false, "name": "REACTOME_GRB2_EVENTS_IN_ERBB2_SIGNALING"}, "inbound_nodes": []}, {"name": "REACTOME_SIGNALING_BY_EGFR_IN_CANCER", "class_name": "InputLayer", "config": {"batch_input_shape": [null, 105], "dtype": "float32", "sparse": false, "name": "REACTOME_SIGNALING_BY_EGFR_IN_CANCER"}, "inbound_nodes": []}, {"name": "REACTOME_MEMBRANE_BINDING_AND_TARGETTING_OF_GAG_PROTEINS", "class_name": "InputLayer", "config": {"batch_input_shape": [null, 9], "dtype": "float32", "sparse": false, "name": "REACTOME_MEMBRANE_BINDING_AND_TARGETTING_OF_GAG_PROTEINS"}, "inbound_nodes": []}, {"name": "REACTOME_BETA_DEFENSINS", "class_name": "InputLayer", "config": {"batch_input_shape": [null, 40], "dtype": "float32", "sparse": false, "name": "REACTOME_BETA_DEFENSINS"}, "inbound_nodes": []}, {"name": "REACTOME_SRP_DEPENDENT_COTRANSLATIONAL_PROTEIN_TARGETING_TO_MEMBRANE", "class_name": "InputLayer", "config": {"batch_input_shape": [null, 131], "dtype": "float32", "sparse": false, "name": "REACTOME_SRP_DEPENDENT_COTRANSLATIONAL_PROTEIN_TARGETING_TO_MEMBRANE"}, "inbound_nodes": []}, {"name": "REACTOME_PI3K_EVENTS_IN_ERBB4_SIGNALING", "class_name": "InputLayer", "config": {"batch_input_shape": [null, 36], "dtype": "float32", "sparse": false, "name": "REACTOME_PI3K_EVENTS_IN_ERBB4_SIGNALING"}, "inbound_nodes": []}, {"name": "REACTOME_SHC1_EVENTS_IN_ERBB4_SIGNALING", "class_name": "InputLayer", "config": {"batch_input_shape": [null, 20], "dtype": "float32", "sparse": false, "name": "REACTOME_SHC1_EVENTS_IN_ERBB4_SIGNALING"}, "inbound_nodes": []}, {"name": "REACTOME_PI3K_EVENTS_IN_ERBB2_SIGNALING", "class_name": "InputLayer", "config": {"batch_input_shape": [null, 42], "dtype": "float32", "sparse": false, "name": "REACTOME_PI3K_EVENTS_IN_ERBB2_SIGNALING"}, "inbound_nodes": []}, {"name": "REACTOME_NUCLEAR_SIGNALING_BY_ERBB4", "class_name": "InputLayer", "config": {"batch_input_shape": [null, 38], "dtype": "float32", "sparse": false, "name": "REACTOME_NUCLEAR_SIGNALING_BY_ERBB4"}, "inbound_nodes": []}, {"name": "REACTOME_GLYCOSPHINGOLIPID_METABOLISM", "class_name": "InputLayer", "config": {"batch_input_shape": [null, 37], "dtype": "float32", "sparse": false, "name": "REACTOME_GLYCOSPHINGOLIPID_METABOLISM"}, "inbound_nodes": []}, {"name": "REACTOME_PPARA_ACTIVATES_GENE_EXPRESSION", "class_name": "InputLayer", "config": {"batch_input_shape": [null, 103], "dtype": "float32", "sparse": false, "name": "REACTOME_PPARA_ACTIVATES_GENE_EXPRESSION"}, "inbound_nodes": []}, {"name": "REACTOME_ASSOCIATION_OF_LICENSING_FACTORS_WITH_THE_PRE_REPLICATIVE_COMPLEX", "class_name": "InputLayer", "config": {"batch_input_shape": [null, 13], "dtype": "float32", "sparse": false, "name": "REACTOME_ASSOCIATION_OF_LICENSING_FACTORS_WITH_THE_PRE_REPLICATIVE_COMPLEX"}, "inbound_nodes": []}, {"name": "REACTOME_RIP_MEDIATED_NFKB_ACTIVATION_VIA_DAI", "class_name": "InputLayer", "config": {"batch_input_shape": [null, 18], "dtype": "float32", "sparse": false, "name": "REACTOME_RIP_MEDIATED_NFKB_ACTIVATION_VIA_DAI"}, "inbound_nodes": []}, {"name": "REACTOME_PRE_NOTCH_TRANSCRIPTION_AND_TRANSLATION", "class_name": "InputLayer", "config": {"batch_input_shape": [null, 23], "dtype": "float32", "sparse": false, "name": "REACTOME_PRE_NOTCH_TRANSCRIPTION_AND_TRANSLATION"}, "inbound_nodes": []}, {"name": "REACTOME_DEGRADATION_OF_THE_EXTRACELLULAR_MATRIX", "class_name": "InputLayer", "config": {"batch_input_shape": [null, 29], "dtype": "float32", "sparse": false, "name": "REACTOME_DEGRADATION_OF_THE_EXTRACELLULAR_MATRIX"}, "inbound_nodes": []}, {"name": "REACTOME_MITOCHONDRIAL_PROTEIN_IMPORT", "class_name": "InputLayer", "config": {"batch_input_shape": [null, 49], "dtype": "float32", "sparse": false, "name": "REACTOME_MITOCHONDRIAL_PROTEIN_IMPORT"}, "inbound_nodes": []}, {"name": "REACTOME_SIGNALING_BY_HIPPO", "class_name": "InputLayer", "config": {"batch_input_shape": [null, 20], "dtype": "float32", "sparse": false, "name": "REACTOME_SIGNALING_BY_HIPPO"}, "inbound_nodes": []}, {"name": "REACTOME_ACTIVATED_NOTCH1_TRANSMITS_SIGNAL_TO_THE_NUCLEUS", "class_name": "InputLayer", "config": {"batch_input_shape": [null, 25], "dtype": "float32", "sparse": false, "name": "REACTOME_ACTIVATED_NOTCH1_TRANSMITS_SIGNAL_TO_THE_NUCLEUS"}, "inbound_nodes": []}, {"name": "REACTOME_TRAFFICKING_AND_PROCESSING_OF_ENDOSOMAL_TLR", "class_name": "InputLayer", "config": {"batch_input_shape": [null, 13], "dtype": "float32", "sparse": false, "name": "REACTOME_TRAFFICKING_AND_PROCESSING_OF_ENDOSOMAL_TLR"}, "inbound_nodes": []}, {"name": "REACTOME_SIGNALING_BY_NOTCH4", "class_name": "InputLayer", "config": {"batch_input_shape": [null, 12], "dtype": "float32", "sparse": false, "name": "REACTOME_SIGNALING_BY_NOTCH4"}, "inbound_nodes": []}, {"name": "REACTOME_DOWNSTREAM_SIGNALING_EVENTS_OF_B_CELL_RECEPTOR_BCR", "class_name": "InputLayer", "config": {"batch_input_shape": [null, 92], "dtype": "float32", "sparse": false, "name": "REACTOME_DOWNSTREAM_SIGNALING_EVENTS_OF_B_CELL_RECEPTOR_BCR"}, "inbound_nodes": []}, {"name": "REACTOME_ACTIVATION_OF_NF_KAPPAB_IN_B_CELLS", "class_name": "InputLayer", "config": {"batch_input_shape": [null, 61], "dtype": "float32", "sparse": false, "name": "REACTOME_ACTIVATION_OF_NF_KAPPAB_IN_B_CELLS"}, "inbound_nodes": []}, {"name": "REACTOME_RORA_ACTIVATES_CIRCADIAN_EXPRESSION", "class_name": "InputLayer", "config": {"batch_input_shape": [null, 23], "dtype": "float32", "sparse": false, "name": "REACTOME_RORA_ACTIVATES_CIRCADIAN_EXPRESSION"}, "inbound_nodes": []}, {"name": "REACTOME_ANTIGEN_ACTIVATES_B_CELL_RECEPTOR_LEADING_TO_GENERATION_OF_SECOND_MESSENGERS", "class_name": "InputLayer", "config": {"batch_input_shape": [null, 29], "dtype": "float32", "sparse": false, "name": "REACTOME_ANTIGEN_ACTIVATES_B_CELL_RECEPTOR_LEADING_TO_GENERATION_OF_SECOND_MESSENGERS"}, "inbound_nodes": []}, {"name": "REACTOME_REGULATION_OF_COMPLEMENT_CASCADE", "class_name": "InputLayer", "config": {"batch_input_shape": [null, 13], "dtype": "float32", "sparse": false, "name": "REACTOME_REGULATION_OF_COMPLEMENT_CASCADE"}, "inbound_nodes": []}, {"name": "REACTOME_YAP1_AND_WWTR1_TAZ_STIMULATED_GENE_EXPRESSION", "class_name": "InputLayer", "config": {"batch_input_shape": [null, 23], "dtype": "float32", "sparse": false, "name": "REACTOME_YAP1_AND_WWTR1_TAZ_STIMULATED_GENE_EXPRESSION"}, "inbound_nodes": []}, {"name": "REACTOME_SIGNALING_BY_NOTCH2", "class_name": "InputLayer", "config": {"batch_input_shape": [null, 12], "dtype": "float32", "sparse": false, "name": "REACTOME_SIGNALING_BY_NOTCH2"}, "inbound_nodes": []}, {"name": "REACTOME_PRE_NOTCH_EXPRESSION_AND_PROCESSING", "class_name": "InputLayer", "config": {"batch_input_shape": [null, 38], "dtype": "float32", "sparse": false, "name": "REACTOME_PRE_NOTCH_EXPRESSION_AND_PROCESSING"}, "inbound_nodes": []}, {"name": "REACTOME_SIGNALING_BY_THE_B_CELL_RECEPTOR_BCR", "class_name": "InputLayer", "config": {"batch_input_shape": [null, 121], "dtype": "float32", "sparse": false, "name": "REACTOME_SIGNALING_BY_THE_B_CELL_RECEPTOR_BCR"}, "inbound_nodes": []}, {"name": "REACTOME_EXTRACELLULAR_MATRIX_ORGANIZATION", "class_name": "InputLayer", "config": {"batch_input_shape": [null, 83], "dtype": "float32", "sparse": false, "name": "REACTOME_EXTRACELLULAR_MATRIX_ORGANIZATION"}, "inbound_nodes": []}, {"name": "REACTOME_NOTCH1_INTRACELLULAR_DOMAIN_REGULATES_TRANSCRIPTION", "class_name": "InputLayer", "config": {"batch_input_shape": [null, 44], "dtype": "float32", "sparse": false, "name": "REACTOME_NOTCH1_INTRACELLULAR_DOMAIN_REGULATES_TRANSCRIPTION"}, "inbound_nodes": []}, {"name": "REACTOME_CIRCADIAN_REPRESSION_OF_EXPRESSION_BY_REV_ERBA", "class_name": "InputLayer", "config": {"batch_input_shape": [null, 22], "dtype": "float32", "sparse": false, "name": "REACTOME_CIRCADIAN_REPRESSION_OF_EXPRESSION_BY_REV_ERBA"}, "inbound_nodes": []}, {"name": "REACTOME_PRE_NOTCH_PROCESSING_IN_GOLGI", "class_name": "InputLayer", "config": {"batch_input_shape": [null, 16], "dtype": "float32", "sparse": false, "name": "REACTOME_PRE_NOTCH_PROCESSING_IN_GOLGI"}, "inbound_nodes": []}, {"name": "REACTOME_SIGNALING_BY_NOTCH1", "class_name": "InputLayer", "config": {"batch_input_shape": [null, 67], "dtype": "float32", "sparse": false, "name": "REACTOME_SIGNALING_BY_NOTCH1"}, "inbound_nodes": []}, {"name": "REACTOME_SIGNALING_BY_NOTCH3", "class_name": "InputLayer", "config": {"batch_input_shape": [null, 12], "dtype": "float32", "sparse": false, "name": "REACTOME_SIGNALING_BY_NOTCH3"}, "inbound_nodes": []}, {"name": "REACTOME_TRIGLYCERIDE_BIOSYNTHESIS", "class_name": "InputLayer", "config": {"batch_input_shape": [null, 38], "dtype": "float32", "sparse": false, "name": "REACTOME_TRIGLYCERIDE_BIOSYNTHESIS"}, "inbound_nodes": []}, {"name": "REACTOME_INSULIN_RECEPTOR_SIGNALLING_CASCADE", "class_name": "InputLayer", "config": {"batch_input_shape": [null, 84], "dtype": "float32", "sparse": false, "name": "REACTOME_INSULIN_RECEPTOR_SIGNALLING_CASCADE"}, "inbound_nodes": []}, {"name": "REACTOME_ARMS_MEDIATED_ACTIVATION", "class_name": "InputLayer", "config": {"batch_input_shape": [null, 17], "dtype": "float32", "sparse": false, "name": "REACTOME_ARMS_MEDIATED_ACTIVATION"}, "inbound_nodes": []}, {"name": "REACTOME_PROLONGED_ERK_ACTIVATION_EVENTS", "class_name": "InputLayer", "config": {"batch_input_shape": [null, 19], "dtype": "float32", "sparse": false, "name": "REACTOME_PROLONGED_ERK_ACTIVATION_EVENTS"}, "inbound_nodes": []}, {"name": "REACTOME_SIGNALLING_TO_RAS", "class_name": "InputLayer", "config": {"batch_input_shape": [null, 27], "dtype": "float32", "sparse": false, "name": "REACTOME_SIGNALLING_TO_RAS"}, "inbound_nodes": []}, {"name": "REACTOME_SIGNALING_BY_BMP", "class_name": "InputLayer", "config": {"batch_input_shape": [null, 22], "dtype": "float32", "sparse": false, "name": "REACTOME_SIGNALING_BY_BMP"}, "inbound_nodes": []}, {"name": "REACTOME_CELL_SURFACE_INTERACTIONS_AT_THE_VASCULAR_WALL", "class_name": "InputLayer", "config": {"batch_input_shape": [null, 85], "dtype": "float32", "sparse": false, "name": "REACTOME_CELL_SURFACE_INTERACTIONS_AT_THE_VASCULAR_WALL"}, "inbound_nodes": []}, {"name": "REACTOME_NGF_SIGNALLING_VIA_TRKA_FROM_THE_PLASMA_MEMBRANE", "class_name": "InputLayer", "config": {"batch_input_shape": [null, 134], "dtype": "float32", "sparse": false, "name": "REACTOME_NGF_SIGNALLING_VIA_TRKA_FROM_THE_PLASMA_MEMBRANE"}, "inbound_nodes": []}, {"name": "REACTOME_SIGNALLING_TO_ERKS", "class_name": "InputLayer", "config": {"batch_input_shape": [null, 36], "dtype": "float32", "sparse": false, "name": "REACTOME_SIGNALLING_TO_ERKS"}, "inbound_nodes": []}, {"name": "REACTOME_P38MAPK_EVENTS", "class_name": "InputLayer", "config": {"batch_input_shape": [null, 13], "dtype": "float32", "sparse": false, "name": "REACTOME_P38MAPK_EVENTS"}, "inbound_nodes": []}, {"name": "REACTOME_ACYL_CHAIN_REMODELLING_OF_PI", "class_name": "InputLayer", "config": {"batch_input_shape": [null, 15], "dtype": "float32", "sparse": false, "name": "REACTOME_ACYL_CHAIN_REMODELLING_OF_PI"}, "inbound_nodes": []}, {"name": "REACTOME_TGF_BETA_RECEPTOR_SIGNALING_IN_EMT_EPITHELIAL_TO_MESENCHYMAL_TRANSITION", "class_name": "InputLayer", "config": {"batch_input_shape": [null, 14], "dtype": "float32", "sparse": false, "name": "REACTOME_TGF_BETA_RECEPTOR_SIGNALING_IN_EMT_EPITHELIAL_TO_MESENCHYMAL_TRANSITION"}, "inbound_nodes": []}, {"name": "REACTOME_DOWNREGULATION_OF_TGF_BETA_RECEPTOR_SIGNALING", "class_name": "InputLayer", "config": {"batch_input_shape": [null, 21], "dtype": "float32", "sparse": false, "name": "REACTOME_DOWNREGULATION_OF_TGF_BETA_RECEPTOR_SIGNALING"}, "inbound_nodes": []}, {"name": "REACTOME_COLLAGEN_FORMATION", "class_name": "InputLayer", "config": {"batch_input_shape": [null, 54], "dtype": "float32", "sparse": false, "name": "REACTOME_COLLAGEN_FORMATION"}, "inbound_nodes": []}, {"name": "REACTOME_SMAD2_SMAD3_SMAD4_HETEROTRIMER_REGULATES_TRANSCRIPTION", "class_name": "InputLayer", "config": {"batch_input_shape": [null, 25], "dtype": "float32", "sparse": false, "name": "REACTOME_SMAD2_SMAD3_SMAD4_HETEROTRIMER_REGULATES_TRANSCRIPTION"}, "inbound_nodes": []}, {"name": "REACTOME_SIGNALING_BY_FGFR_IN_DISEASE", "class_name": "InputLayer", "config": {"batch_input_shape": [null, 122], "dtype": "float32", "sparse": false, "name": "REACTOME_SIGNALING_BY_FGFR_IN_DISEASE"}, "inbound_nodes": []}, {"name": "REACTOME_HS_GAG_DEGRADATION", "class_name": "InputLayer", "config": {"batch_input_shape": [null, 20], "dtype": "float32", "sparse": false, "name": "REACTOME_HS_GAG_DEGRADATION"}, "inbound_nodes": []}, {"name": "REACTOME_SYNTHESIS_OF_PIPS_AT_THE_EARLY_ENDOSOME_MEMBRANE", "class_name": "InputLayer", "config": {"batch_input_shape": [null, 12], "dtype": "float32", "sparse": false, "name": "REACTOME_SYNTHESIS_OF_PIPS_AT_THE_EARLY_ENDOSOME_MEMBRANE"}, "inbound_nodes": []}, {"name": "REACTOME_SIGNALLING_TO_P38_VIA_RIT_AND_RIN", "class_name": "InputLayer", "config": {"batch_input_shape": [null, 15], "dtype": "float32", "sparse": false, "name": "REACTOME_SIGNALLING_TO_P38_VIA_RIT_AND_RIN"}, "inbound_nodes": []}, {"name": "REACTOME_P53_INDEPENDENT_G1_S_DNA_DAMAGE_CHECKPOINT", "class_name": "InputLayer", "config": {"batch_input_shape": [null, 48], "dtype": "float32", "sparse": false, "name": "REACTOME_P53_INDEPENDENT_G1_S_DNA_DAMAGE_CHECKPOINT"}, "inbound_nodes": []}, {"name": "REACTOME_REGULATION_OF_HYPOXIA_INDUCIBLE_FACTOR_HIF_BY_OXYGEN", "class_name": "InputLayer", "config": {"batch_input_shape": [null, 24], "dtype": "float32", "sparse": false, "name": "REACTOME_REGULATION_OF_HYPOXIA_INDUCIBLE_FACTOR_HIF_BY_OXYGEN"}, "inbound_nodes": []}, {"name": "REACTOME_ACYL_CHAIN_REMODELLING_OF_PC", "class_name": "InputLayer", "config": {"batch_input_shape": [null, 22], "dtype": "float32", "sparse": false, "name": "REACTOME_ACYL_CHAIN_REMODELLING_OF_PC"}, "inbound_nodes": []}, {"name": "REACTOME_SYNTHESIS_OF_PIPS_AT_THE_GOLGI_MEMBRANE", "class_name": "InputLayer", "config": {"batch_input_shape": [null, 17], "dtype": "float32", "sparse": false, "name": "REACTOME_SYNTHESIS_OF_PIPS_AT_THE_GOLGI_MEMBRANE"}, "inbound_nodes": []}, {"name": "REACTOME_TGF_BETA_RECEPTOR_SIGNALING_ACTIVATES_SMADS", "class_name": "InputLayer", "config": {"batch_input_shape": [null, 24], "dtype": "float32", "sparse": false, "name": "REACTOME_TGF_BETA_RECEPTOR_SIGNALING_ACTIVATES_SMADS"}, "inbound_nodes": []}, {"name": "REACTOME_ACTIVATED_POINT_MUTANTS_OF_FGFR2", "class_name": "InputLayer", "config": {"batch_input_shape": [null, 16], "dtype": "float32", "sparse": false, "name": "REACTOME_ACTIVATED_POINT_MUTANTS_OF_FGFR2"}, "inbound_nodes": []}, {"name": "REACTOME_PHOSPHOLIPID_METABOLISM", "class_name": "InputLayer", "config": {"batch_input_shape": [null, 195], "dtype": "float32", "sparse": false, "name": "REACTOME_PHOSPHOLIPID_METABOLISM"}, "inbound_nodes": []}, {"name": "REACTOME_CS_DS_DEGRADATION", "class_name": "InputLayer", "config": {"batch_input_shape": [null, 12], "dtype": "float32", "sparse": false, "name": "REACTOME_CS_DS_DEGRADATION"}, "inbound_nodes": []}, {"name": "REACTOME_SYNTHESIS_OF_PA", "class_name": "InputLayer", "config": {"batch_input_shape": [null, 27], "dtype": "float32", "sparse": false, "name": "REACTOME_SYNTHESIS_OF_PA"}, "inbound_nodes": []}, {"name": "REACTOME_OXYGEN_DEPENDENT_PROLINE_HYDROXYLATION_OF_HYPOXIA_INDUCIBLE_FACTOR_ALPHA", "class_name": "InputLayer", "config": {"batch_input_shape": [null, 17], "dtype": "float32", "sparse": false, "name": "REACTOME_OXYGEN_DEPENDENT_PROLINE_HYDROXYLATION_OF_HYPOXIA_INDUCIBLE_FACTOR_ALPHA"}, "inbound_nodes": []}, {"name": "REACTOME_SYNTHESIS_OF_PIPS_AT_THE_LATE_ENDOSOME_MEMBRANE", "class_name": "InputLayer", "config": {"batch_input_shape": [null, 10], "dtype": "float32", "sparse": false, "name": "REACTOME_SYNTHESIS_OF_PIPS_AT_THE_LATE_ENDOSOME_MEMBRANE"}, "inbound_nodes": []}, {"name": "REACTOME_SYNTHESIS_OF_PE", "class_name": "InputLayer", "config": {"batch_input_shape": [null, 11], "dtype": "float32", "sparse": false, "name": "REACTOME_SYNTHESIS_OF_PE"}, "inbound_nodes": []}, {"name": "REACTOME_GASTRIN_CREB_SIGNALLING_PATHWAY_VIA_PKC_AND_MAPK", "class_name": "InputLayer", "config": {"batch_input_shape": [null, 200], "dtype": "float32", "sparse": false, "name": "REACTOME_GASTRIN_CREB_SIGNALLING_PATHWAY_VIA_PKC_AND_MAPK"}, "inbound_nodes": []}, {"name": "REACTOME_CHONDROITIN_SULFATE_BIOSYNTHESIS", "class_name": "InputLayer", "config": {"batch_input_shape": [null, 19], "dtype": "float32", "sparse": false, "name": "REACTOME_CHONDROITIN_SULFATE_BIOSYNTHESIS"}, "inbound_nodes": []}, {"name": "REACTOME_HYALURONAN_UPTAKE_AND_DEGRADATION", "class_name": "InputLayer", "config": {"batch_input_shape": [null, 10], "dtype": "float32", "sparse": false, "name": "REACTOME_HYALURONAN_UPTAKE_AND_DEGRADATION"}, "inbound_nodes": []}, {"name": "REACTOME_SIGNALING_BY_FGFR1_MUTANTS", "class_name": "InputLayer", "config": {"batch_input_shape": [null, 29], "dtype": "float32", "sparse": false, "name": "REACTOME_SIGNALING_BY_FGFR1_MUTANTS"}, "inbound_nodes": []}, {"name": "REACTOME_SYNTHESIS_OF_PIPS_AT_THE_PLASMA_MEMBRANE", "class_name": "InputLayer", "config": {"batch_input_shape": [null, 30], "dtype": "float32", "sparse": false, "name": "REACTOME_SYNTHESIS_OF_PIPS_AT_THE_PLASMA_MEMBRANE"}, "inbound_nodes": []}, {"name": "REACTOME_THE_ACTIVATION_OF_ARYLSULFATASES", "class_name": "InputLayer", "config": {"batch_input_shape": [null, 12], "dtype": "float32", "sparse": false, "name": "REACTOME_THE_ACTIVATION_OF_ARYLSULFATASES"}, "inbound_nodes": []}, {"name": "REACTOME_TRANSCRIPTIONAL_ACTIVITY_OF_SMAD2_SMAD3_SMAD4_HETEROTRIMER", "class_name": "InputLayer", "config": {"batch_input_shape": [null, 36], "dtype": "float32", "sparse": false, "name": "REACTOME_TRANSCRIPTIONAL_ACTIVITY_OF_SMAD2_SMAD3_SMAD4_HETEROTRIMER"}, "inbound_nodes": []}, {"name": "REACTOME_HYALURONAN_METABOLISM", "class_name": "InputLayer", "config": {"batch_input_shape": [null, 14], "dtype": "float32", "sparse": false, "name": "REACTOME_HYALURONAN_METABOLISM"}, "inbound_nodes": []}, {"name": "REACTOME_DOWNREGULATION_OF_SMAD2_3_SMAD4_TRANSCRIPTIONAL_ACTIVITY", "class_name": "InputLayer", "config": {"batch_input_shape": [null, 19], "dtype": "float32", "sparse": false, "name": "REACTOME_DOWNREGULATION_OF_SMAD2_3_SMAD4_TRANSCRIPTIONAL_ACTIVITY"}, "inbound_nodes": []}, {"name": "REACTOME_KERATAN_SULFATE_BIOSYNTHESIS", "class_name": "InputLayer", "config": {"batch_input_shape": [null, 25], "dtype": "float32", "sparse": false, "name": "REACTOME_KERATAN_SULFATE_BIOSYNTHESIS"}, "inbound_nodes": []}, {"name": "REACTOME_REVERSIBLE_HYDRATION_OF_CARBON_DIOXIDE", "class_name": "InputLayer", "config": {"batch_input_shape": [null, 12], "dtype": "float32", "sparse": false, "name": "REACTOME_REVERSIBLE_HYDRATION_OF_CARBON_DIOXIDE"}, "inbound_nodes": []}, {"name": "REACTOME_SIGNALING_BY_FGFR1_FUSION_MUTANTS", "class_name": "InputLayer", "config": {"batch_input_shape": [null, 18], "dtype": "float32", "sparse": false, "name": "REACTOME_SIGNALING_BY_FGFR1_FUSION_MUTANTS"}, "inbound_nodes": []}, {"name": "REACTOME_ALPHA_LINOLENIC_ACID_ALA_METABOLISM", "class_name": "InputLayer", "config": {"batch_input_shape": [null, 12], "dtype": "float32", "sparse": false, "name": "REACTOME_ALPHA_LINOLENIC_ACID_ALA_METABOLISM"}, "inbound_nodes": []}, {"name": "REACTOME_SIGNALING_BY_ACTIVATED_POINT_MUTANTS_OF_FGFR1", "class_name": "InputLayer", "config": {"batch_input_shape": [null, 11], "dtype": "float32", "sparse": false, "name": "REACTOME_SIGNALING_BY_ACTIVATED_POINT_MUTANTS_OF_FGFR1"}, "inbound_nodes": []}, {"name": "REACTOME_PI_METABOLISM", "class_name": "InputLayer", "config": {"batch_input_shape": [null, 47], "dtype": "float32", "sparse": false, "name": "REACTOME_PI_METABOLISM"}, "inbound_nodes": []}, {"name": "REACTOME_ABACAVIR_TRANSPORT_AND_METABOLISM", "class_name": "InputLayer", "config": {"batch_input_shape": [null, 10], "dtype": "float32", "sparse": false, "name": "REACTOME_ABACAVIR_TRANSPORT_AND_METABOLISM"}, "inbound_nodes": []}, {"name": "REACTOME_CHONDROITIN_SULFATE_DERMATAN_SULFATE_METABOLISM", "class_name": "InputLayer", "config": {"batch_input_shape": [null, 47], "dtype": "float32", "sparse": false, "name": "REACTOME_CHONDROITIN_SULFATE_DERMATAN_SULFATE_METABOLISM"}, "inbound_nodes": []}, {"name": "REACTOME_LATENT_INFECTION_OF_HOMO_SAPIENS_WITH_MYCOBACTERIUM_TUBERCULOSIS", "class_name": "InputLayer", "config": {"batch_input_shape": [null, 31], "dtype": "float32", "sparse": false, "name": "REACTOME_LATENT_INFECTION_OF_HOMO_SAPIENS_WITH_MYCOBACTERIUM_TUBERCULOSIS"}, "inbound_nodes": []}, {"name": "REACTOME_SYNTHESIS_OF_PC", "class_name": "InputLayer", "config": {"batch_input_shape": [null, 18], "dtype": "float32", "sparse": false, "name": "REACTOME_SYNTHESIS_OF_PC"}, "inbound_nodes": []}, {"name": "REACTOME_HS_GAG_BIOSYNTHESIS", "class_name": "InputLayer", "config": {"batch_input_shape": [null, 31], "dtype": "float32", "sparse": false, "name": "REACTOME_HS_GAG_BIOSYNTHESIS"}, "inbound_nodes": []}, {"name": "REACTOME_SIGNALING_BY_FGFR3_MUTANTS", "class_name": "InputLayer", "config": {"batch_input_shape": [null, 11], "dtype": "float32", "sparse": false, "name": "REACTOME_SIGNALING_BY_FGFR3_MUTANTS"}, "inbound_nodes": []}, {"name": "REACTOME_KERATAN_SULFATE_KERATIN_METABOLISM", "class_name": "InputLayer", "config": {"batch_input_shape": [null, 29], "dtype": "float32", "sparse": false, "name": "REACTOME_KERATAN_SULFATE_KERATIN_METABOLISM"}, "inbound_nodes": []}, {"name": "REACTOME_APOPTOSIS_INDUCED_DNA_FRAGMENTATION", "class_name": "InputLayer", "config": {"batch_input_shape": [null, 13], "dtype": "float32", "sparse": false, "name": "REACTOME_APOPTOSIS_INDUCED_DNA_FRAGMENTATION"}, "inbound_nodes": []}, {"name": "REACTOME_KERATAN_SULFATE_DEGRADATION", "class_name": "InputLayer", "config": {"batch_input_shape": [null, 11], "dtype": "float32", "sparse": false, "name": "REACTOME_KERATAN_SULFATE_DEGRADATION"}, "inbound_nodes": []}, {"name": "REACTOME_HEPARAN_SULFATE_HEPARIN_HS_GAG_METABOLISM", "class_name": "InputLayer", "config": {"batch_input_shape": [null, 52], "dtype": "float32", "sparse": false, "name": "REACTOME_HEPARAN_SULFATE_HEPARIN_HS_GAG_METABOLISM"}, "inbound_nodes": []}, {"name": "REACTOME_GLYCOSAMINOGLYCAN_METABOLISM", "class_name": "InputLayer", "config": {"batch_input_shape": [null, 108], "dtype": "float32", "sparse": false, "name": "REACTOME_GLYCOSAMINOGLYCAN_METABOLISM"}, "inbound_nodes": []}, {"name": "REACTOME_ACYL_CHAIN_REMODELLING_OF_PG", "class_name": "InputLayer", "config": {"batch_input_shape": [null, 16], "dtype": "float32", "sparse": false, "name": "REACTOME_ACYL_CHAIN_REMODELLING_OF_PG"}, "inbound_nodes": []}, {"name": "REACTOME_ACYL_CHAIN_REMODELLING_OF_PE", "class_name": "InputLayer", "config": {"batch_input_shape": [null, 21], "dtype": "float32", "sparse": false, "name": "REACTOME_ACYL_CHAIN_REMODELLING_OF_PE"}, "inbound_nodes": []}, {"name": "REACTOME_ACYL_CHAIN_REMODELLING_OF_PS", "class_name": "InputLayer", "config": {"batch_input_shape": [null, 15], "dtype": "float32", "sparse": false, "name": "REACTOME_ACYL_CHAIN_REMODELLING_OF_PS"}, "inbound_nodes": []}, {"name": "REACTOME_SIGNALING_BY_FGFR_MUTANTS", "class_name": "InputLayer", "config": {"batch_input_shape": [null, 43], "dtype": "float32", "sparse": false, "name": "REACTOME_SIGNALING_BY_FGFR_MUTANTS"}, "inbound_nodes": []}, {"name": "REACTOME_MHC_CLASS_II_ANTIGEN_PRESENTATION", "class_name": "InputLayer", "config": {"batch_input_shape": [null, 88], "dtype": "float32", "sparse": false, "name": "REACTOME_MHC_CLASS_II_ANTIGEN_PRESENTATION"}, "inbound_nodes": []}, {"name": "REACTOME_GLYCEROPHOSPHOLIPID_BIOSYNTHESIS", "class_name": "InputLayer", "config": {"batch_input_shape": [null, 82], "dtype": "float32", "sparse": false, "name": "REACTOME_GLYCEROPHOSPHOLIPID_BIOSYNTHESIS"}, "inbound_nodes": []}, {"name": "REACTOME_A_TETRASACCHARIDE_LINKER_SEQUENCE_IS_REQUIRED_FOR_GAG_SYNTHESIS", "class_name": "InputLayer", "config": {"batch_input_shape": [null, 25], "dtype": "float32", "sparse": false, "name": "REACTOME_A_TETRASACCHARIDE_LINKER_SEQUENCE_IS_REQUIRED_FOR_GAG_SYNTHESIS"}, "inbound_nodes": []}, {"name": "REACTOME_CDK_MEDIATED_PHOSPHORYLATION_AND_REMOVAL_OF_CDC6", "class_name": "InputLayer", "config": {"batch_input_shape": [null, 46], "dtype": "float32", "sparse": false, "name": "REACTOME_CDK_MEDIATED_PHOSPHORYLATION_AND_REMOVAL_OF_CDC6"}, "inbound_nodes": []}, {"name": "REACTOME_PLATELET_ADHESION_TO_EXPOSED_COLLAGEN", "class_name": "InputLayer", "config": {"batch_input_shape": [null, 12], "dtype": "float32", "sparse": false, "name": "REACTOME_PLATELET_ADHESION_TO_EXPOSED_COLLAGEN"}, "inbound_nodes": []}, {"name": "REACTOME_VEGF_LIGAND_RECEPTOR_INTERACTIONS", "class_name": "InputLayer", "config": {"batch_input_shape": [null, 10], "dtype": "float32", "sparse": false, "name": "REACTOME_VEGF_LIGAND_RECEPTOR_INTERACTIONS"}, "inbound_nodes": []}, {"name": "REACTOME_ENOS_ACTIVATION_AND_REGULATION", "class_name": "InputLayer", "config": {"batch_input_shape": [null, 20], "dtype": "float32", "sparse": false, "name": "REACTOME_ENOS_ACTIVATION_AND_REGULATION"}, "inbound_nodes": []}, {"name": "REACTOME_MICRORNA_MIRNA_BIOGENESIS", "class_name": "InputLayer", "config": {"batch_input_shape": [null, 18], "dtype": "float32", "sparse": false, "name": "REACTOME_MICRORNA_MIRNA_BIOGENESIS"}, "inbound_nodes": []}, {"name": "REACTOME_NUCLEAR_EVENTS_KINASE_AND_TRANSCRIPTION_FACTOR_ACTIVATION", "class_name": "InputLayer", "config": {"batch_input_shape": [null, 24], "dtype": "float32", "sparse": false, "name": "REACTOME_NUCLEAR_EVENTS_KINASE_AND_TRANSCRIPTION_FACTOR_ACTIVATION"}, "inbound_nodes": []}, {"name": "REACTOME_RETROGRADE_NEUROTROPHIN_SIGNALLING", "class_name": "InputLayer", "config": {"batch_input_shape": [null, 13], "dtype": "float32", "sparse": false, "name": "REACTOME_RETROGRADE_NEUROTROPHIN_SIGNALLING"}, "inbound_nodes": []}, {"name": "REACTOME_ERKS_ARE_INACTIVATED", "class_name": "InputLayer", "config": {"batch_input_shape": [null, 12], "dtype": "float32", "sparse": false, "name": "REACTOME_ERKS_ARE_INACTIVATED"}, "inbound_nodes": []}, {"name": "REACTOME_NEGATIVE_REGULATION_OF_THE_PI3K_AKT_NETWORK", "class_name": "InputLayer", "config": {"batch_input_shape": [null, 7], "dtype": "float32", "sparse": false, "name": "REACTOME_NEGATIVE_REGULATION_OF_THE_PI3K_AKT_NETWORK"}, "inbound_nodes": []}, {"name": "REACTOME_PI3K_AKT_ACTIVATION", "class_name": "InputLayer", "config": {"batch_input_shape": [null, 36], "dtype": "float32", "sparse": false, "name": "REACTOME_PI3K_AKT_ACTIVATION"}, "inbound_nodes": []}, {"name": "REACTOME_REGULATORY_RNA_PATHWAYS", "class_name": "InputLayer", "config": {"batch_input_shape": [null, 21], "dtype": "float32", "sparse": false, "name": "REACTOME_REGULATORY_RNA_PATHWAYS"}, "inbound_nodes": []}, {"name": "REACTOME_EGFR_DOWNREGULATION", "class_name": "InputLayer", "config": {"batch_input_shape": [null, 24], "dtype": "float32", "sparse": false, "name": "REACTOME_EGFR_DOWNREGULATION"}, "inbound_nodes": []}, {"name": "REACTOME_PROCESSING_OF_CAPPED_INTRON_CONTAINING_PRE_MRNA", "class_name": "InputLayer", "config": {"batch_input_shape": [null, 135], "dtype": "float32", "sparse": false, "name": "REACTOME_PROCESSING_OF_CAPPED_INTRON_CONTAINING_PRE_MRNA"}, "inbound_nodes": []}, {"name": "REACTOME_PECAM1_INTERACTIONS", "class_name": "InputLayer", "config": {"batch_input_shape": [null, 10], "dtype": "float32", "sparse": false, "name": "REACTOME_PECAM1_INTERACTIONS"}, "inbound_nodes": []}, {"name": "REACTOME_TCR_SIGNALING", "class_name": "InputLayer", "config": {"batch_input_shape": [null, 51], "dtype": "float32", "sparse": false, "name": "REACTOME_TCR_SIGNALING"}, "inbound_nodes": []}, {"name": "REACTOME_REGULATION_OF_PYRUVATE_DEHYDROGENASE_PDH_COMPLEX", "class_name": "InputLayer", "config": {"batch_input_shape": [null, 12], "dtype": "float32", "sparse": false, "name": "REACTOME_REGULATION_OF_PYRUVATE_DEHYDROGENASE_PDH_COMPLEX"}, "inbound_nodes": []}, {"name": "REACTOME_DOWNSTREAM_TCR_SIGNALING", "class_name": "InputLayer", "config": {"batch_input_shape": [null, 34], "dtype": "float32", "sparse": false, "name": "REACTOME_DOWNSTREAM_TCR_SIGNALING"}, "inbound_nodes": []}, {"name": "REACTOME_BASIGIN_INTERACTIONS", "class_name": "InputLayer", "config": {"batch_input_shape": [null, 25], "dtype": "float32", "sparse": false, "name": "REACTOME_BASIGIN_INTERACTIONS"}, "inbound_nodes": []}, {"name": "REACTOME_AKT_PHOSPHORYLATES_TARGETS_IN_THE_CYTOSOL", "class_name": "InputLayer", "config": {"batch_input_shape": [null, 12], "dtype": "float32", "sparse": false, "name": "REACTOME_AKT_PHOSPHORYLATES_TARGETS_IN_THE_CYTOSOL"}, "inbound_nodes": []}, {"name": "REACTOME_GAB1_SIGNALOSOME", "class_name": "InputLayer", "config": {"batch_input_shape": [null, 36], "dtype": "float32", "sparse": false, "name": "REACTOME_GAB1_SIGNALOSOME"}, "inbound_nodes": []}, {"name": "REACTOME_SHC1_EVENTS_IN_EGFR_SIGNALING", "class_name": "InputLayer", "config": {"batch_input_shape": [null, 15], "dtype": "float32", "sparse": false, "name": "REACTOME_SHC1_EVENTS_IN_EGFR_SIGNALING"}, "inbound_nodes": []}, {"name": "REACTOME_ACTIVATION_OF_THE_MRNA_UPON_BINDING_OF_THE_CAP_BINDING_COMPLEX_AND_EIFS_AND_SUBSEQUENT_BINDING_TO_43S", "class_name": "InputLayer", "config": {"batch_input_shape": [null, 63], "dtype": "float32", "sparse": false, "name": "REACTOME_ACTIVATION_OF_THE_MRNA_UPON_BINDING_OF_THE_CAP_BINDING_COMPLEX_AND_EIFS_AND_SUBSEQUENT_BINDING_TO_43S"}, "inbound_nodes": []}, {"name": "REACTOME_PHOSPHORYLATION_OF_CD3_AND_TCR_ZETA_CHAINS", "class_name": "InputLayer", "config": {"batch_input_shape": [null, 15], "dtype": "float32", "sparse": false, "name": "REACTOME_PHOSPHORYLATION_OF_CD3_AND_TCR_ZETA_CHAINS"}, "inbound_nodes": []}, {"name": "REACTOME_GLUTAMATE_NEUROTRANSMITTER_RELEASE_CYCLE", "class_name": "InputLayer", "config": {"batch_input_shape": [null, 15], "dtype": "float32", "sparse": false, "name": "REACTOME_GLUTAMATE_NEUROTRANSMITTER_RELEASE_CYCLE"}, "inbound_nodes": []}, {"name": "REACTOME_TRANSLOCATION_OF_ZAP_70_TO_IMMUNOLOGICAL_SYNAPSE", "class_name": "InputLayer", "config": {"batch_input_shape": [null, 13], "dtype": "float32", "sparse": false, "name": "REACTOME_TRANSLOCATION_OF_ZAP_70_TO_IMMUNOLOGICAL_SYNAPSE"}, "inbound_nodes": []}, {"name": "REACTOME_ERK_MAPK_TARGETS", "class_name": "InputLayer", "config": {"batch_input_shape": [null, 21], "dtype": "float32", "sparse": false, "name": "REACTOME_ERK_MAPK_TARGETS"}, "inbound_nodes": []}, {"name": "REACTOME_TIE2_SIGNALING", "class_name": "InputLayer", "config": {"batch_input_shape": [null, 17], "dtype": "float32", "sparse": false, "name": "REACTOME_TIE2_SIGNALING"}, "inbound_nodes": []}, {"name": "REACTOME_GENERATION_OF_SECOND_MESSENGER_MOLECULES", "class_name": "InputLayer", "config": {"batch_input_shape": [null, 26], "dtype": "float32", "sparse": false, "name": "REACTOME_GENERATION_OF_SECOND_MESSENGER_MOLECULES"}, "inbound_nodes": []}, {"name": "REACTOME_GENERIC_TRANSCRIPTION_PATHWAY", "class_name": "InputLayer", "config": {"batch_input_shape": [null, 336], "dtype": "float32", "sparse": false, "name": "REACTOME_GENERIC_TRANSCRIPTION_PATHWAY"}, "inbound_nodes": []}, {"name": "REACTOME_RESPONSE_TO_ELEVATED_PLATELET_CYTOSOLIC_CA2_", "class_name": "InputLayer", "config": {"batch_input_shape": [null, 82], "dtype": "float32", "sparse": false, "name": "REACTOME_RESPONSE_TO_ELEVATED_PLATELET_CYTOSOLIC_CA2_"}, "inbound_nodes": []}, {"name": "REACTOME_TRANSPORT_OF_MATURE_TRANSCRIPT_TO_CYTOPLASM", "class_name": "InputLayer", "config": {"batch_input_shape": [null, 52], "dtype": "float32", "sparse": false, "name": "REACTOME_TRANSPORT_OF_MATURE_TRANSCRIPT_TO_CYTOPLASM"}, "inbound_nodes": []}, {"name": "REACTOME_METABOLISM_OF_AMINO_ACIDS_AND_DERIVATIVES", "class_name": "InputLayer", "config": {"batch_input_shape": [null, 195], "dtype": "float32", "sparse": false, "name": "REACTOME_METABOLISM_OF_AMINO_ACIDS_AND_DERIVATIVES"}, "inbound_nodes": []}, {"name": "REACTOME_RNA_POL_I_TRANSCRIPTION", "class_name": "InputLayer", "config": {"batch_input_shape": [null, 86], "dtype": "float32", "sparse": false, "name": "REACTOME_RNA_POL_I_TRANSCRIPTION"}, "inbound_nodes": []}, {"name": "REACTOME_FATTY_ACYL_COA_BIOSYNTHESIS", "class_name": "InputLayer", "config": {"batch_input_shape": [null, 18], "dtype": "float32", "sparse": false, "name": "REACTOME_FATTY_ACYL_COA_BIOSYNTHESIS"}, "inbound_nodes": []}, {"name": "REACTOME_E2F_ENABLED_INHIBITION_OF_PRE_REPLICATION_COMPLEX_FORMATION", "class_name": "InputLayer", "config": {"batch_input_shape": [null, 10], "dtype": "float32", "sparse": false, "name": "REACTOME_E2F_ENABLED_INHIBITION_OF_PRE_REPLICATION_COMPLEX_FORMATION"}, "inbound_nodes": []}, {"name": "REACTOME_P75NTR_RECRUITS_SIGNALLING_COMPLEXES", "class_name": "InputLayer", "config": {"batch_input_shape": [null, 11], "dtype": "float32", "sparse": false, "name": "REACTOME_P75NTR_RECRUITS_SIGNALLING_COMPLEXES"}, "inbound_nodes": []}, {"name": "REACTOME_BIOLOGICAL_OXIDATIONS", "class_name": "InputLayer", "config": {"batch_input_shape": [null, 137], "dtype": "float32", "sparse": false, "name": "REACTOME_BIOLOGICAL_OXIDATIONS"}, "inbound_nodes": []}, {"name": "REACTOME_REGULATED_PROTEOLYSIS_OF_P75NTR", "class_name": "InputLayer", "config": {"batch_input_shape": [null, 10], "dtype": "float32", "sparse": false, "name": "REACTOME_REGULATED_PROTEOLYSIS_OF_P75NTR"}, "inbound_nodes": []}, {"name": "REACTOME_TRANSMISSION_ACROSS_CHEMICAL_SYNAPSES", "class_name": "InputLayer", "config": {"batch_input_shape": [null, 184], "dtype": "float32", "sparse": false, "name": "REACTOME_TRANSMISSION_ACROSS_CHEMICAL_SYNAPSES"}, "inbound_nodes": []}, {"name": "REACTOME_P75NTR_SIGNALS_VIA_NFKB", "class_name": "InputLayer", "config": {"batch_input_shape": [null, 13], "dtype": "float32", "sparse": false, "name": "REACTOME_P75NTR_SIGNALS_VIA_NFKB"}, "inbound_nodes": []}, {"name": "REACTOME_CASPASE_MEDIATED_CLEAVAGE_OF_CYTOSKELETAL_PROTEINS", "class_name": "InputLayer", "config": {"batch_input_shape": [null, 12], "dtype": "float32", "sparse": false, "name": "REACTOME_CASPASE_MEDIATED_CLEAVAGE_OF_CYTOSKELETAL_PROTEINS"}, "inbound_nodes": []}, {"name": "REACTOME_XENOBIOTICS", "class_name": "InputLayer", "config": {"batch_input_shape": [null, 15], "dtype": "float32", "sparse": false, "name": "REACTOME_XENOBIOTICS"}, "inbound_nodes": []}, {"name": "REACTOME_INTEGRIN_CELL_SURFACE_INTERACTIONS", "class_name": "InputLayer", "config": {"batch_input_shape": [null, 79], "dtype": "float32", "sparse": false, "name": "REACTOME_INTEGRIN_CELL_SURFACE_INTERACTIONS"}, "inbound_nodes": []}, {"name": "REACTOME_REGULATION_OF_ORNITHINE_DECARBOXYLASE_ODC", "class_name": "InputLayer", "config": {"batch_input_shape": [null, 48], "dtype": "float32", "sparse": false, "name": "REACTOME_REGULATION_OF_ORNITHINE_DECARBOXYLASE_ODC"}, "inbound_nodes": []}, {"name": "REACTOME_CYTOCHROME_P450_ARRANGED_BY_SUBSTRATE_TYPE", "class_name": "InputLayer", "config": {"batch_input_shape": [null, 50], "dtype": "float32", "sparse": false, "name": "REACTOME_CYTOCHROME_P450_ARRANGED_BY_SUBSTRATE_TYPE"}, "inbound_nodes": []}, {"name": "REACTOME_BASE_FREE_SUGAR_PHOSPHATE_REMOVAL_VIA_THE_SINGLE_NUCLEOTIDE_REPLACEMENT_PATHWAY", "class_name": "InputLayer", "config": {"batch_input_shape": [null, 10], "dtype": "float32", "sparse": false, "name": "REACTOME_BASE_FREE_SUGAR_PHOSPHATE_REMOVAL_VIA_THE_SINGLE_NUCLEOTIDE_REPLACEMENT_PATHWAY"}, "inbound_nodes": []}, {"name": "REACTOME_APOPTOTIC_CLEAVAGE_OF_CELL_ADHESION_PROTEINS", "class_name": "InputLayer", "config": {"batch_input_shape": [null, 11], "dtype": "float32", "sparse": false, "name": "REACTOME_APOPTOTIC_CLEAVAGE_OF_CELL_ADHESION_PROTEINS"}, "inbound_nodes": []}, {"name": "REACTOME_HDL_MEDIATED_LIPID_TRANSPORT", "class_name": "InputLayer", "config": {"batch_input_shape": [null, 15], "dtype": "float32", "sparse": false, "name": "REACTOME_HDL_MEDIATED_LIPID_TRANSPORT"}, "inbound_nodes": []}, {"name": "REACTOME_NRAGE_SIGNALS_DEATH_THROUGH_JNK", "class_name": "InputLayer", "config": {"batch_input_shape": [null, 43], "dtype": "float32", "sparse": false, "name": "REACTOME_NRAGE_SIGNALS_DEATH_THROUGH_JNK"}, "inbound_nodes": []}, {"name": "REACTOME_SLBP_DEPENDENT_PROCESSING_OF_REPLICATION_DEPENDENT_HISTONE_PRE_MRNAS", "class_name": "InputLayer", "config": {"batch_input_shape": [null, 11], "dtype": "float32", "sparse": false, "name": "REACTOME_SLBP_DEPENDENT_PROCESSING_OF_REPLICATION_DEPENDENT_HISTONE_PRE_MRNAS"}, "inbound_nodes": []}, {"name": "REACTOME_NRIF_SIGNALS_CELL_DEATH_FROM_THE_NUCLEUS", "class_name": "InputLayer", "config": {"batch_input_shape": [null, 14], "dtype": "float32", "sparse": false, "name": "REACTOME_NRIF_SIGNALS_CELL_DEATH_FROM_THE_NUCLEUS"}, "inbound_nodes": []}, {"name": "REACTOME_REGULATION_OF_APOPTOSIS", "class_name": "InputLayer", "config": {"batch_input_shape": [null, 56], "dtype": "float32", "sparse": false, "name": "REACTOME_REGULATION_OF_APOPTOSIS"}, "inbound_nodes": []}, {"name": "REACTOME_RNA_POL_II_TRANSCRIPTION", "class_name": "InputLayer", "config": {"batch_input_shape": [null, 98], "dtype": "float32", "sparse": false, "name": "REACTOME_RNA_POL_II_TRANSCRIPTION"}, "inbound_nodes": []}, {"name": "REACTOME_NEURONAL_SYSTEM", "class_name": "InputLayer", "config": {"batch_input_shape": [null, 276], "dtype": "float32", "sparse": false, "name": "REACTOME_NEURONAL_SYSTEM"}, "inbound_nodes": []}, {"name": "REACTOME_NFKB_IS_ACTIVATED_AND_SIGNALS_SURVIVAL", "class_name": "InputLayer", "config": {"batch_input_shape": [null, 10], "dtype": "float32", "sparse": false, "name": "REACTOME_NFKB_IS_ACTIVATED_AND_SIGNALS_SURVIVAL"}, "inbound_nodes": []}, {"name": "REACTOME_REGULATION_OF_BETA_CELL_DEVELOPMENT", "class_name": "InputLayer", "config": {"batch_input_shape": [null, 30], "dtype": "float32", "sparse": false, "name": "REACTOME_REGULATION_OF_BETA_CELL_DEVELOPMENT"}, "inbound_nodes": []}, {"name": "REACTOME_PHASE1_FUNCTIONALIZATION_OF_COMPOUNDS", "class_name": "InputLayer", "config": {"batch_input_shape": [null, 69], "dtype": "float32", "sparse": false, "name": "REACTOME_PHASE1_FUNCTIONALIZATION_OF_COMPOUNDS"}, "inbound_nodes": []}, {"name": "REACTOME_RNA_POL_III_TRANSCRIPTION", "class_name": "InputLayer", "config": {"batch_input_shape": [null, 33], "dtype": "float32", "sparse": false, "name": "REACTOME_RNA_POL_III_TRANSCRIPTION"}, "inbound_nodes": []}, {"name": "REACTOME_CELL_DEATH_SIGNALLING_VIA_NRAGE_NRIF_AND_NADE", "class_name": "InputLayer", "config": {"batch_input_shape": [null, 58], "dtype": "float32", "sparse": false, "name": "REACTOME_CELL_DEATH_SIGNALLING_VIA_NRAGE_NRIF_AND_NADE"}, "inbound_nodes": []}, {"name": "REACTOME_NEUROTRANSMITTER_RELEASE_CYCLE", "class_name": "InputLayer", "config": {"batch_input_shape": [null, 34], "dtype": "float32", "sparse": false, "name": "REACTOME_NEUROTRANSMITTER_RELEASE_CYCLE"}, "inbound_nodes": []}, {"name": "REACTOME_P75_NTR_RECEPTOR_MEDIATED_SIGNALLING", "class_name": "InputLayer", "config": {"batch_input_shape": [null, 79], "dtype": "float32", "sparse": false, "name": "REACTOME_P75_NTR_RECEPTOR_MEDIATED_SIGNALLING"}, "inbound_nodes": []}, {"name": "REACTOME_AMINO_ACID_TRANSPORT_ACROSS_THE_PLASMA_MEMBRANE", "class_name": "InputLayer", "config": {"batch_input_shape": [null, 31], "dtype": "float32", "sparse": false, "name": "REACTOME_AMINO_ACID_TRANSPORT_ACROSS_THE_PLASMA_MEMBRANE"}, "inbound_nodes": []}, {"name": "REACTOME_ENDOGENOUS_STEROLS", "class_name": "InputLayer", "config": {"batch_input_shape": [null, 15], "dtype": "float32", "sparse": false, "name": "REACTOME_ENDOGENOUS_STEROLS"}, "inbound_nodes": []}, {"name": "REACTOME_REGULATION_OF_GENE_EXPRESSION_IN_BETA_CELLS", "class_name": "InputLayer", "config": {"batch_input_shape": [null, 20], "dtype": "float32", "sparse": false, "name": "REACTOME_REGULATION_OF_GENE_EXPRESSION_IN_BETA_CELLS"}, "inbound_nodes": []}, {"name": "REACTOME_GLYCOLYSIS", "class_name": "InputLayer", "config": {"batch_input_shape": [null, 27], "dtype": "float32", "sparse": false, "name": "REACTOME_GLYCOLYSIS"}, "inbound_nodes": []}, {"name": "REACTOME_PROCESSIVE_SYNTHESIS_ON_THE_LAGGING_STRAND", "class_name": "InputLayer", "config": {"batch_input_shape": [null, 15], "dtype": "float32", "sparse": false, "name": "REACTOME_PROCESSIVE_SYNTHESIS_ON_THE_LAGGING_STRAND"}, "inbound_nodes": []}, {"name": "REACTOME_PEPTIDE_CHAIN_ELONGATION", "class_name": "InputLayer", "config": {"batch_input_shape": [null, 107], "dtype": "float32", "sparse": false, "name": "REACTOME_PEPTIDE_CHAIN_ELONGATION"}, "inbound_nodes": []}, {"name": "REACTOME_COMMON_PATHWAY", "class_name": "InputLayer", "config": {"batch_input_shape": [null, 14], "dtype": "float32", "sparse": false, "name": "REACTOME_COMMON_PATHWAY"}, "inbound_nodes": []}, {"name": "REACTOME_MRNA_CAPPING", "class_name": "InputLayer", "config": {"batch_input_shape": [null, 29], "dtype": "float32", "sparse": false, "name": "REACTOME_MRNA_CAPPING"}, "inbound_nodes": []}, {"name": "REACTOME_MITOCHONDRIAL_FATTY_ACID_BETA_OXIDATION", "class_name": "InputLayer", "config": {"batch_input_shape": [null, 14], "dtype": "float32", "sparse": false, "name": "REACTOME_MITOCHONDRIAL_FATTY_ACID_BETA_OXIDATION"}, "inbound_nodes": []}, {"name": "REACTOME_SIGNALING_BY_GPCR", "class_name": "InputLayer", "config": {"batch_input_shape": [null, 886], "dtype": "float32", "sparse": false, "name": "REACTOME_SIGNALING_BY_GPCR"}, "inbound_nodes": []}, {"name": "REACTOME_PEPTIDE_LIGAND_BINDING_RECEPTORS", "class_name": "InputLayer", "config": {"batch_input_shape": [null, 174], "dtype": "float32", "sparse": false, "name": "REACTOME_PEPTIDE_LIGAND_BINDING_RECEPTORS"}, "inbound_nodes": []}, {"name": "REACTOME_METABOLISM_OF_POLYAMINES", "class_name": "InputLayer", "config": {"batch_input_shape": [null, 14], "dtype": "float32", "sparse": false, "name": "REACTOME_METABOLISM_OF_POLYAMINES"}, "inbound_nodes": []}, {"name": "REACTOME_CLASS_A1_RHODOPSIN_LIKE_RECEPTORS", "class_name": "InputLayer", "config": {"batch_input_shape": [null, 286], "dtype": "float32", "sparse": false, "name": "REACTOME_CLASS_A1_RHODOPSIN_LIKE_RECEPTORS"}, "inbound_nodes": []}, {"name": "REACTOME_NOTCH_HLH_TRANSCRIPTION_PATHWAY", "class_name": "InputLayer", "config": {"batch_input_shape": [null, 12], "dtype": "float32", "sparse": false, "name": "REACTOME_NOTCH_HLH_TRANSCRIPTION_PATHWAY"}, "inbound_nodes": []}, {"name": "REACTOME_INTEGRATION_OF_ENERGY_METABOLISM", "class_name": "InputLayer", "config": {"batch_input_shape": [null, 116], "dtype": "float32", "sparse": false, "name": "REACTOME_INTEGRATION_OF_ENERGY_METABOLISM"}, "inbound_nodes": []}, {"name": "REACTOME_CELL_CYCLE_MITOTIC", "class_name": "InputLayer", "config": {"batch_input_shape": [null, 307], "dtype": "float32", "sparse": false, "name": "REACTOME_CELL_CYCLE_MITOTIC"}, "inbound_nodes": []}, {"name": "REACTOME_GLUCONEOGENESIS", "class_name": "InputLayer", "config": {"batch_input_shape": [null, 32], "dtype": "float32", "sparse": false, "name": "REACTOME_GLUCONEOGENESIS"}, "inbound_nodes": []}, {"name": "REACTOME_DOPAMINE_NEUROTRANSMITTER_RELEASE_CYCLE", "class_name": "InputLayer", "config": {"batch_input_shape": [null, 11], "dtype": "float32", "sparse": false, "name": "REACTOME_DOPAMINE_NEUROTRANSMITTER_RELEASE_CYCLE"}, "inbound_nodes": []}, {"name": "REACTOME_OPIOID_SIGNALLING", "class_name": "InputLayer", "config": {"batch_input_shape": [null, 77], "dtype": "float32", "sparse": false, "name": "REACTOME_OPIOID_SIGNALLING"}, "inbound_nodes": []}, {"name": "REACTOME_RECRUITMENT_OF_MITOTIC_CENTROSOME_PROTEINS_AND_COMPLEXES", "class_name": "InputLayer", "config": {"batch_input_shape": [null, 63], "dtype": "float32", "sparse": false, "name": "REACTOME_RECRUITMENT_OF_MITOTIC_CENTROSOME_PROTEINS_AND_COMPLEXES"}, "inbound_nodes": []}, {"name": "REACTOME_MITOCHONDRIAL_TRNA_AMINOACYLATION", "class_name": "InputLayer", "config": {"batch_input_shape": [null, 21], "dtype": "float32", "sparse": false, "name": "REACTOME_MITOCHONDRIAL_TRNA_AMINOACYLATION"}, "inbound_nodes": []}, {"name": "REACTOME_CYTOSOLIC_TRNA_AMINOACYLATION", "class_name": "InputLayer", "config": {"batch_input_shape": [null, 24], "dtype": "float32", "sparse": false, "name": "REACTOME_CYTOSOLIC_TRNA_AMINOACYLATION"}, "inbound_nodes": []}, {"name": "REACTOME_CA_DEPENDENT_EVENTS", "class_name": "InputLayer", "config": {"batch_input_shape": [null, 29], "dtype": "float32", "sparse": false, "name": "REACTOME_CA_DEPENDENT_EVENTS"}, "inbound_nodes": []}, {"name": "REACTOME_ACETYLCHOLINE_NEUROTRANSMITTER_RELEASE_CYCLE", "class_name": "InputLayer", "config": {"batch_input_shape": [null, 10], "dtype": "float32", "sparse": false, "name": "REACTOME_ACETYLCHOLINE_NEUROTRANSMITTER_RELEASE_CYCLE"}, "inbound_nodes": []}, {"name": "REACTOME_ADENYLATE_CYCLASE_ACTIVATING_PATHWAY", "class_name": "InputLayer", "config": {"batch_input_shape": [null, 10], "dtype": "float32", "sparse": false, "name": "REACTOME_ADENYLATE_CYCLASE_ACTIVATING_PATHWAY"}, "inbound_nodes": []}, {"name": "REACTOME_ADENYLATE_CYCLASE_INHIBITORY_PATHWAY", "class_name": "InputLayer", "config": {"batch_input_shape": [null, 13], "dtype": "float32", "sparse": false, "name": "REACTOME_ADENYLATE_CYCLASE_INHIBITORY_PATHWAY"}, "inbound_nodes": []}, {"name": "REACTOME_DARPP_32_EVENTS", "class_name": "InputLayer", "config": {"batch_input_shape": [null, 24], "dtype": "float32", "sparse": false, "name": "REACTOME_DARPP_32_EVENTS"}, "inbound_nodes": []}, {"name": "REACTOME_CHEMOKINE_RECEPTORS_BIND_CHEMOKINES", "class_name": "InputLayer", "config": {"batch_input_shape": [null, 50], "dtype": "float32", "sparse": false, "name": "REACTOME_CHEMOKINE_RECEPTORS_BIND_CHEMOKINES"}, "inbound_nodes": []}, {"name": "REACTOME_LOSS_OF_NLP_FROM_MITOTIC_CENTROSOMES", "class_name": "InputLayer", "config": {"batch_input_shape": [null, 56], "dtype": "float32", "sparse": false, "name": "REACTOME_LOSS_OF_NLP_FROM_MITOTIC_CENTROSOMES"}, "inbound_nodes": []}, {"name": "REACTOME_NEUROTRANSMITTER_RECEPTOR_BINDING_AND_DOWNSTREAM_TRANSMISSION_IN_THE_POSTSYNAPTIC_CELL", "class_name": "InputLayer", "config": {"batch_input_shape": [null, 135], "dtype": "float32", "sparse": false, "name": "REACTOME_NEUROTRANSMITTER_RECEPTOR_BINDING_AND_DOWNSTREAM_TRANSMISSION_IN_THE_POSTSYNAPTIC_CELL"}, "inbound_nodes": []}, {"name": "REACTOME_CELL_CYCLE_CHECKPOINTS", "class_name": "InputLayer", "config": {"batch_input_shape": [null, 112], "dtype": "float32", "sparse": false, "name": "REACTOME_CELL_CYCLE_CHECKPOINTS"}, "inbound_nodes": []}, {"name": "REACTOME_DIABETES_PATHWAYS", "class_name": "InputLayer", "config": {"batch_input_shape": [null, 128], "dtype": "float32", "sparse": false, "name": "REACTOME_DIABETES_PATHWAYS"}, "inbound_nodes": []}, {"name": "REACTOME_P130CAS_LINKAGE_TO_MAPK_SIGNALING_FOR_INTEGRINS", "class_name": "InputLayer", "config": {"batch_input_shape": [null, 15], "dtype": "float32", "sparse": false, "name": "REACTOME_P130CAS_LINKAGE_TO_MAPK_SIGNALING_FOR_INTEGRINS"}, "inbound_nodes": []}, {"name": "REACTOME_GLYCOPROTEIN_HORMONES", "class_name": "InputLayer", "config": {"batch_input_shape": [null, 12], "dtype": "float32", "sparse": false, "name": "REACTOME_GLYCOPROTEIN_HORMONES"}, "inbound_nodes": []}, {"name": "REACTOME_NOREPINEPHRINE_NEUROTRANSMITTER_RELEASE_CYCLE", "class_name": "InputLayer", "config": {"batch_input_shape": [null, 10], "dtype": "float32", "sparse": false, "name": "REACTOME_NOREPINEPHRINE_NEUROTRANSMITTER_RELEASE_CYCLE"}, "inbound_nodes": []}, {"name": "REACTOME_PLC_BETA_MEDIATED_EVENTS", "class_name": "InputLayer", "config": {"batch_input_shape": [null, 42], "dtype": "float32", "sparse": false, "name": "REACTOME_PLC_BETA_MEDIATED_EVENTS"}, "inbound_nodes": []}, {"name": "REACTOME_REGULATION_OF_INSULIN_LIKE_GROWTH_FACTOR_IGF_ACTIVITY_BY_INSULIN_LIKE_GROWTH_FACTOR_BINDING_PROTEINS_IGFBPS", "class_name": "InputLayer", "config": {"batch_input_shape": [null, 16], "dtype": "float32", "sparse": false, "name": "REACTOME_REGULATION_OF_INSULIN_LIKE_GROWTH_FACTOR_IGF_ACTIVITY_BY_INSULIN_LIKE_GROWTH_FACTOR_BINDING_PROTEINS_IGFBPS"}, "inbound_nodes": []}, {"name": "REACTOME_GRB2_SOS_PROVIDES_LINKAGE_TO_MAPK_SIGNALING_FOR_INTERGRINS_", "class_name": "InputLayer", "config": {"batch_input_shape": [null, 15], "dtype": "float32", "sparse": false, "name": "REACTOME_GRB2_SOS_PROVIDES_LINKAGE_TO_MAPK_SIGNALING_FOR_INTERGRINS_"}, "inbound_nodes": []}, {"name": "REACTOME_PEPTIDE_HORMONE_BIOSYNTHESIS", "class_name": "InputLayer", "config": {"batch_input_shape": [null, 14], "dtype": "float32", "sparse": false, "name": "REACTOME_PEPTIDE_HORMONE_BIOSYNTHESIS"}, "inbound_nodes": []}, {"name": "REACTOME_G_PROTEIN_ACTIVATION", "class_name": "InputLayer", "config": {"batch_input_shape": [null, 27], "dtype": "float32", "sparse": false, "name": "REACTOME_G_PROTEIN_ACTIVATION"}, "inbound_nodes": []}, {"name": "REACTOME_ACETYLCHOLINE_BINDING_AND_DOWNSTREAM_EVENTS", "class_name": "InputLayer", "config": {"batch_input_shape": [null, 15], "dtype": "float32", "sparse": false, "name": "REACTOME_ACETYLCHOLINE_BINDING_AND_DOWNSTREAM_EVENTS"}, "inbound_nodes": []}, {"name": "REACTOME_ABC_FAMILY_PROTEINS_MEDIATED_TRANSPORT", "class_name": "InputLayer", "config": {"batch_input_shape": [null, 34], "dtype": "float32", "sparse": false, "name": "REACTOME_ABC_FAMILY_PROTEINS_MEDIATED_TRANSPORT"}, "inbound_nodes": []}, {"name": "REACTOME_TRNA_AMINOACYLATION", "class_name": "InputLayer", "config": {"batch_input_shape": [null, 42], "dtype": "float32", "sparse": false, "name": "REACTOME_TRNA_AMINOACYLATION"}, "inbound_nodes": []}, {"name": "REACTOME_OLFACTORY_SIGNALING_PATHWAY", "class_name": "InputLayer", "config": {"batch_input_shape": [null, 322], "dtype": "float32", "sparse": false, "name": "REACTOME_OLFACTORY_SIGNALING_PATHWAY"}, "inbound_nodes": []}, {"name": "REACTOME_STEROID_HORMONES", "class_name": "InputLayer", "config": {"batch_input_shape": [null, 29], "dtype": "float32", "sparse": false, "name": "REACTOME_STEROID_HORMONES"}, "inbound_nodes": []}, {"name": "REACTOME_PKA_MEDIATED_PHOSPHORYLATION_OF_CREB", "class_name": "InputLayer", "config": {"batch_input_shape": [null, 17], "dtype": "float32", "sparse": false, "name": "REACTOME_PKA_MEDIATED_PHOSPHORYLATION_OF_CREB"}, "inbound_nodes": []}, {"name": "REACTOME_RECRUITMENT_OF_NUMA_TO_MITOTIC_CENTROSOMES", "class_name": "InputLayer", "config": {"batch_input_shape": [null, 10], "dtype": "float32", "sparse": false, "name": "REACTOME_RECRUITMENT_OF_NUMA_TO_MITOTIC_CENTROSOMES"}, "inbound_nodes": []}, {"name": "REACTOME_AMINE_DERIVED_HORMONES", "class_name": "InputLayer", "config": {"batch_input_shape": [null, 15], "dtype": "float32", "sparse": false, "name": "REACTOME_AMINE_DERIVED_HORMONES"}, "inbound_nodes": []}, {"name": "REACTOME_TRANSMEMBRANE_TRANSPORT_OF_SMALL_MOLECULES", "class_name": "InputLayer", "config": {"batch_input_shape": [null, 409], "dtype": "float32", "sparse": false, "name": "REACTOME_TRANSMEMBRANE_TRANSPORT_OF_SMALL_MOLECULES"}, "inbound_nodes": []}, {"name": "REACTOME_INTEGRIN_ALPHAIIB_BETA3_SIGNALING", "class_name": "InputLayer", "config": {"batch_input_shape": [null, 27], "dtype": "float32", "sparse": false, "name": "REACTOME_INTEGRIN_ALPHAIIB_BETA3_SIGNALING"}, "inbound_nodes": []}, {"name": "REACTOME_NUCLEAR_RECEPTOR_TRANSCRIPTION_PATHWAY", "class_name": "InputLayer", "config": {"batch_input_shape": [null, 47], "dtype": "float32", "sparse": false, "name": "REACTOME_NUCLEAR_RECEPTOR_TRANSCRIPTION_PATHWAY"}, "inbound_nodes": []}, {"name": "REACTOME_INSULIN_SYNTHESIS_AND_PROCESSING", "class_name": "InputLayer", "config": {"batch_input_shape": [null, 20], "dtype": "float32", "sparse": false, "name": "REACTOME_INSULIN_SYNTHESIS_AND_PROCESSING"}, "inbound_nodes": []}, {"name": "REACTOME_CYCLIN_E_ASSOCIATED_EVENTS_DURING_G1_S_TRANSITION_", "class_name": "InputLayer", "config": {"batch_input_shape": [null, 62], "dtype": "float32", "sparse": false, "name": "REACTOME_CYCLIN_E_ASSOCIATED_EVENTS_DURING_G1_S_TRANSITION_"}, "inbound_nodes": []}, {"name": "REACTOME_HOMOLOGOUS_RECOMBINATION_REPAIR_OF_REPLICATION_INDEPENDENT_DOUBLE_STRAND_BREAKS", "class_name": "InputLayer", "config": {"batch_input_shape": [null, 16], "dtype": "float32", "sparse": false, "name": "REACTOME_HOMOLOGOUS_RECOMBINATION_REPAIR_OF_REPLICATION_INDEPENDENT_DOUBLE_STRAND_BREAKS"}, "inbound_nodes": []}, {"name": "REACTOME_G1_PHASE", "class_name": "InputLayer", "config": {"batch_input_shape": [null, 35], "dtype": "float32", "sparse": false, "name": "REACTOME_G1_PHASE"}, "inbound_nodes": []}, {"name": "REACTOME_ELEVATION_OF_CYTOSOLIC_CA2_LEVELS", "class_name": "InputLayer", "config": {"batch_input_shape": [null, 8], "dtype": "float32", "sparse": false, "name": "REACTOME_ELEVATION_OF_CYTOSOLIC_CA2_LEVELS"}, "inbound_nodes": []}, {"name": "REACTOME_P53_DEPENDENT_G1_DNA_DAMAGE_RESPONSE", "class_name": "InputLayer", "config": {"batch_input_shape": [null, 54], "dtype": "float32", "sparse": false, "name": "REACTOME_P53_DEPENDENT_G1_DNA_DAMAGE_RESPONSE"}, "inbound_nodes": []}, {"name": "REACTOME_TRANSCRIPTION_COUPLED_NER_TC_NER", "class_name": "InputLayer", "config": {"batch_input_shape": [null, 44], "dtype": "float32", "sparse": false, "name": "REACTOME_TRANSCRIPTION_COUPLED_NER_TC_NER"}, "inbound_nodes": []}, {"name": "REACTOME_RNA_POL_II_TRANSCRIPTION_PRE_INITIATION_AND_PROMOTER_OPENING", "class_name": "InputLayer", "config": {"batch_input_shape": [null, 40], "dtype": "float32", "sparse": false, "name": "REACTOME_RNA_POL_II_TRANSCRIPTION_PRE_INITIATION_AND_PROMOTER_OPENING"}, "inbound_nodes": []}, {"name": "REACTOME_GLUCAGON_SIGNALING_IN_METABOLIC_REGULATION", "class_name": "InputLayer", "config": {"batch_input_shape": [null, 33], "dtype": "float32", "sparse": false, "name": "REACTOME_GLUCAGON_SIGNALING_IN_METABOLIC_REGULATION"}, "inbound_nodes": []}, {"name": "REACTOME_MRNA_PROCESSING", "class_name": "InputLayer", "config": {"batch_input_shape": [null, 155], "dtype": "float32", "sparse": false, "name": "REACTOME_MRNA_PROCESSING"}, "inbound_nodes": []}, {"name": "REACTOME_SIGNALING_BY_PDGF", "class_name": "InputLayer", "config": {"batch_input_shape": [null, 118], "dtype": "float32", "sparse": false, "name": "REACTOME_SIGNALING_BY_PDGF"}, "inbound_nodes": []}, {"name": "REACTOME_ASSOCIATION_OF_TRIC_CCT_WITH_TARGET_PROTEINS_DURING_BIOSYNTHESIS", "class_name": "InputLayer", "config": {"batch_input_shape": [null, 26], "dtype": "float32", "sparse": false, "name": "REACTOME_ASSOCIATION_OF_TRIC_CCT_WITH_TARGET_PROTEINS_DURING_BIOSYNTHESIS"}, "inbound_nodes": []}, {"name": "REACTOME_PREFOLDIN_MEDIATED_TRANSFER_OF_SUBSTRATE_TO_CCT_TRIC", "class_name": "InputLayer", "config": {"batch_input_shape": [null, 27], "dtype": "float32", "sparse": false, "name": "REACTOME_PREFOLDIN_MEDIATED_TRANSFER_OF_SUBSTRATE_TO_CCT_TRIC"}, "inbound_nodes": []}, {"name": "REACTOME_HORMONE_LIGAND_BINDING_RECEPTORS", "class_name": "InputLayer", "config": {"batch_input_shape": [null, 10], "dtype": "float32", "sparse": false, "name": "REACTOME_HORMONE_LIGAND_BINDING_RECEPTORS"}, "inbound_nodes": []}, {"name": "REACTOME_GPVI_MEDIATED_ACTIVATION_CASCADE", "class_name": "InputLayer", "config": {"batch_input_shape": [null, 31], "dtype": "float32", "sparse": false, "name": "REACTOME_GPVI_MEDIATED_ACTIVATION_CASCADE"}, "inbound_nodes": []}, {"name": "REACTOME_PROTEIN_FOLDING", "class_name": "InputLayer", "config": {"batch_input_shape": [null, 51], "dtype": "float32", "sparse": false, "name": "REACTOME_PROTEIN_FOLDING"}, "inbound_nodes": []}, {"name": "REACTOME_FORMATION_OF_TUBULIN_FOLDING_INTERMEDIATES_BY_CCT_TRIC", "class_name": "InputLayer", "config": {"batch_input_shape": [null, 21], "dtype": "float32", "sparse": false, "name": "REACTOME_FORMATION_OF_TUBULIN_FOLDING_INTERMEDIATES_BY_CCT_TRIC"}, "inbound_nodes": []}, {"name": "REACTOME_PEROXISOMAL_LIPID_METABOLISM", "class_name": "InputLayer", "config": {"batch_input_shape": [null, 21], "dtype": "float32", "sparse": false, "name": "REACTOME_PEROXISOMAL_LIPID_METABOLISM"}, "inbound_nodes": []}, {"name": "REACTOME_POST_CHAPERONIN_TUBULIN_FOLDING_PATHWAY", "class_name": "InputLayer", "config": {"batch_input_shape": [null, 18], "dtype": "float32", "sparse": false, "name": "REACTOME_POST_CHAPERONIN_TUBULIN_FOLDING_PATHWAY"}, "inbound_nodes": []}, {"name": "REACTOME_STRIATED_MUSCLE_CONTRACTION", "class_name": "InputLayer", "config": {"batch_input_shape": [null, 27], "dtype": "float32", "sparse": false, "name": "REACTOME_STRIATED_MUSCLE_CONTRACTION"}, "inbound_nodes": []}, {"name": "REACTOME_METABOLISM_OF_NUCLEOTIDES", "class_name": "InputLayer", "config": {"batch_input_shape": [null, 70], "dtype": "float32", "sparse": false, "name": "REACTOME_METABOLISM_OF_NUCLEOTIDES"}, "inbound_nodes": []}, {"name": "REACTOME_AMINE_LIGAND_BINDING_RECEPTORS", "class_name": "InputLayer", "config": {"batch_input_shape": [null, 37], "dtype": "float32", "sparse": false, "name": "REACTOME_AMINE_LIGAND_BINDING_RECEPTORS"}, "inbound_nodes": []}, {"name": "REACTOME_METABOLISM_OF_PROTEINS", "class_name": "InputLayer", "config": {"batch_input_shape": [null, 447], "dtype": "float32", "sparse": false, "name": "REACTOME_METABOLISM_OF_PROTEINS"}, "inbound_nodes": []}, {"name": "REACTOME_DOWNSTREAM_SIGNAL_TRANSDUCTION", "class_name": "InputLayer", "config": {"batch_input_shape": [null, 91], "dtype": "float32", "sparse": false, "name": "REACTOME_DOWNSTREAM_SIGNAL_TRANSDUCTION"}, "inbound_nodes": []}, {"name": "REACTOME_MUSCLE_CONTRACTION", "class_name": "InputLayer", "config": {"batch_input_shape": [null, 47], "dtype": "float32", "sparse": false, "name": "REACTOME_MUSCLE_CONTRACTION"}, "inbound_nodes": []}, {"name": "REACTOME_SEROTONIN_RECEPTORS", "class_name": "InputLayer", "config": {"batch_input_shape": [null, 12], "dtype": "float32", "sparse": false, "name": "REACTOME_SEROTONIN_RECEPTORS"}, "inbound_nodes": []}, {"name": "REACTOME_CDC6_ASSOCIATION_WITH_THE_ORC_ORIGIN_COMPLEX", "class_name": "InputLayer", "config": {"batch_input_shape": [null, 11], "dtype": "float32", "sparse": false, "name": "REACTOME_CDC6_ASSOCIATION_WITH_THE_ORC_ORIGIN_COMPLEX"}, "inbound_nodes": []}, {"name": "REACTOME_M_G1_TRANSITION", "class_name": "InputLayer", "config": {"batch_input_shape": [null, 78], "dtype": "float32", "sparse": false, "name": "REACTOME_M_G1_TRANSITION"}, "inbound_nodes": []}, {"name": "REACTOME_MRNA_SPLICING", "class_name": "InputLayer", "config": {"batch_input_shape": [null, 106], "dtype": "float32", "sparse": false, "name": "REACTOME_MRNA_SPLICING"}, "inbound_nodes": []}, {"name": "REACTOME_MRNA_SPLICING_MINOR_PATHWAY", "class_name": "InputLayer", "config": {"batch_input_shape": [null, 42], "dtype": "float32", "sparse": false, "name": "REACTOME_MRNA_SPLICING_MINOR_PATHWAY"}, "inbound_nodes": []}, {"name": "REACTOME_3_UTR_MEDIATED_TRANSLATIONAL_REGULATION", "class_name": "InputLayer", "config": {"batch_input_shape": [null, 128], "dtype": "float32", "sparse": false, "name": "REACTOME_3_UTR_MEDIATED_TRANSLATIONAL_REGULATION"}, "inbound_nodes": []}, {"name": "REACTOME_PROCESSING_OF_CAPPED_INTRONLESS_PRE_MRNA", "class_name": "InputLayer", "config": {"batch_input_shape": [null, 23], "dtype": "float32", "sparse": false, "name": "REACTOME_PROCESSING_OF_CAPPED_INTRONLESS_PRE_MRNA"}, "inbound_nodes": []}, {"name": "REACTOME_PURINE_RIBONUCLEOSIDE_MONOPHOSPHATE_BIOSYNTHESIS", "class_name": "InputLayer", "config": {"batch_input_shape": [null, 11], "dtype": "float32", "sparse": false, "name": "REACTOME_PURINE_RIBONUCLEOSIDE_MONOPHOSPHATE_BIOSYNTHESIS"}, "inbound_nodes": []}, {"name": "REACTOME_G1_S_TRANSITION", "class_name": "InputLayer", "config": {"batch_input_shape": [null, 107], "dtype": "float32", "sparse": false, "name": "REACTOME_G1_S_TRANSITION"}, "inbound_nodes": []}, {"name": "REACTOME_CITRIC_ACID_CYCLE_TCA_CYCLE", "class_name": "InputLayer", "config": {"batch_input_shape": [null, 20], "dtype": "float32", "sparse": false, "name": "REACTOME_CITRIC_ACID_CYCLE_TCA_CYCLE"}, "inbound_nodes": []}, {"name": "REACTOME_TRANSCRIPTION", "class_name": "InputLayer", "config": {"batch_input_shape": [null, 200], "dtype": "float32", "sparse": false, "name": "REACTOME_TRANSCRIPTION"}, "inbound_nodes": []}, {"name": "REACTOME_POL_SWITCHING", "class_name": "InputLayer", "config": {"batch_input_shape": [null, 13], "dtype": "float32", "sparse": false, "name": "REACTOME_POL_SWITCHING"}, "inbound_nodes": []}, {"name": "REACTOME_NUCLEOTIDE_EXCISION_REPAIR", "class_name": "InputLayer", "config": {"batch_input_shape": [null, 49], "dtype": "float32", "sparse": false, "name": "REACTOME_NUCLEOTIDE_EXCISION_REPAIR"}, "inbound_nodes": []}, {"name": "REACTOME_REGULATION_OF_THE_FANCONI_ANEMIA_PATHWAY", "class_name": "InputLayer", "config": {"batch_input_shape": [null, 7], "dtype": "float32", "sparse": false, "name": "REACTOME_REGULATION_OF_THE_FANCONI_ANEMIA_PATHWAY"}, "inbound_nodes": []}, {"name": "REACTOME_AXON_GUIDANCE", "class_name": "InputLayer", "config": {"batch_input_shape": [null, 242], "dtype": "float32", "sparse": false, "name": "REACTOME_AXON_GUIDANCE"}, "inbound_nodes": []}, {"name": "REACTOME_ACTIVATION_OF_CHAPERONE_GENES_BY_XBP1S", "class_name": "InputLayer", "config": {"batch_input_shape": [null, 45], "dtype": "float32", "sparse": false, "name": "REACTOME_ACTIVATION_OF_CHAPERONE_GENES_BY_XBP1S"}, "inbound_nodes": []}, {"name": "REACTOME_REGULATION_OF_INSULIN_SECRETION_BY_GLUCAGON_LIKE_PEPTIDE1", "class_name": "InputLayer", "config": {"batch_input_shape": [null, 42], "dtype": "float32", "sparse": false, "name": "REACTOME_REGULATION_OF_INSULIN_SECRETION_BY_GLUCAGON_LIKE_PEPTIDE1"}, "inbound_nodes": []}, {"name": "REACTOME_PERK_REGULATED_GENE_EXPRESSION", "class_name": "InputLayer", "config": {"batch_input_shape": [null, 27], "dtype": "float32", "sparse": false, "name": "REACTOME_PERK_REGULATED_GENE_EXPRESSION"}, "inbound_nodes": []}, {"name": "REACTOME_G_ALPHA_Q_SIGNALLING_EVENTS", "class_name": "InputLayer", "config": {"batch_input_shape": [null, 179], "dtype": "float32", "sparse": false, "name": "REACTOME_G_ALPHA_Q_SIGNALLING_EVENTS"}, "inbound_nodes": []}, {"name": "REACTOME_P2Y_RECEPTORS", "class_name": "InputLayer", "config": {"batch_input_shape": [null, 12], "dtype": "float32", "sparse": false, "name": "REACTOME_P2Y_RECEPTORS"}, "inbound_nodes": []}, {"name": "REACTOME_TRAFFICKING_OF_AMPA_RECEPTORS", "class_name": "InputLayer", "config": {"batch_input_shape": [null, 27], "dtype": "float32", "sparse": false, "name": "REACTOME_TRAFFICKING_OF_AMPA_RECEPTORS"}, "inbound_nodes": []}, {"name": "REACTOME_NCAM1_INTERACTIONS", "class_name": "InputLayer", "config": {"batch_input_shape": [null, 39], "dtype": "float32", "sparse": false, "name": "REACTOME_NCAM1_INTERACTIONS"}, "inbound_nodes": []}, {"name": "REACTOME_CLASS_C_3_METABOTROPIC_GLUTAMATE_PHEROMONE_RECEPTORS", "class_name": "InputLayer", "config": {"batch_input_shape": [null, 14], "dtype": "float32", "sparse": false, "name": "REACTOME_CLASS_C_3_METABOTROPIC_GLUTAMATE_PHEROMONE_RECEPTORS"}, "inbound_nodes": []}, {"name": "REACTOME_REGULATION_OF_INSULIN_SECRETION", "class_name": "InputLayer", "config": {"batch_input_shape": [null, 89], "dtype": "float32", "sparse": false, "name": "REACTOME_REGULATION_OF_INSULIN_SECRETION"}, "inbound_nodes": []}, {"name": "REACTOME_NCAM_SIGNALING_FOR_NEURITE_OUT_GROWTH", "class_name": "InputLayer", "config": {"batch_input_shape": [null, 64], "dtype": "float32", "sparse": false, "name": "REACTOME_NCAM_SIGNALING_FOR_NEURITE_OUT_GROWTH"}, "inbound_nodes": []}, {"name": "REACTOME_INHIBITION_OF_INSULIN_SECRETION_BY_ADRENALINE_NORADRENALINE", "class_name": "InputLayer", "config": {"batch_input_shape": [null, 25], "dtype": "float32", "sparse": false, "name": "REACTOME_INHIBITION_OF_INSULIN_SECRETION_BY_ADRENALINE_NORADRENALINE"}, "inbound_nodes": []}, {"name": "REACTOME_NUCLEOTIDE_LIKE_PURINERGIC_RECEPTORS", "class_name": "InputLayer", "config": {"batch_input_shape": [null, 16], "dtype": "float32", "sparse": false, "name": "REACTOME_NUCLEOTIDE_LIKE_PURINERGIC_RECEPTORS"}, "inbound_nodes": []}, {"name": "REACTOME_ACTIVATION_OF_CHAPERONES_BY_ATF6_ALPHA", "class_name": "InputLayer", "config": {"batch_input_shape": [null, 12], "dtype": "float32", "sparse": false, "name": "REACTOME_ACTIVATION_OF_CHAPERONES_BY_ATF6_ALPHA"}, "inbound_nodes": []}, {"name": "REACTOME_TRANSPORT_OF_MATURE_MRNA_DERIVED_FROM_AN_INTRONLESS_TRANSCRIPT", "class_name": "InputLayer", "config": {"batch_input_shape": [null, 32], "dtype": "float32", "sparse": false, "name": "REACTOME_TRANSPORT_OF_MATURE_MRNA_DERIVED_FROM_AN_INTRONLESS_TRANSCRIPT"}, "inbound_nodes": []}, {"name": "REACTOME_EICOSANOID_LIGAND_BINDING_RECEPTORS", "class_name": "InputLayer", "config": {"batch_input_shape": [null, 14], "dtype": "float32", "sparse": false, "name": "REACTOME_EICOSANOID_LIGAND_BINDING_RECEPTORS"}, "inbound_nodes": []}, {"name": "REACTOME_ACTIVATION_OF_GENES_BY_ATF4", "class_name": "InputLayer", "config": {"batch_input_shape": [null, 24], "dtype": "float32", "sparse": false, "name": "REACTOME_ACTIVATION_OF_GENES_BY_ATF4"}, "inbound_nodes": []}, {"name": "REACTOME_UNFOLDED_PROTEIN_RESPONSE", "class_name": "InputLayer", "config": {"batch_input_shape": [null, 77], "dtype": "float32", "sparse": false, "name": "REACTOME_UNFOLDED_PROTEIN_RESPONSE"}, "inbound_nodes": []}, {"name": "REACTOME_CLASS_B_2_SECRETIN_FAMILY_RECEPTORS", "class_name": "InputLayer", "config": {"batch_input_shape": [null, 83], "dtype": "float32", "sparse": false, "name": "REACTOME_CLASS_B_2_SECRETIN_FAMILY_RECEPTORS"}, "inbound_nodes": []}, {"name": "REACTOME_GLUCAGON_TYPE_LIGAND_RECEPTORS", "class_name": "InputLayer", "config": {"batch_input_shape": [null, 33], "dtype": "float32", "sparse": false, "name": "REACTOME_GLUCAGON_TYPE_LIGAND_RECEPTORS"}, "inbound_nodes": []}, {"name": "REACTOME_REGULATION_OF_INSULIN_SECRETION_BY_ACETYLCHOLINE", "class_name": "InputLayer", "config": {"batch_input_shape": [null, 10], "dtype": "float32", "sparse": false, "name": "REACTOME_REGULATION_OF_INSULIN_SECRETION_BY_ACETYLCHOLINE"}, "inbound_nodes": []}, {"name": "REACTOME_G_ALPHA1213_SIGNALLING_EVENTS", "class_name": "InputLayer", "config": {"batch_input_shape": [null, 74], "dtype": "float32", "sparse": false, "name": "REACTOME_G_ALPHA1213_SIGNALLING_EVENTS"}, "inbound_nodes": []}, {"name": "REACTOME_FANCONI_ANEMIA_PATHWAY", "class_name": "InputLayer", "config": {"batch_input_shape": [null, 19], "dtype": "float32", "sparse": false, "name": "REACTOME_FANCONI_ANEMIA_PATHWAY"}, "inbound_nodes": []}, {"name": "REACTOME_TRAFFICKING_OF_GLUR2_CONTAINING_AMPA_RECEPTORS", "class_name": "InputLayer", "config": {"batch_input_shape": [null, 15], "dtype": "float32", "sparse": false, "name": "REACTOME_TRAFFICKING_OF_GLUR2_CONTAINING_AMPA_RECEPTORS"}, "inbound_nodes": []}, {"name": "REACTOME_ACTIVATION_OF_CHAPERONE_GENES_BY_ATF6_ALPHA", "class_name": "InputLayer", "config": {"batch_input_shape": [null, 10], "dtype": "float32", "sparse": false, "name": "REACTOME_ACTIVATION_OF_CHAPERONE_GENES_BY_ATF6_ALPHA"}, "inbound_nodes": []}, {"name": "REACTOME_PROSTANOID_LIGAND_RECEPTORS", "class_name": "InputLayer", "config": {"batch_input_shape": [null, 8], "dtype": "float32", "sparse": false, "name": "REACTOME_PROSTANOID_LIGAND_RECEPTORS"}, "inbound_nodes": []}, {"name": "REACTOME_OPSINS", "class_name": "InputLayer", "config": {"batch_input_shape": [null, 10], "dtype": "float32", "sparse": false, "name": "REACTOME_OPSINS"}, "inbound_nodes": []}, {"name": "REACTOME_FORMATION_OF_RNA_POL_II_ELONGATION_COMPLEX_", "class_name": "InputLayer", "config": {"batch_input_shape": [null, 40], "dtype": "float32", "sparse": false, "name": "REACTOME_FORMATION_OF_RNA_POL_II_ELONGATION_COMPLEX_"}, "inbound_nodes": []}, {"name": "REACTOME_MRNA_3_END_PROCESSING", "class_name": "InputLayer", "config": {"batch_input_shape": [null, 33], "dtype": "float32", "sparse": false, "name": "REACTOME_MRNA_3_END_PROCESSING"}, "inbound_nodes": []}, {"name": "REACTOME_POST_TRANSLATIONAL_MODIFICATION_SYNTHESIS_OF_GPI_ANCHORED_PROTEINS", "class_name": "InputLayer", "config": {"batch_input_shape": [null, 26], "dtype": "float32", "sparse": false, "name": "REACTOME_POST_TRANSLATIONAL_MODIFICATION_SYNTHESIS_OF_GPI_ANCHORED_PROTEINS"}, "inbound_nodes": []}, {"name": "REACTOME_CYCLIN_A_B1_ASSOCIATED_EVENTS_DURING_G2_M_TRANSITION", "class_name": "InputLayer", "config": {"batch_input_shape": [null, 15], "dtype": "float32", "sparse": false, "name": "REACTOME_CYCLIN_A_B1_ASSOCIATED_EVENTS_DURING_G2_M_TRANSITION"}, "inbound_nodes": []}, {"name": "REACTOME_ELONGATION_ARREST_AND_RECOVERY", "class_name": "InputLayer", "config": {"batch_input_shape": [null, 28], "dtype": "float32", "sparse": false, "name": "REACTOME_ELONGATION_ARREST_AND_RECOVERY"}, "inbound_nodes": []}, {"name": "REACTOME_SLC_MEDIATED_TRANSMEMBRANE_TRANSPORT", "class_name": "InputLayer", "config": {"batch_input_shape": [null, 239], "dtype": "float32", "sparse": false, "name": "REACTOME_SLC_MEDIATED_TRANSMEMBRANE_TRANSPORT"}, "inbound_nodes": []}, {"name": "REACTOME_ADP_SIGNALLING_THROUGH_P2RY1", "class_name": "InputLayer", "config": {"batch_input_shape": [null, 25], "dtype": "float32", "sparse": false, "name": "REACTOME_ADP_SIGNALLING_THROUGH_P2RY1"}, "inbound_nodes": []}, {"name": "REACTOME_G_BETA_GAMMA_SIGNALLING_THROUGH_PLC_BETA", "class_name": "InputLayer", "config": {"batch_input_shape": [null, 20], "dtype": "float32", "sparse": false, "name": "REACTOME_G_BETA_GAMMA_SIGNALLING_THROUGH_PLC_BETA"}, "inbound_nodes": []}, {"name": "REACTOME_CD28_CO_STIMULATION", "class_name": "InputLayer", "config": {"batch_input_shape": [null, 31], "dtype": "float32", "sparse": false, "name": "REACTOME_CD28_CO_STIMULATION"}, "inbound_nodes": []}, {"name": "REACTOME_GPCR_DOWNSTREAM_SIGNALING", "class_name": "InputLayer", "config": {"batch_input_shape": [null, 786], "dtype": "float32", "sparse": false, "name": "REACTOME_GPCR_DOWNSTREAM_SIGNALING"}, "inbound_nodes": []}, {"name": "REACTOME_SYNTHESIS_SECRETION_AND_DEACYLATION_OF_GHRELIN", "class_name": "InputLayer", "config": {"batch_input_shape": [null, 15], "dtype": "float32", "sparse": false, "name": "REACTOME_SYNTHESIS_SECRETION_AND_DEACYLATION_OF_GHRELIN"}, "inbound_nodes": []}, {"name": "REACTOME_ADHERENS_JUNCTIONS_INTERACTIONS", "class_name": "InputLayer", "config": {"batch_input_shape": [null, 27], "dtype": "float32", "sparse": false, "name": "REACTOME_ADHERENS_JUNCTIONS_INTERACTIONS"}, "inbound_nodes": []}, {"name": "REACTOME_CRMPS_IN_SEMA3A_SIGNALING", "class_name": "InputLayer", "config": {"batch_input_shape": [null, 14], "dtype": "float32", "sparse": false, "name": "REACTOME_CRMPS_IN_SEMA3A_SIGNALING"}, "inbound_nodes": []}, {"name": "REACTOME_OTHER_SEMAPHORIN_INTERACTIONS", "class_name": "InputLayer", "config": {"batch_input_shape": [null, 15], "dtype": "float32", "sparse": false, "name": "REACTOME_OTHER_SEMAPHORIN_INTERACTIONS"}, "inbound_nodes": []}, {"name": "REACTOME_ACTIVATION_OF_RAC", "class_name": "InputLayer", "config": {"batch_input_shape": [null, 13], "dtype": "float32", "sparse": false, "name": "REACTOME_ACTIVATION_OF_RAC"}, "inbound_nodes": []}, {"name": "REACTOME_PURINE_SALVAGE", "class_name": "InputLayer", "config": {"batch_input_shape": [null, 13], "dtype": "float32", "sparse": false, "name": "REACTOME_PURINE_SALVAGE"}, "inbound_nodes": []}, {"name": "REACTOME_G_ALPHA_I_SIGNALLING_EVENTS", "class_name": "InputLayer", "config": {"batch_input_shape": [null, 188], "dtype": "float32", "sparse": false, "name": "REACTOME_G_ALPHA_I_SIGNALLING_EVENTS"}, "inbound_nodes": []}, {"name": "REACTOME_SEMA3A_PAK_DEPENDENT_AXON_REPULSION", "class_name": "InputLayer", "config": {"batch_input_shape": [null, 14], "dtype": "float32", "sparse": false, "name": "REACTOME_SEMA3A_PAK_DEPENDENT_AXON_REPULSION"}, "inbound_nodes": []}, {"name": "REACTOME_CD28_DEPENDENT_VAV1_PATHWAY", "class_name": "InputLayer", "config": {"batch_input_shape": [null, 11], "dtype": "float32", "sparse": false, "name": "REACTOME_CD28_DEPENDENT_VAV1_PATHWAY"}, "inbound_nodes": []}, {"name": "REACTOME_SEMA4D_IN_SEMAPHORIN_SIGNALING", "class_name": "InputLayer", "config": {"batch_input_shape": [null, 31], "dtype": "float32", "sparse": false, "name": "REACTOME_SEMA4D_IN_SEMAPHORIN_SIGNALING"}, "inbound_nodes": []}, {"name": "REACTOME_SEMAPHORIN_INTERACTIONS", "class_name": "InputLayer", "config": {"batch_input_shape": [null, 66], "dtype": "float32", "sparse": false, "name": "REACTOME_SEMAPHORIN_INTERACTIONS"}, "inbound_nodes": []}, {"name": "REACTOME_SEMA4D_INDUCED_CELL_MIGRATION_AND_GROWTH_CONE_COLLAPSE", "class_name": "InputLayer", "config": {"batch_input_shape": [null, 26], "dtype": "float32", "sparse": false, "name": "REACTOME_SEMA4D_INDUCED_CELL_MIGRATION_AND_GROWTH_CONE_COLLAPSE"}, "inbound_nodes": []}, {"name": "REACTOME_SEMA3A_PLEXIN_REPULSION_SIGNALING_BY_INHIBITING_INTEGRIN_ADHESION", "class_name": "InputLayer", "config": {"batch_input_shape": [null, 13], "dtype": "float32", "sparse": false, "name": "REACTOME_SEMA3A_PLEXIN_REPULSION_SIGNALING_BY_INHIBITING_INTEGRIN_ADHESION"}, "inbound_nodes": []}, {"name": "REACTOME_LYSOSOME_VESICLE_BIOGENESIS", "class_name": "InputLayer", "config": {"batch_input_shape": [null, 23], "dtype": "float32", "sparse": false, "name": "REACTOME_LYSOSOME_VESICLE_BIOGENESIS"}, "inbound_nodes": []}, {"name": "REACTOME_G_BETA_GAMMA_SIGNALLING_THROUGH_PI3KGAMMA", "class_name": "InputLayer", "config": {"batch_input_shape": [null, 25], "dtype": "float32", "sparse": false, "name": "REACTOME_G_BETA_GAMMA_SIGNALLING_THROUGH_PI3KGAMMA"}, "inbound_nodes": []}, {"name": "REACTOME_TRANSPORT_OF_GLUCOSE_AND_OTHER_SUGARS_BILE_SALTS_AND_ORGANIC_ACIDS_METAL_IONS_AND_AMINE_COMPOUNDS", "class_name": "InputLayer", "config": {"batch_input_shape": [null, 89], "dtype": "float32", "sparse": false, "name": "REACTOME_TRANSPORT_OF_GLUCOSE_AND_OTHER_SUGARS_BILE_SALTS_AND_ORGANIC_ACIDS_METAL_IONS_AND_AMINE_COMPOUNDS"}, "inbound_nodes": []}, {"name": "REACTOME_SPHINGOLIPID_METABOLISM", "class_name": "InputLayer", "config": {"batch_input_shape": [null, 67], "dtype": "float32", "sparse": false, "name": "REACTOME_SPHINGOLIPID_METABOLISM"}, "inbound_nodes": []}, {"name": "REACTOME_PD1_SIGNALING", "class_name": "InputLayer", "config": {"batch_input_shape": [null, 17], "dtype": "float32", "sparse": false, "name": "REACTOME_PD1_SIGNALING"}, "inbound_nodes": []}, {"name": "REACTOME_G_ALPHA_S_SIGNALLING_EVENTS", "class_name": "InputLayer", "config": {"batch_input_shape": [null, 120], "dtype": "float32", "sparse": false, "name": "REACTOME_G_ALPHA_S_SIGNALLING_EVENTS"}, "inbound_nodes": []}, {"name": "REACTOME_CELL_CELL_JUNCTION_ORGANIZATION", "class_name": "InputLayer", "config": {"batch_input_shape": [null, 56], "dtype": "float32", "sparse": false, "name": "REACTOME_CELL_CELL_JUNCTION_ORGANIZATION"}, "inbound_nodes": []}, {"name": "REACTOME_G_ALPHA_Z_SIGNALLING_EVENTS", "class_name": "InputLayer", "config": {"batch_input_shape": [null, 44], "dtype": "float32", "sparse": false, "name": "REACTOME_G_ALPHA_Z_SIGNALLING_EVENTS"}, "inbound_nodes": []}, {"name": "REACTOME_FACILITATIVE_NA_INDEPENDENT_GLUCOSE_TRANSPORTERS", "class_name": "InputLayer", "config": {"batch_input_shape": [null, 12], "dtype": "float32", "sparse": false, "name": "REACTOME_FACILITATIVE_NA_INDEPENDENT_GLUCOSE_TRANSPORTERS"}, "inbound_nodes": []}, {"name": "REACTOME_COSTIMULATION_BY_THE_CD28_FAMILY", "class_name": "InputLayer", "config": {"batch_input_shape": [null, 61], "dtype": "float32", "sparse": false, "name": "REACTOME_COSTIMULATION_BY_THE_CD28_FAMILY"}, "inbound_nodes": []}, {"name": "REACTOME_SIGNALING_BY_ROBO_RECEPTOR", "class_name": "InputLayer", "config": {"batch_input_shape": [null, 29], "dtype": "float32", "sparse": false, "name": "REACTOME_SIGNALING_BY_ROBO_RECEPTOR"}, "inbound_nodes": []}, {"name": "REACTOME_CD28_DEPENDENT_PI3K_AKT_SIGNALING", "class_name": "InputLayer", "config": {"batch_input_shape": [null, 21], "dtype": "float32", "sparse": false, "name": "REACTOME_CD28_DEPENDENT_PI3K_AKT_SIGNALING"}, "inbound_nodes": []}, {"name": "REACTOME_TIGHT_JUNCTION_INTERACTIONS", "class_name": "InputLayer", "config": {"batch_input_shape": [null, 29], "dtype": "float32", "sparse": false, "name": "REACTOME_TIGHT_JUNCTION_INTERACTIONS"}, "inbound_nodes": []}, {"name": "REACTOME_G_PROTEIN_BETA_GAMMA_SIGNALLING", "class_name": "InputLayer", "config": {"batch_input_shape": [null, 28], "dtype": "float32", "sparse": false, "name": "REACTOME_G_PROTEIN_BETA_GAMMA_SIGNALLING"}, "inbound_nodes": []}, {"name": "REACTOME_TRANSPORT_OF_INORGANIC_CATIONS_ANIONS_AND_AMINO_ACIDS_OLIGOPEPTIDES", "class_name": "InputLayer", "config": {"batch_input_shape": [null, 92], "dtype": "float32", "sparse": false, "name": "REACTOME_TRANSPORT_OF_INORGANIC_CATIONS_ANIONS_AND_AMINO_ACIDS_OLIGOPEPTIDES"}, "inbound_nodes": []}, {"name": "REACTOME_GOLGI_ASSOCIATED_VESICLE_BIOGENESIS", "class_name": "InputLayer", "config": {"batch_input_shape": [null, 50], "dtype": "float32", "sparse": false, "name": "REACTOME_GOLGI_ASSOCIATED_VESICLE_BIOGENESIS"}, "inbound_nodes": []}, {"name": "REACTOME_CTLA4_INHIBITORY_SIGNALING", "class_name": "InputLayer", "config": {"batch_input_shape": [null, 21], "dtype": "float32", "sparse": false, "name": "REACTOME_CTLA4_INHIBITORY_SIGNALING"}, "inbound_nodes": []}, {"name": "REACTOME_FORMATION_OF_TRANSCRIPTION_COUPLED_NER_TC_NER_REPAIR_COMPLEX", "class_name": "InputLayer", "config": {"batch_input_shape": [null, 29], "dtype": "float32", "sparse": false, "name": "REACTOME_FORMATION_OF_TRANSCRIPTION_COUPLED_NER_TC_NER_REPAIR_COMPLEX"}, "inbound_nodes": []}, {"name": "REACTOME_AMINO_ACID_AND_OLIGOPEPTIDE_SLC_TRANSPORTERS", "class_name": "InputLayer", "config": {"batch_input_shape": [null, 49], "dtype": "float32", "sparse": false, "name": "REACTOME_AMINO_ACID_AND_OLIGOPEPTIDE_SLC_TRANSPORTERS"}, "inbound_nodes": []}, {"name": "REACTOME_CDT1_ASSOCIATION_WITH_THE_CDC6_ORC_ORIGIN_COMPLEX", "class_name": "InputLayer", "config": {"batch_input_shape": [null, 54], "dtype": "float32", "sparse": false, "name": "REACTOME_CDT1_ASSOCIATION_WITH_THE_CDC6_ORC_ORIGIN_COMPLEX"}, "inbound_nodes": []}, {"name": "REACTOME_BRANCHED_CHAIN_AMINO_ACID_CATABOLISM", "class_name": "InputLayer", "config": {"batch_input_shape": [null, 17], "dtype": "float32", "sparse": false, "name": "REACTOME_BRANCHED_CHAIN_AMINO_ACID_CATABOLISM"}, "inbound_nodes": []}, {"name": "REACTOME_REPAIR_SYNTHESIS_FOR_GAP_FILLING_BY_DNA_POL_IN_TC_NER", "class_name": "InputLayer", "config": {"batch_input_shape": [null, 14], "dtype": "float32", "sparse": false, "name": "REACTOME_REPAIR_SYNTHESIS_FOR_GAP_FILLING_BY_DNA_POL_IN_TC_NER"}, "inbound_nodes": []}, {"name": "REACTOME_RECEPTOR_LIGAND_BINDING_INITIATES_THE_SECOND_PROTEOLYTIC_CLEAVAGE_OF_NOTCH_RECEPTOR", "class_name": "InputLayer", "config": {"batch_input_shape": [null, 11], "dtype": "float32", "sparse": false, "name": "REACTOME_RECEPTOR_LIGAND_BINDING_INITIATES_THE_SECOND_PROTEOLYTIC_CLEAVAGE_OF_NOTCH_RECEPTOR"}, "inbound_nodes": []}, {"name": "REACTOME_SYNTHESIS_OF_DNA", "class_name": "InputLayer", "config": {"batch_input_shape": [null, 90], "dtype": "float32", "sparse": false, "name": "REACTOME_SYNTHESIS_OF_DNA"}, "inbound_nodes": []}, {"name": "REACTOME_NA_CL_DEPENDENT_NEUROTRANSMITTER_TRANSPORTERS", "class_name": "InputLayer", "config": {"batch_input_shape": [null, 17], "dtype": "float32", "sparse": false, "name": "REACTOME_NA_CL_DEPENDENT_NEUROTRANSMITTER_TRANSPORTERS"}, "inbound_nodes": []}, {"name": "REACTOME_FORMATION_OF_FIBRIN_CLOT_CLOTTING_CASCADE", "class_name": "InputLayer", "config": {"batch_input_shape": [null, 32], "dtype": "float32", "sparse": false, "name": "REACTOME_FORMATION_OF_FIBRIN_CLOT_CLOTTING_CASCADE"}, "inbound_nodes": []}, {"name": "REACTOME_DEADENYLATION_OF_MRNA", "class_name": "InputLayer", "config": {"batch_input_shape": [null, 18], "dtype": "float32", "sparse": false, "name": "REACTOME_DEADENYLATION_OF_MRNA"}, "inbound_nodes": []}, {"name": "REACTOME_MRNA_DECAY_BY_5_TO_3_EXORIBONUCLEASE", "class_name": "InputLayer", "config": {"batch_input_shape": [null, 14], "dtype": "float32", "sparse": false, "name": "REACTOME_MRNA_DECAY_BY_5_TO_3_EXORIBONUCLEASE"}, "inbound_nodes": []}, {"name": "REACTOME_SIGNAL_AMPLIFICATION", "class_name": "InputLayer", "config": {"batch_input_shape": [null, 31], "dtype": "float32", "sparse": false, "name": "REACTOME_SIGNAL_AMPLIFICATION"}, "inbound_nodes": []}, {"name": "REACTOME_ZINC_TRANSPORTERS", "class_name": "InputLayer", "config": {"batch_input_shape": [null, 15], "dtype": "float32", "sparse": false, "name": "REACTOME_ZINC_TRANSPORTERS"}, "inbound_nodes": []}, {"name": "REACTOME_DOUBLE_STRAND_BREAK_REPAIR", "class_name": "InputLayer", "config": {"batch_input_shape": [null, 22], "dtype": "float32", "sparse": false, "name": "REACTOME_DOUBLE_STRAND_BREAK_REPAIR"}, "inbound_nodes": []}, {"name": "REACTOME_RAS_ACTIVATION_UOPN_CA2_INFUX_THROUGH_NMDA_RECEPTOR", "class_name": "InputLayer", "config": {"batch_input_shape": [null, 17], "dtype": "float32", "sparse": false, "name": "REACTOME_RAS_ACTIVATION_UOPN_CA2_INFUX_THROUGH_NMDA_RECEPTOR"}, "inbound_nodes": []}, {"name": "REACTOME_METAL_ION_SLC_TRANSPORTERS", "class_name": "InputLayer", "config": {"batch_input_shape": [null, 22], "dtype": "float32", "sparse": false, "name": "REACTOME_METAL_ION_SLC_TRANSPORTERS"}, "inbound_nodes": []}, {"name": "REACTOME_AUTODEGRADATION_OF_THE_E3_UBIQUITIN_LIGASE_COP1", "class_name": "InputLayer", "config": {"batch_input_shape": [null, 48], "dtype": "float32", "sparse": false, "name": "REACTOME_AUTODEGRADATION_OF_THE_E3_UBIQUITIN_LIGASE_COP1"}, "inbound_nodes": []}, {"name": "REACTOME_SMOOTH_MUSCLE_CONTRACTION", "class_name": "InputLayer", "config": {"batch_input_shape": [null, 24], "dtype": "float32", "sparse": false, "name": "REACTOME_SMOOTH_MUSCLE_CONTRACTION"}, "inbound_nodes": []}, {"name": "REACTOME_ACTIVATION_OF_NMDA_RECEPTOR_UPON_GLUTAMATE_BINDING_AND_POSTSYNAPTIC_EVENTS", "class_name": "InputLayer", "config": {"batch_input_shape": [null, 37], "dtype": "float32", "sparse": false, "name": "REACTOME_ACTIVATION_OF_NMDA_RECEPTOR_UPON_GLUTAMATE_BINDING_AND_POSTSYNAPTIC_EVENTS"}, "inbound_nodes": []}, {"name": "REACTOME_CREB_PHOSPHORYLATION_THROUGH_THE_ACTIVATION_OF_RAS", "class_name": "InputLayer", "config": {"batch_input_shape": [null, 27], "dtype": "float32", "sparse": false, "name": "REACTOME_CREB_PHOSPHORYLATION_THROUGH_THE_ACTIVATION_OF_RAS"}, "inbound_nodes": []}, {"name": "REACTOME_POST_NMDA_RECEPTOR_ACTIVATION_EVENTS", "class_name": "InputLayer", "config": {"batch_input_shape": [null, 33], "dtype": "float32", "sparse": false, "name": "REACTOME_POST_NMDA_RECEPTOR_ACTIVATION_EVENTS"}, "inbound_nodes": []}, {"name": "REACTOME_UNBLOCKING_OF_NMDA_RECEPTOR_GLUTAMATE_BINDING_AND_ACTIVATION", "class_name": "InputLayer", "config": {"batch_input_shape": [null, 15], "dtype": "float32", "sparse": false, "name": "REACTOME_UNBLOCKING_OF_NMDA_RECEPTOR_GLUTAMATE_BINDING_AND_ACTIVATION"}, "inbound_nodes": []}, {"name": "REACTOME_METABOLISM_OF_MRNA", "class_name": "InputLayer", "config": {"batch_input_shape": [null, 231], "dtype": "float32", "sparse": false, "name": "REACTOME_METABOLISM_OF_MRNA"}, "inbound_nodes": []}, {"name": "REACTOME_MRNA_DECAY_BY_3_TO_5_EXORIBONUCLEASE", "class_name": "InputLayer", "config": {"batch_input_shape": [null, 11], "dtype": "float32", "sparse": false, "name": "REACTOME_MRNA_DECAY_BY_3_TO_5_EXORIBONUCLEASE"}, "inbound_nodes": []}, {"name": "REACTOME_BILE_SALT_AND_ORGANIC_ANION_SLC_TRANSPORTERS", "class_name": "InputLayer", "config": {"batch_input_shape": [null, 11], "dtype": "float32", "sparse": false, "name": "REACTOME_BILE_SALT_AND_ORGANIC_ANION_SLC_TRANSPORTERS"}, "inbound_nodes": []}, {"name": "REACTOME_DEADENYLATION_DEPENDENT_MRNA_DECAY", "class_name": "InputLayer", "config": {"batch_input_shape": [null, 43], "dtype": "float32", "sparse": false, "name": "REACTOME_DEADENYLATION_DEPENDENT_MRNA_DECAY"}, "inbound_nodes": []}, {"name": "REACTOME_CREB_PHOSPHORYLATION_THROUGH_THE_ACTIVATION_OF_CAMKII", "class_name": "InputLayer", "config": {"batch_input_shape": [null, 15], "dtype": "float32", "sparse": false, "name": "REACTOME_CREB_PHOSPHORYLATION_THROUGH_THE_ACTIVATION_OF_CAMKII"}, "inbound_nodes": []}, {"name": "REACTOME_THROMBOXANE_SIGNALLING_THROUGH_TP_RECEPTOR", "class_name": "InputLayer", "config": {"batch_input_shape": [null, 23], "dtype": "float32", "sparse": false, "name": "REACTOME_THROMBOXANE_SIGNALLING_THROUGH_TP_RECEPTOR"}, "inbound_nodes": []}, {"name": "REACTOME_CELL_EXTRACELLULAR_MATRIX_INTERACTIONS", "class_name": "InputLayer", "config": {"batch_input_shape": [null, 14], "dtype": "float32", "sparse": false, "name": "REACTOME_CELL_EXTRACELLULAR_MATRIX_INTERACTIONS"}, "inbound_nodes": []}, {"name": "REACTOME_ADP_SIGNALLING_THROUGH_P2RY12", "class_name": "InputLayer", "config": {"batch_input_shape": [null, 21], "dtype": "float32", "sparse": false, "name": "REACTOME_ADP_SIGNALLING_THROUGH_P2RY12"}, "inbound_nodes": []}, {"name": "REACTOME_CELL_JUNCTION_ORGANIZATION", "class_name": "InputLayer", "config": {"batch_input_shape": [null, 77], "dtype": "float32", "sparse": false, "name": "REACTOME_CELL_JUNCTION_ORGANIZATION"}, "inbound_nodes": []}, {"name": "REACTOME_AMINE_COMPOUND_SLC_TRANSPORTERS", "class_name": "InputLayer", "config": {"batch_input_shape": [null, 27], "dtype": "float32", "sparse": false, "name": "REACTOME_AMINE_COMPOUND_SLC_TRANSPORTERS"}, "inbound_nodes": []}, {"name": "REACTOME_PYRUVATE_METABOLISM", "class_name": "InputLayer", "config": {"batch_input_shape": [null, 18], "dtype": "float32", "sparse": false, "name": "REACTOME_PYRUVATE_METABOLISM"}, "inbound_nodes": []}, {"name": "REACTOME_PURINE_CATABOLISM", "class_name": "InputLayer", "config": {"batch_input_shape": [null, 10], "dtype": "float32", "sparse": false, "name": "REACTOME_PURINE_CATABOLISM"}, "inbound_nodes": []}, {"name": "REACTOME_GLUCOSE_TRANSPORT", "class_name": "InputLayer", "config": {"batch_input_shape": [null, 38], "dtype": "float32", "sparse": false, "name": "REACTOME_GLUCOSE_TRANSPORT"}, "inbound_nodes": []}, {"name": "REACTOME_FRS2_MEDIATED_CASCADE", "class_name": "InputLayer", "config": {"batch_input_shape": [null, 36], "dtype": "float32", "sparse": false, "name": "REACTOME_FRS2_MEDIATED_CASCADE"}, "inbound_nodes": []}, {"name": "REACTOME_METABOLISM_OF_RNA", "class_name": "InputLayer", "config": {"batch_input_shape": [null, 277], "dtype": "float32", "sparse": false, "name": "REACTOME_METABOLISM_OF_RNA"}, "inbound_nodes": []}, {"name": "REACTOME_MITOTIC_G1_G1_S_PHASES", "class_name": "InputLayer", "config": {"batch_input_shape": [null, 132], "dtype": "float32", "sparse": false, "name": "REACTOME_MITOTIC_G1_G1_S_PHASES"}, "inbound_nodes": []}, {"name": "REACTOME_PI_3K_CASCADE", "class_name": "InputLayer", "config": {"batch_input_shape": [null, 54], "dtype": "float32", "sparse": false, "name": "REACTOME_PI_3K_CASCADE"}, "inbound_nodes": []}, {"name": "REACTOME_DOWNSTREAM_SIGNALING_OF_ACTIVATED_FGFR", "class_name": "InputLayer", "config": {"batch_input_shape": [null, 97], "dtype": "float32", "sparse": false, "name": "REACTOME_DOWNSTREAM_SIGNALING_OF_ACTIVATED_FGFR"}, "inbound_nodes": []}, {"name": "REACTOME_REGULATION_OF_MITOTIC_CELL_CYCLE", "class_name": "InputLayer", "config": {"batch_input_shape": [null, 77], "dtype": "float32", "sparse": false, "name": "REACTOME_REGULATION_OF_MITOTIC_CELL_CYCLE"}, "inbound_nodes": []}, {"name": "REACTOME_TAK1_ACTIVATES_NFKB_BY_PHOSPHORYLATION_AND_ACTIVATION_OF_IKKS_COMPLEX", "class_name": "InputLayer", "config": {"batch_input_shape": [null, 23], "dtype": "float32", "sparse": false, "name": "REACTOME_TAK1_ACTIVATES_NFKB_BY_PHOSPHORYLATION_AND_ACTIVATION_OF_IKKS_COMPLEX"}, "inbound_nodes": []}, {"name": "REACTOME_REGULATION_OF_AMPK_ACTIVITY_VIA_LKB1", "class_name": "InputLayer", "config": {"batch_input_shape": [null, 14], "dtype": "float32", "sparse": false, "name": "REACTOME_REGULATION_OF_AMPK_ACTIVITY_VIA_LKB1"}, "inbound_nodes": []}, {"name": "REACTOME_MITOTIC_M_M_G1_PHASES", "class_name": "InputLayer", "config": {"batch_input_shape": [null, 165], "dtype": "float32", "sparse": false, "name": "REACTOME_MITOTIC_M_M_G1_PHASES"}, "inbound_nodes": []}, {"name": "REACTOME_MYOGENESIS", "class_name": "InputLayer", "config": {"batch_input_shape": [null, 28], "dtype": "float32", "sparse": false, "name": "REACTOME_MYOGENESIS"}, "inbound_nodes": []}, {"name": "REACTOME_MAP_KINASE_ACTIVATION_IN_TLR_CASCADE", "class_name": "InputLayer", "config": {"batch_input_shape": [null, 49], "dtype": "float32", "sparse": false, "name": "REACTOME_MAP_KINASE_ACTIVATION_IN_TLR_CASCADE"}, "inbound_nodes": []}, {"name": "REACTOME_PHOSPHOLIPASE_C_MEDIATED_CASCADE", "class_name": "InputLayer", "config": {"batch_input_shape": [null, 53], "dtype": "float32", "sparse": false, "name": "REACTOME_PHOSPHOLIPASE_C_MEDIATED_CASCADE"}, "inbound_nodes": []}, {"name": "REACTOME_ACTIVATION_OF_KAINATE_RECEPTORS_UPON_GLUTAMATE_BINDING", "class_name": "InputLayer", "config": {"batch_input_shape": [null, 31], "dtype": "float32", "sparse": false, "name": "REACTOME_ACTIVATION_OF_KAINATE_RECEPTORS_UPON_GLUTAMATE_BINDING"}, "inbound_nodes": []}, {"name": "REACTOME_IONOTROPIC_ACTIVITY_OF_KAINATE_RECEPTORS", "class_name": "InputLayer", "config": {"batch_input_shape": [null, 11], "dtype": "float32", "sparse": false, "name": "REACTOME_IONOTROPIC_ACTIVITY_OF_KAINATE_RECEPTORS"}, "inbound_nodes": []}, {"name": "REACTOME_ACTIVATION_OF_THE_AP1_FAMILY_OF_TRANSCRIPTION_FACTORS", "class_name": "InputLayer", "config": {"batch_input_shape": [null, 10], "dtype": "float32", "sparse": false, "name": "REACTOME_ACTIVATION_OF_THE_AP1_FAMILY_OF_TRANSCRIPTION_FACTORS"}, "inbound_nodes": []}, {"name": "REACTOME_MAPK_TARGETS_NUCLEAR_EVENTS_MEDIATED_BY_MAP_KINASES", "class_name": "InputLayer", "config": {"batch_input_shape": [null, 30], "dtype": "float32", "sparse": false, "name": "REACTOME_MAPK_TARGETS_NUCLEAR_EVENTS_MEDIATED_BY_MAP_KINASES"}, "inbound_nodes": []}, {"name": "REACTOME_SYNTHESIS_AND_INTERCONVERSION_OF_NUCLEOTIDE_DI_AND_TRIPHOSPHATES", "class_name": "InputLayer", "config": {"batch_input_shape": [null, 18], "dtype": "float32", "sparse": false, "name": "REACTOME_SYNTHESIS_AND_INTERCONVERSION_OF_NUCLEOTIDE_DI_AND_TRIPHOSPHATES"}, "inbound_nodes": []}, {"name": "REACTOME_GPCR_LIGAND_BINDING", "class_name": "InputLayer", "config": {"batch_input_shape": [null, 383], "dtype": "float32", "sparse": false, "name": "REACTOME_GPCR_LIGAND_BINDING"}, "inbound_nodes": []}, {"name": "REACTOME_RNA_POL_I_RNA_POL_III_AND_MITOCHONDRIAL_TRANSCRIPTION", "class_name": "InputLayer", "config": {"batch_input_shape": [null, 118], "dtype": "float32", "sparse": false, "name": "REACTOME_RNA_POL_I_RNA_POL_III_AND_MITOCHONDRIAL_TRANSCRIPTION"}, "inbound_nodes": []}, {"name": "REACTOME_JNK_C_JUN_KINASES_PHOSPHORYLATION_AND_ACTIVATION_MEDIATED_BY_ACTIVATED_HUMAN_TAK1", "class_name": "InputLayer", "config": {"batch_input_shape": [null, 16], "dtype": "float32", "sparse": false, "name": "REACTOME_JNK_C_JUN_KINASES_PHOSPHORYLATION_AND_ACTIVATION_MEDIATED_BY_ACTIVATED_HUMAN_TAK1"}, "inbound_nodes": []}, {"name": "REACTOME_SHC_MEDIATED_CASCADE", "class_name": "InputLayer", "config": {"batch_input_shape": [null, 28], "dtype": "float32", "sparse": false, "name": "REACTOME_SHC_MEDIATED_CASCADE"}, "inbound_nodes": []}, {"name": "REACTOME_THROMBIN_SIGNALLING_THROUGH_PROTEINASE_ACTIVATED_RECEPTORS_PARS", "class_name": "InputLayer", "config": {"batch_input_shape": [null, 32], "dtype": "float32", "sparse": false, "name": "REACTOME_THROMBIN_SIGNALLING_THROUGH_PROTEINASE_ACTIVATED_RECEPTORS_PARS"}, "inbound_nodes": []}, {"name": "REACTOME_ENERGY_DEPENDENT_REGULATION_OF_MTOR_BY_LKB1_AMPK", "class_name": "InputLayer", "config": {"batch_input_shape": [null, 17], "dtype": "float32", "sparse": false, "name": "REACTOME_ENERGY_DEPENDENT_REGULATION_OF_MTOR_BY_LKB1_AMPK"}, "inbound_nodes": []}, {"name": "REACTOME_MITOTIC_G2_G2_M_PHASES", "class_name": "InputLayer", "config": {"batch_input_shape": [null, 78], "dtype": "float32", "sparse": false, "name": "REACTOME_MITOTIC_G2_G2_M_PHASES"}, "inbound_nodes": []}, {"name": "REACTOME_REGULATION_OF_RHEB_GTPASE_ACTIVITY_BY_AMPK", "class_name": "InputLayer", "config": {"batch_input_shape": [null, 10], "dtype": "float32", "sparse": false, "name": "REACTOME_REGULATION_OF_RHEB_GTPASE_ACTIVITY_BY_AMPK"}, "inbound_nodes": []}, {"name": "REACTOME_ACTIVATED_TAK1_MEDIATES_P38_MAPK_ACTIVATION", "class_name": "InputLayer", "config": {"batch_input_shape": [null, 17], "dtype": "float32", "sparse": false, "name": "REACTOME_ACTIVATED_TAK1_MEDIATES_P38_MAPK_ACTIVATION"}, "inbound_nodes": []}, {"name": "REACTOME_DNA_REPAIR", "class_name": "InputLayer", "config": {"batch_input_shape": [null, 103], "dtype": "float32", "sparse": false, "name": "REACTOME_DNA_REPAIR"}, "inbound_nodes": []}, {"name": "REACTOME_EFFECTS_OF_PIP2_HYDROLYSIS", "class_name": "InputLayer", "config": {"batch_input_shape": [null, 23], "dtype": "float32", "sparse": false, "name": "REACTOME_EFFECTS_OF_PIP2_HYDROLYSIS"}, "inbound_nodes": []}, {"name": "REACTOME_RNA_POL_II_PRE_TRANSCRIPTION_EVENTS", "class_name": "InputLayer", "config": {"batch_input_shape": [null, 56], "dtype": "float32", "sparse": false, "name": "REACTOME_RNA_POL_II_PRE_TRANSCRIPTION_EVENTS"}, "inbound_nodes": []}, {"name": "REACTOME_ROLE_OF_DCC_IN_REGULATING_APOPTOSIS", "class_name": "InputLayer", "config": {"batch_input_shape": [null, 10], "dtype": "float32", "sparse": false, "name": "REACTOME_ROLE_OF_DCC_IN_REGULATING_APOPTOSIS"}, "inbound_nodes": []}, {"name": "REACTOME_POST_TRANSLATIONAL_PROTEIN_MODIFICATION", "class_name": "InputLayer", "config": {"batch_input_shape": [null, 180], "dtype": "float32", "sparse": false, "name": "REACTOME_POST_TRANSLATIONAL_PROTEIN_MODIFICATION"}, "inbound_nodes": []}, {"name": "REACTOME_CHROMOSOME_MAINTENANCE", "class_name": "InputLayer", "config": {"batch_input_shape": [null, 118], "dtype": "float32", "sparse": false, "name": "REACTOME_CHROMOSOME_MAINTENANCE"}, "inbound_nodes": []}, {"name": "REACTOME_DEPOSITION_OF_NEW_CENPA_CONTAINING_NUCLEOSOMES_AT_THE_CENTROMERE", "class_name": "InputLayer", "config": {"batch_input_shape": [null, 62], "dtype": "float32", "sparse": false, "name": "REACTOME_DEPOSITION_OF_NEW_CENPA_CONTAINING_NUCLEOSOMES_AT_THE_CENTROMERE"}, "inbound_nodes": []}, {"name": "REACTOME_L1CAM_INTERACTIONS", "class_name": "InputLayer", "config": {"batch_input_shape": [null, 83], "dtype": "float32", "sparse": false, "name": "REACTOME_L1CAM_INTERACTIONS"}, "inbound_nodes": []}, {"name": "REACTOME_ROLE_OF_SECOND_MESSENGERS_IN_NETRIN1_SIGNALING", "class_name": "InputLayer", "config": {"batch_input_shape": [null, 9], "dtype": "float32", "sparse": false, "name": "REACTOME_ROLE_OF_SECOND_MESSENGERS_IN_NETRIN1_SIGNALING"}, "inbound_nodes": []}, {"name": "REACTOME_SIGNALING_BY_ILS", "class_name": "InputLayer", "config": {"batch_input_shape": [null, 106], "dtype": "float32", "sparse": false, "name": "REACTOME_SIGNALING_BY_ILS"}, "inbound_nodes": []}, {"name": "REACTOME_NETRIN1_SIGNALING", "class_name": "InputLayer", "config": {"batch_input_shape": [null, 38], "dtype": "float32", "sparse": false, "name": "REACTOME_NETRIN1_SIGNALING"}, "inbound_nodes": []}, {"name": "REACTOME_METABOLISM_OF_LIPIDS_AND_LIPOPROTEINS", "class_name": "InputLayer", "config": {"batch_input_shape": [null, 469], "dtype": "float32", "sparse": false, "name": "REACTOME_METABOLISM_OF_LIPIDS_AND_LIPOPROTEINS"}, "inbound_nodes": []}, {"name": "REACTOME_INTERACTION_BETWEEN_L1_AND_ANKYRINS", "class_name": "InputLayer", "config": {"batch_input_shape": [null, 21], "dtype": "float32", "sparse": false, "name": "REACTOME_INTERACTION_BETWEEN_L1_AND_ANKYRINS"}, "inbound_nodes": []}, {"name": "REACTOME_SIGNAL_TRANSDUCTION_BY_L1", "class_name": "InputLayer", "config": {"batch_input_shape": [null, 34], "dtype": "float32", "sparse": false, "name": "REACTOME_SIGNAL_TRANSDUCTION_BY_L1"}, "inbound_nodes": []}, {"name": "REACTOME_FATTY_ACID_TRIACYLGLYCEROL_AND_KETONE_BODY_METABOLISM", "class_name": "InputLayer", "config": {"batch_input_shape": [null, 167], "dtype": "float32", "sparse": false, "name": "REACTOME_FATTY_ACID_TRIACYLGLYCEROL_AND_KETONE_BODY_METABOLISM"}, "inbound_nodes": []}, {"name": "REACTOME_TRANSPORT_OF_VITAMINS_NUCLEOSIDES_AND_RELATED_MOLECULES", "class_name": "InputLayer", "config": {"batch_input_shape": [null, 31], "dtype": "float32", "sparse": false, "name": "REACTOME_TRANSPORT_OF_VITAMINS_NUCLEOSIDES_AND_RELATED_MOLECULES"}, "inbound_nodes": []}, {"name": "REACTOME_HIGHLY_CALCIUM_PERMEABLE_POSTSYNAPTIC_NICOTINIC_ACETYLCHOLINE_RECEPTORS", "class_name": "InputLayer", "config": {"batch_input_shape": [null, 12], "dtype": "float32", "sparse": false, "name": "REACTOME_HIGHLY_CALCIUM_PERMEABLE_POSTSYNAPTIC_NICOTINIC_ACETYLCHOLINE_RECEPTORS"}, "inbound_nodes": []}, {"name": "REACTOME_RNA_POL_I_PROMOTER_OPENING", "class_name": "InputLayer", "config": {"batch_input_shape": [null, 61], "dtype": "float32", "sparse": false, "name": "REACTOME_RNA_POL_I_PROMOTER_OPENING"}, "inbound_nodes": []}, {"name": "REACTOME_PRESYNAPTIC_NICOTINIC_ACETYLCHOLINE_RECEPTORS", "class_name": "InputLayer", "config": {"batch_input_shape": [null, 12], "dtype": "float32", "sparse": false, "name": "REACTOME_PRESYNAPTIC_NICOTINIC_ACETYLCHOLINE_RECEPTORS"}, "inbound_nodes": []}, {"name": "REACTOME_ORGANIC_CATION_ANION_ZWITTERION_TRANSPORT", "class_name": "InputLayer", "config": {"batch_input_shape": [null, 13], "dtype": "float32", "sparse": false, "name": "REACTOME_ORGANIC_CATION_ANION_ZWITTERION_TRANSPORT"}, "inbound_nodes": []}, {"name": "REACTOME_DCC_MEDIATED_ATTRACTIVE_SIGNALING", "class_name": "InputLayer", "config": {"batch_input_shape": [null, 13], "dtype": "float32", "sparse": false, "name": "REACTOME_DCC_MEDIATED_ATTRACTIVE_SIGNALING"}, "inbound_nodes": []}, {"name": "REACTOME_RECYCLING_PATHWAY_OF_L1", "class_name": "InputLayer", "config": {"batch_input_shape": [null, 26], "dtype": "float32", "sparse": false, "name": "REACTOME_RECYCLING_PATHWAY_OF_L1"}, "inbound_nodes": []}, {"name": "REACTOME_SYNTHESIS_OF_SUBSTRATES_IN_N_GLYCAN_BIOSYTHESIS", "class_name": "InputLayer", "config": {"batch_input_shape": [null, 14], "dtype": "float32", "sparse": false, "name": "REACTOME_SYNTHESIS_OF_SUBSTRATES_IN_N_GLYCAN_BIOSYTHESIS"}, "inbound_nodes": []}, {"name": "REACTOME_RESPIRATORY_ELECTRON_TRANSPORT", "class_name": "InputLayer", "config": {"batch_input_shape": [null, 66], "dtype": "float32", "sparse": false, "name": "REACTOME_RESPIRATORY_ELECTRON_TRANSPORT"}, "inbound_nodes": []}, {"name": "REACTOME_ASPARAGINE_N_LINKED_GLYCOSYLATION", "class_name": "InputLayer", "config": {"batch_input_shape": [null, 80], "dtype": "float32", "sparse": false, "name": "REACTOME_ASPARAGINE_N_LINKED_GLYCOSYLATION"}, "inbound_nodes": []}, {"name": "REACTOME_ASSEMBLY_OF_THE_PRE_REPLICATIVE_COMPLEX", "class_name": "InputLayer", "config": {"batch_input_shape": [null, 63], "dtype": "float32", "sparse": false, "name": "REACTOME_ASSEMBLY_OF_THE_PRE_REPLICATIVE_COMPLEX"}, "inbound_nodes": []}, {"name": "REACTOME_BIOSYNTHESIS_OF_THE_N_GLYCAN_PRECURSOR_DOLICHOL_LIPID_LINKED_OLIGOSACCHARIDE_LLO_AND_TRANSFER_TO_A_NASCENT_PROTEIN", "class_name": "InputLayer", "config": {"batch_input_shape": [null, 28], "dtype": "float32", "sparse": false, "name": "REACTOME_BIOSYNTHESIS_OF_THE_N_GLYCAN_PRECURSOR_DOLICHOL_LIPID_LINKED_OLIGOSACCHARIDE_LLO_AND_TRANSFER_TO_A_NASCENT_PROTEIN"}, "inbound_nodes": []}, {"name": "REACTOME_IL1_SIGNALING", "class_name": "InputLayer", "config": {"batch_input_shape": [null, 39], "dtype": "float32", "sparse": false, "name": "REACTOME_IL1_SIGNALING"}, "inbound_nodes": []}, {"name": "REACTOME_GLOBAL_GENOMIC_NER_GG_NER", "class_name": "InputLayer", "config": {"batch_input_shape": [null, 33], "dtype": "float32", "sparse": false, "name": "REACTOME_GLOBAL_GENOMIC_NER_GG_NER"}, "inbound_nodes": []}, {"name": "REACTOME_CGMP_EFFECTS", "class_name": "InputLayer", "config": {"batch_input_shape": [null, 19], "dtype": "float32", "sparse": false, "name": "REACTOME_CGMP_EFFECTS"}, "inbound_nodes": []}, {"name": "REACTOME_REGULATION_OF_SIGNALING_BY_CBL", "class_name": "InputLayer", "config": {"batch_input_shape": [null, 18], "dtype": "float32", "sparse": false, "name": "REACTOME_REGULATION_OF_SIGNALING_BY_CBL"}, "inbound_nodes": []}, {"name": "REACTOME_AMINO_ACID_SYNTHESIS_AND_INTERCONVERSION_TRANSAMINATION", "class_name": "InputLayer", "config": {"batch_input_shape": [null, 16], "dtype": "float32", "sparse": false, "name": "REACTOME_AMINO_ACID_SYNTHESIS_AND_INTERCONVERSION_TRANSAMINATION"}, "inbound_nodes": []}, {"name": "REACTOME_CALNEXIN_CALRETICULIN_CYCLE", "class_name": "InputLayer", "config": {"batch_input_shape": [null, 11], "dtype": "float32", "sparse": false, "name": "REACTOME_CALNEXIN_CALRETICULIN_CYCLE"}, "inbound_nodes": []}, {"name": "REACTOME_SYNTHESIS_SECRETION_AND_INACTIVATION_OF_GIP", "class_name": "InputLayer", "config": {"batch_input_shape": [null, 13], "dtype": "float32", "sparse": false, "name": "REACTOME_SYNTHESIS_SECRETION_AND_INACTIVATION_OF_GIP"}, "inbound_nodes": []}, {"name": "REACTOME_PASSIVE_TRANSPORT_BY_AQUAPORINS", "class_name": "InputLayer", "config": {"batch_input_shape": [null, 11], "dtype": "float32", "sparse": false, "name": "REACTOME_PASSIVE_TRANSPORT_BY_AQUAPORINS"}, "inbound_nodes": []}, {"name": "REACTOME_NEPHRIN_INTERACTIONS", "class_name": "InputLayer", "config": {"batch_input_shape": [null, 19], "dtype": "float32", "sparse": false, "name": "REACTOME_NEPHRIN_INTERACTIONS"}, "inbound_nodes": []}, {"name": "REACTOME_IL_3_5_AND_GM_CSF_SIGNALING", "class_name": "InputLayer", "config": {"batch_input_shape": [null, 43], "dtype": "float32", "sparse": false, "name": "REACTOME_IL_3_5_AND_GM_CSF_SIGNALING"}, "inbound_nodes": []}, {"name": "REACTOME_NITRIC_OXIDE_STIMULATES_GUANYLATE_CYCLASE", "class_name": "InputLayer", "config": {"batch_input_shape": [null, 25], "dtype": "float32", "sparse": false, "name": "REACTOME_NITRIC_OXIDE_STIMULATES_GUANYLATE_CYCLASE"}, "inbound_nodes": []}, {"name": "REACTOME_PLATELET_HOMEOSTASIS", "class_name": "InputLayer", "config": {"batch_input_shape": [null, 76], "dtype": "float32", "sparse": false, "name": "REACTOME_PLATELET_HOMEOSTASIS"}, "inbound_nodes": []}, {"name": "REACTOME_N_GLYCAN_TRIMMING_IN_THE_ER_AND_CALNEXIN_CALRETICULIN_CYCLE", "class_name": "InputLayer", "config": {"batch_input_shape": [null, 13], "dtype": "float32", "sparse": false, "name": "REACTOME_N_GLYCAN_TRIMMING_IN_THE_ER_AND_CALNEXIN_CALRETICULIN_CYCLE"}, "inbound_nodes": []}, {"name": "REACTOME_PLATELET_SENSITIZATION_BY_LDL", "class_name": "InputLayer", "config": {"batch_input_shape": [null, 16], "dtype": "float32", "sparse": false, "name": "REACTOME_PLATELET_SENSITIZATION_BY_LDL"}, "inbound_nodes": []}, {"name": "REACTOME_AQUAPORIN_MEDIATED_TRANSPORT", "class_name": "InputLayer", "config": {"batch_input_shape": [null, 50], "dtype": "float32", "sparse": false, "name": "REACTOME_AQUAPORIN_MEDIATED_TRANSPORT"}, "inbound_nodes": []}, {"name": "REACTOME_IL_RECEPTOR_SHC_SIGNALING", "class_name": "InputLayer", "config": {"batch_input_shape": [null, 27], "dtype": "float32", "sparse": false, "name": "REACTOME_IL_RECEPTOR_SHC_SIGNALING"}, "inbound_nodes": []}, {"name": "REACTOME_RAP1_SIGNALLING", "class_name": "InputLayer", "config": {"batch_input_shape": [null, 16], "dtype": "float32", "sparse": false, "name": "REACTOME_RAP1_SIGNALLING"}, "inbound_nodes": []}, {"name": "REACTOME_PLATELET_CALCIUM_HOMEOSTASIS", "class_name": "InputLayer", "config": {"batch_input_shape": [null, 16], "dtype": "float32", "sparse": false, "name": "REACTOME_PLATELET_CALCIUM_HOMEOSTASIS"}, "inbound_nodes": []}, {"name": "REACTOME_SIGNAL_REGULATORY_PROTEIN_SIRP_FAMILY_INTERACTIONS", "class_name": "InputLayer", "config": {"batch_input_shape": [null, 12], "dtype": "float32", "sparse": false, "name": "REACTOME_SIGNAL_REGULATORY_PROTEIN_SIRP_FAMILY_INTERACTIONS"}, "inbound_nodes": []}, {"name": "REACTOME_PROSTACYCLIN_SIGNALLING_THROUGH_PROSTACYCLIN_RECEPTOR", "class_name": "InputLayer", "config": {"batch_input_shape": [null, 19], "dtype": "float32", "sparse": false, "name": "REACTOME_PROSTACYCLIN_SIGNALLING_THROUGH_PROSTACYCLIN_RECEPTOR"}, "inbound_nodes": []}, {"name": "REACTOME_GABA_SYNTHESIS_RELEASE_REUPTAKE_AND_DEGRADATION", "class_name": "InputLayer", "config": {"batch_input_shape": [null, 17], "dtype": "float32", "sparse": false, "name": "REACTOME_GABA_SYNTHESIS_RELEASE_REUPTAKE_AND_DEGRADATION"}, "inbound_nodes": []}, {"name": "REACTOME_INCRETIN_SYNTHESIS_SECRETION_AND_INACTIVATION", "class_name": "InputLayer", "config": {"batch_input_shape": [null, 20], "dtype": "float32", "sparse": false, "name": "REACTOME_INCRETIN_SYNTHESIS_SECRETION_AND_INACTIVATION"}, "inbound_nodes": []}, {"name": "REACTOME_TRANSPORT_OF_ORGANIC_ANIONS", "class_name": "InputLayer", "config": {"batch_input_shape": [null, 11], "dtype": "float32", "sparse": false, "name": "REACTOME_TRANSPORT_OF_ORGANIC_ANIONS"}, "inbound_nodes": []}, {"name": "REACTOME_SYNTHESIS_SECRETION_AND_INACTIVATION_OF_GLP1", "class_name": "InputLayer", "config": {"batch_input_shape": [null, 17], "dtype": "float32", "sparse": false, "name": "REACTOME_SYNTHESIS_SECRETION_AND_INACTIVATION_OF_GLP1"}, "inbound_nodes": []}, {"name": "REACTOME_REGULATION_OF_WATER_BALANCE_BY_RENAL_AQUAPORINS", "class_name": "InputLayer", "config": {"batch_input_shape": [null, 43], "dtype": "float32", "sparse": false, "name": "REACTOME_REGULATION_OF_WATER_BALANCE_BY_RENAL_AQUAPORINS"}, "inbound_nodes": []}, {"name": "REACTOME_DESTABILIZATION_OF_MRNA_BY_BRF1", "class_name": "InputLayer", "config": {"batch_input_shape": [null, 17], "dtype": "float32", "sparse": false, "name": "REACTOME_DESTABILIZATION_OF_MRNA_BY_BRF1"}, "inbound_nodes": []}, {"name": "REACTOME_IRAK1_RECRUITS_IKK_COMPLEX", "class_name": "InputLayer", "config": {"batch_input_shape": [null, 10], "dtype": "float32", "sparse": false, "name": "REACTOME_IRAK1_RECRUITS_IKK_COMPLEX"}, "inbound_nodes": []}, {"name": "REACTOME_TRAF6_MEDIATED_IRF7_ACTIVATION", "class_name": "InputLayer", "config": {"batch_input_shape": [null, 30], "dtype": "float32", "sparse": false, "name": "REACTOME_TRAF6_MEDIATED_IRF7_ACTIVATION"}, "inbound_nodes": []}, {"name": "REACTOME_CIRCADIAN_CLOCK", "class_name": "InputLayer", "config": {"batch_input_shape": [null, 51], "dtype": "float32", "sparse": false, "name": "REACTOME_CIRCADIAN_CLOCK"}, "inbound_nodes": []}, {"name": "REACTOME_TRAF6_MEDIATED_NFKB_ACTIVATION", "class_name": "InputLayer", "config": {"batch_input_shape": [null, 21], "dtype": "float32", "sparse": false, "name": "REACTOME_TRAF6_MEDIATED_NFKB_ACTIVATION"}, "inbound_nodes": []}, {"name": "REACTOME_FACTORS_INVOLVED_IN_MEGAKARYOCYTE_DEVELOPMENT_AND_PLATELET_PRODUCTION", "class_name": "InputLayer", "config": {"batch_input_shape": [null, 128], "dtype": "float32", "sparse": false, "name": "REACTOME_FACTORS_INVOLVED_IN_MEGAKARYOCYTE_DEVELOPMENT_AND_PLATELET_PRODUCTION"}, "inbound_nodes": []}, {"name": "REACTOME_REGULATION_OF_IFNG_SIGNALING", "class_name": "InputLayer", "config": {"batch_input_shape": [null, 13], "dtype": "float32", "sparse": false, "name": "REACTOME_REGULATION_OF_IFNG_SIGNALING"}, "inbound_nodes": []}, {"name": "REACTOME_GABA_A_RECEPTOR_ACTIVATION", "class_name": "InputLayer", "config": {"batch_input_shape": [null, 12], "dtype": "float32", "sparse": false, "name": "REACTOME_GABA_A_RECEPTOR_ACTIVATION"}, "inbound_nodes": []}, {"name": "REACTOME_REGULATION_OF_MRNA_STABILITY_BY_PROTEINS_THAT_BIND_AU_RICH_ELEMENTS", "class_name": "InputLayer", "config": {"batch_input_shape": [null, 81], "dtype": "float32", "sparse": false, "name": "REACTOME_REGULATION_OF_MRNA_STABILITY_BY_PROTEINS_THAT_BIND_AU_RICH_ELEMENTS"}, "inbound_nodes": []}, {"name": "REACTOME_INHIBITION_OF_VOLTAGE_GATED_CA2_CHANNELS_VIA_GBETA_GAMMA_SUBUNITS", "class_name": "InputLayer", "config": {"batch_input_shape": [null, 25], "dtype": "float32", "sparse": false, "name": "REACTOME_INHIBITION_OF_VOLTAGE_GATED_CA2_CHANNELS_VIA_GBETA_GAMMA_SUBUNITS"}, "inbound_nodes": []}, {"name": "REACTOME_IRAK2_MEDIATED_ACTIVATION_OF_TAK1_COMPLEX_UPON_TLR7_8_OR_9_STIMULATION", "class_name": "InputLayer", "config": {"batch_input_shape": [null, 8], "dtype": "float32", "sparse": false, "name": "REACTOME_IRAK2_MEDIATED_ACTIVATION_OF_TAK1_COMPLEX_UPON_TLR7_8_OR_9_STIMULATION"}, "inbound_nodes": []}, {"name": "REACTOME_TRAF6_MEDIATED_INDUCTION_OF_NFKB_AND_MAP_KINASES_UPON_TLR7_8_OR_9_ACTIVATION", "class_name": "InputLayer", "config": {"batch_input_shape": [null, 75], "dtype": "float32", "sparse": false, "name": "REACTOME_TRAF6_MEDIATED_INDUCTION_OF_NFKB_AND_MAP_KINASES_UPON_TLR7_8_OR_9_ACTIVATION"}, "inbound_nodes": []}, {"name": "REACTOME_TRAF3_DEPENDENT_IRF_ACTIVATION_PATHWAY", "class_name": "InputLayer", "config": {"batch_input_shape": [null, 14], "dtype": "float32", "sparse": false, "name": "REACTOME_TRAF3_DEPENDENT_IRF_ACTIVATION_PATHWAY"}, "inbound_nodes": []}, {"name": "REACTOME_GABA_B_RECEPTOR_ACTIVATION", "class_name": "InputLayer", "config": {"batch_input_shape": [null, 38], "dtype": "float32", "sparse": false, "name": "REACTOME_GABA_B_RECEPTOR_ACTIVATION"}, "inbound_nodes": []}, {"name": "REACTOME_NFKB_ACTIVATION_THROUGH_FADD_RIP1_PATHWAY_MEDIATED_BY_CASPASE_8_AND10", "class_name": "InputLayer", "config": {"batch_input_shape": [null, 12], "dtype": "float32", "sparse": false, "name": "REACTOME_NFKB_ACTIVATION_THROUGH_FADD_RIP1_PATHWAY_MEDIATED_BY_CASPASE_8_AND10"}, "inbound_nodes": []}, {"name": "REACTOME_DESTABILIZATION_OF_MRNA_BY_KSRP", "class_name": "InputLayer", "config": {"batch_input_shape": [null, 17], "dtype": "float32", "sparse": false, "name": "REACTOME_DESTABILIZATION_OF_MRNA_BY_KSRP"}, "inbound_nodes": []}, {"name": "REACTOME_TRANSPORT_TO_THE_GOLGI_AND_SUBSEQUENT_MODIFICATION", "class_name": "InputLayer", "config": {"batch_input_shape": [null, 33], "dtype": "float32", "sparse": false, "name": "REACTOME_TRANSPORT_TO_THE_GOLGI_AND_SUBSEQUENT_MODIFICATION"}, "inbound_nodes": []}, {"name": "REACTOME_IRON_UPTAKE_AND_TRANSPORT", "class_name": "InputLayer", "config": {"batch_input_shape": [null, 36], "dtype": "float32", "sparse": false, "name": "REACTOME_IRON_UPTAKE_AND_TRANSPORT"}, "inbound_nodes": []}, {"name": "REACTOME_DESTABILIZATION_OF_MRNA_BY_TRISTETRAPROLIN_TTP", "class_name": "InputLayer", "config": {"batch_input_shape": [null, 17], "dtype": "float32", "sparse": false, "name": "REACTOME_DESTABILIZATION_OF_MRNA_BY_TRISTETRAPROLIN_TTP"}, "inbound_nodes": []}, {"name": "REACTOME_INTERFERON_GAMMA_SIGNALING", "class_name": "InputLayer", "config": {"batch_input_shape": [null, 60], "dtype": "float32", "sparse": false, "name": "REACTOME_INTERFERON_GAMMA_SIGNALING"}, "inbound_nodes": []}, {"name": "REACTOME_N_GLYCAN_ANTENNAE_ELONGATION", "class_name": "InputLayer", "config": {"batch_input_shape": [null, 14], "dtype": "float32", "sparse": false, "name": "REACTOME_N_GLYCAN_ANTENNAE_ELONGATION"}, "inbound_nodes": []}, {"name": "REACTOME_TRAF6_MEDIATED_IRF7_ACTIVATION_IN_TLR7_8_OR_9_SIGNALING", "class_name": "InputLayer", "config": {"batch_input_shape": [null, 10], "dtype": "float32", "sparse": false, "name": "REACTOME_TRAF6_MEDIATED_IRF7_ACTIVATION_IN_TLR7_8_OR_9_SIGNALING"}, "inbound_nodes": []}, {"name": "REACTOME_ACTIVATION_OF_IRF3_IRF7_MEDIATED_BY_TBK1_IKK_EPSILON", "class_name": "InputLayer", "config": {"batch_input_shape": [null, 13], "dtype": "float32", "sparse": false, "name": "REACTOME_ACTIVATION_OF_IRF3_IRF7_MEDIATED_BY_TBK1_IKK_EPSILON"}, "inbound_nodes": []}, {"name": "REACTOME_ION_TRANSPORT_BY_P_TYPE_ATPASES", "class_name": "InputLayer", "config": {"batch_input_shape": [null, 33], "dtype": "float32", "sparse": false, "name": "REACTOME_ION_TRANSPORT_BY_P_TYPE_ATPASES"}, "inbound_nodes": []}, {"name": "REACTOME_INTERFERON_ALPHA_BETA_SIGNALING", "class_name": "InputLayer", "config": {"batch_input_shape": [null, 63], "dtype": "float32", "sparse": false, "name": "REACTOME_INTERFERON_ALPHA_BETA_SIGNALING"}, "inbound_nodes": []}, {"name": "REACTOME_ADVANCED_GLYCOSYLATION_ENDPRODUCT_RECEPTOR_SIGNALING", "class_name": "InputLayer", "config": {"batch_input_shape": [null, 13], "dtype": "float32", "sparse": false, "name": "REACTOME_ADVANCED_GLYCOSYLATION_ENDPRODUCT_RECEPTOR_SIGNALING"}, "inbound_nodes": []}, {"name": "REACTOME_GABA_RECEPTOR_ACTIVATION", "class_name": "InputLayer", "config": {"batch_input_shape": [null, 52], "dtype": "float32", "sparse": false, "name": "REACTOME_GABA_RECEPTOR_ACTIVATION"}, "inbound_nodes": []}, {"name": "REACTOME_KINESINS", "class_name": "InputLayer", "config": {"batch_input_shape": [null, 24], "dtype": "float32", "sparse": false, "name": "REACTOME_KINESINS"}, "inbound_nodes": []}, {"name": "REACTOME_N_GLYCAN_ANTENNAE_ELONGATION_IN_THE_MEDIAL_TRANS_GOLGI", "class_name": "InputLayer", "config": {"batch_input_shape": [null, 18], "dtype": "float32", "sparse": false, "name": "REACTOME_N_GLYCAN_ANTENNAE_ELONGATION_IN_THE_MEDIAL_TRANS_GOLGI"}, "inbound_nodes": []}, {"name": "REACTOME_REGULATION_OF_IFNA_SIGNALING", "class_name": "InputLayer", "config": {"batch_input_shape": [null, 24], "dtype": "float32", "sparse": false, "name": "REACTOME_REGULATION_OF_IFNA_SIGNALING"}, "inbound_nodes": []}, {"name": "REACTOME_INTERFERON_SIGNALING", "class_name": "InputLayer", "config": {"batch_input_shape": [null, 154], "dtype": "float32", "sparse": false, "name": "REACTOME_INTERFERON_SIGNALING"}, "inbound_nodes": []}, {"name": "REACTOME_NEGATIVE_REGULATORS_OF_RIG_I_MDA5_SIGNALING", "class_name": "InputLayer", "config": {"batch_input_shape": [null, 30], "dtype": "float32", "sparse": false, "name": "REACTOME_NEGATIVE_REGULATORS_OF_RIG_I_MDA5_SIGNALING"}, "inbound_nodes": []}, {"name": "REACTOME_NFKB_AND_MAP_KINASES_ACTIVATION_MEDIATED_BY_TLR4_SIGNALING_REPERTOIRE", "class_name": "InputLayer", "config": {"batch_input_shape": [null, 70], "dtype": "float32", "sparse": false, "name": "REACTOME_NFKB_AND_MAP_KINASES_ACTIVATION_MEDIATED_BY_TLR4_SIGNALING_REPERTOIRE"}, "inbound_nodes": []}, {"name": "REACTOME_TRANSFERRIN_ENDOCYTOSIS_AND_RECYCLING", "class_name": "InputLayer", "config": {"batch_input_shape": [null, 25], "dtype": "float32", "sparse": false, "name": "REACTOME_TRANSFERRIN_ENDOCYTOSIS_AND_RECYCLING"}, "inbound_nodes": []}, {"name": "REACTOME_DSCAM_INTERACTIONS", "class_name": "InputLayer", "config": {"batch_input_shape": [null, 11], "dtype": "float32", "sparse": false, "name": "REACTOME_DSCAM_INTERACTIONS"}, "inbound_nodes": []}, {"name": "REACTOME_ION_CHANNEL_TRANSPORT", "class_name": "InputLayer", "config": {"batch_input_shape": [null, 54], "dtype": "float32", "sparse": false, "name": "REACTOME_ION_CHANNEL_TRANSPORT"}, "inbound_nodes": []}, {"name": "REACTOME_DESTABILIZATION_OF_MRNA_BY_AUF1_HNRNP_D0", "class_name": "InputLayer", "config": {"batch_input_shape": [null, 50], "dtype": "float32", "sparse": false, "name": "REACTOME_DESTABILIZATION_OF_MRNA_BY_AUF1_HNRNP_D0"}, "inbound_nodes": []}, {"name": "REACTOME_TRAF6_MEDIATED_INDUCTION_OF_TAK1_COMPLEX", "class_name": "InputLayer", "config": {"batch_input_shape": [null, 13], "dtype": "float32", "sparse": false, "name": "REACTOME_TRAF6_MEDIATED_INDUCTION_OF_TAK1_COMPLEX"}, "inbound_nodes": []}, {"name": "REACTOME_RIG_I_MDA5_MEDIATED_INDUCTION_OF_IFN_ALPHA_BETA_PATHWAYS", "class_name": "InputLayer", "config": {"batch_input_shape": [null, 71], "dtype": "float32", "sparse": false, "name": "REACTOME_RIG_I_MDA5_MEDIATED_INDUCTION_OF_IFN_ALPHA_BETA_PATHWAYS"}, "inbound_nodes": []}, {"name": "REACTOME_IKK_COMPLEX_RECRUITMENT_MEDIATED_BY_RIP1", "class_name": "InputLayer", "config": {"batch_input_shape": [null, 10], "dtype": "float32", "sparse": false, "name": "REACTOME_IKK_COMPLEX_RECRUITMENT_MEDIATED_BY_RIP1"}, "inbound_nodes": []}, {"name": "REACTOME_LIGAND_GATED_ION_CHANNEL_TRANSPORT", "class_name": "InputLayer", "config": {"batch_input_shape": [null, 21], "dtype": "float32", "sparse": false, "name": "REACTOME_LIGAND_GATED_ION_CHANNEL_TRANSPORT"}, "inbound_nodes": []}, {"name": "REACTOME_FORMATION_OF_INCISION_COMPLEX_IN_GG_NER", "class_name": "InputLayer", "config": {"batch_input_shape": [null, 21], "dtype": "float32", "sparse": false, "name": "REACTOME_FORMATION_OF_INCISION_COMPLEX_IN_GG_NER"}, "inbound_nodes": []}, {"name": "REACTOME_TRANSCRIPTIONAL_REGULATION_OF_WHITE_ADIPOCYTE_DIFFERENTIATION", "class_name": "InputLayer", "config": {"batch_input_shape": [null, 71], "dtype": "float32", "sparse": false, "name": "REACTOME_TRANSCRIPTIONAL_REGULATION_OF_WHITE_ADIPOCYTE_DIFFERENTIATION"}, "inbound_nodes": []}, {"name": "REACTOME_ENDOSOMAL_SORTING_COMPLEX_REQUIRED_FOR_TRANSPORT_ESCRT", "class_name": "InputLayer", "config": {"batch_input_shape": [null, 26], "dtype": "float32", "sparse": false, "name": "REACTOME_ENDOSOMAL_SORTING_COMPLEX_REQUIRED_FOR_TRANSPORT_ESCRT"}, "inbound_nodes": []}, {"name": "REACTOME_MEIOTIC_RECOMBINATION", "class_name": "InputLayer", "config": {"batch_input_shape": [null, 84], "dtype": "float32", "sparse": false, "name": "REACTOME_MEIOTIC_RECOMBINATION"}, "inbound_nodes": []}, {"name": "REACTOME_IL_2_SIGNALING", "class_name": "InputLayer", "config": {"batch_input_shape": [null, 41], "dtype": "float32", "sparse": false, "name": "REACTOME_IL_2_SIGNALING"}, "inbound_nodes": []}, {"name": "REACTOME_IL_6_SIGNALING", "class_name": "InputLayer", "config": {"batch_input_shape": [null, 10], "dtype": "float32", "sparse": false, "name": "REACTOME_IL_6_SIGNALING"}, "inbound_nodes": []}, {"name": "REACTOME_PLATELET_AGGREGATION_PLUG_FORMATION", "class_name": "InputLayer", "config": {"batch_input_shape": [null, 36], "dtype": "float32", "sparse": false, "name": "REACTOME_PLATELET_AGGREGATION_PLUG_FORMATION"}, "inbound_nodes": []}, {"name": "REACTOME_SIGNALING_BY_NOTCH", "class_name": "InputLayer", "config": {"batch_input_shape": [null, 95], "dtype": "float32", "sparse": false, "name": "REACTOME_SIGNALING_BY_NOTCH"}, "inbound_nodes": []}, {"name": "REACTOME_LAGGING_STRAND_SYNTHESIS", "class_name": "InputLayer", "config": {"batch_input_shape": [null, 19], "dtype": "float32", "sparse": false, "name": "REACTOME_LAGGING_STRAND_SYNTHESIS"}, "inbound_nodes": []}, {"name": "REACTOME_INTRINSIC_PATHWAY", "class_name": "InputLayer", "config": {"batch_input_shape": [null, 17], "dtype": "float32", "sparse": false, "name": "REACTOME_INTRINSIC_PATHWAY"}, "inbound_nodes": []}, {"name": "REACTOME_INHIBITION_OF_REPLICATION_INITIATION_OF_DAMAGED_DNA_BY_RB1_E2F1", "class_name": "InputLayer", "config": {"batch_input_shape": [null, 12], "dtype": "float32", "sparse": false, "name": "REACTOME_INHIBITION_OF_REPLICATION_INITIATION_OF_DAMAGED_DNA_BY_RB1_E2F1"}, "inbound_nodes": []}, {"name": "REACTOME_ETHANOL_OXIDATION", "class_name": "InputLayer", "config": {"batch_input_shape": [null, 10], "dtype": "float32", "sparse": false, "name": "REACTOME_ETHANOL_OXIDATION"}, "inbound_nodes": []}, {"name": "REACTOME_SYNTHESIS_OF_VERY_LONG_CHAIN_FATTY_ACYL_COAS", "class_name": "InputLayer", "config": {"batch_input_shape": [null, 14], "dtype": "float32", "sparse": false, "name": "REACTOME_SYNTHESIS_OF_VERY_LONG_CHAIN_FATTY_ACYL_COAS"}, "inbound_nodes": []}, {"name": "REACTOME_DNA_REPLICATION", "class_name": "InputLayer", "config": {"batch_input_shape": [null, 185], "dtype": "float32", "sparse": false, "name": "REACTOME_DNA_REPLICATION"}, "inbound_nodes": []}, {"name": "REACTOME_CLEAVAGE_OF_GROWING_TRANSCRIPT_IN_THE_TERMINATION_REGION_", "class_name": "InputLayer", "config": {"batch_input_shape": [null, 42], "dtype": "float32", "sparse": false, "name": "REACTOME_CLEAVAGE_OF_GROWING_TRANSCRIPT_IN_THE_TERMINATION_REGION_"}, "inbound_nodes": []}, {"name": "REACTOME_PKB_MEDIATED_EVENTS", "class_name": "InputLayer", "config": {"batch_input_shape": [null, 28], "dtype": "float32", "sparse": false, "name": "REACTOME_PKB_MEDIATED_EVENTS"}, "inbound_nodes": []}, {"name": "REACTOME_E2F_MEDIATED_REGULATION_OF_DNA_REPLICATION", "class_name": "InputLayer", "config": {"batch_input_shape": [null, 34], "dtype": "float32", "sparse": false, "name": "REACTOME_E2F_MEDIATED_REGULATION_OF_DNA_REPLICATION"}, "inbound_nodes": []}, {"name": "REACTOME_METABOLISM_OF_CARBOHYDRATES", "class_name": "InputLayer", "config": {"batch_input_shape": [null, 236], "dtype": "float32", "sparse": false, "name": "REACTOME_METABOLISM_OF_CARBOHYDRATES"}, "inbound_nodes": []}, {"name": "REACTOME_HORMONE_SENSITIVE_LIPASE_HSL_MEDIATED_TRIACYLGLYCEROL_HYDROLYSIS", "class_name": "InputLayer", "config": {"batch_input_shape": [null, 12], "dtype": "float32", "sparse": false, "name": "REACTOME_HORMONE_SENSITIVE_LIPASE_HSL_MEDIATED_TRIACYLGLYCEROL_HYDROLYSIS"}, "inbound_nodes": []}, {"name": "REACTOME_SIGNALING_BY_INSULIN_RECEPTOR", "class_name": "InputLayer", "config": {"batch_input_shape": [null, 105], "dtype": "float32", "sparse": false, "name": "REACTOME_SIGNALING_BY_INSULIN_RECEPTOR"}, "inbound_nodes": []}, {"name": "REACTOME_SIGNAL_ATTENUATION", "class_name": "InputLayer", "config": {"batch_input_shape": [null, 13], "dtype": "float32", "sparse": false, "name": "REACTOME_SIGNAL_ATTENUATION"}, "inbound_nodes": []}, {"name": "REACTOME_PURINE_METABOLISM", "class_name": "InputLayer", "config": {"batch_input_shape": [null, 33], "dtype": "float32", "sparse": false, "name": "REACTOME_PURINE_METABOLISM"}, "inbound_nodes": []}, {"name": "REACTOME_SOS_MEDIATED_SIGNALLING", "class_name": "InputLayer", "config": {"batch_input_shape": [null, 14], "dtype": "float32", "sparse": false, "name": "REACTOME_SOS_MEDIATED_SIGNALLING"}, "inbound_nodes": []}, {"name": "REACTOME_RNA_POL_III_TRANSCRIPTION_INITIATION_FROM_TYPE_3_PROMOTER", "class_name": "InputLayer", "config": {"batch_input_shape": [null, 26], "dtype": "float32", "sparse": false, "name": "REACTOME_RNA_POL_III_TRANSCRIPTION_INITIATION_FROM_TYPE_3_PROMOTER"}, "inbound_nodes": []}, {"name": "REACTOME_APOPTOSIS", "class_name": "InputLayer", "config": {"batch_input_shape": [null, 142], "dtype": "float32", "sparse": false, "name": "REACTOME_APOPTOSIS"}, "inbound_nodes": []}, {"name": "REACTOME_LIPID_DIGESTION_MOBILIZATION_AND_TRANSPORT", "class_name": "InputLayer", "config": {"batch_input_shape": [null, 45], "dtype": "float32", "sparse": false, "name": "REACTOME_LIPID_DIGESTION_MOBILIZATION_AND_TRANSPORT"}, "inbound_nodes": []}, {"name": "REACTOME_HEMOSTASIS", "class_name": "InputLayer", "config": {"batch_input_shape": [null, 453], "dtype": "float32", "sparse": false, "name": "REACTOME_HEMOSTASIS"}, "inbound_nodes": []}, {"name": "REACTOME_INFLUENZA_LIFE_CYCLE", "class_name": "InputLayer", "config": {"batch_input_shape": [null, 157], "dtype": "float32", "sparse": false, "name": "REACTOME_INFLUENZA_LIFE_CYCLE"}, "inbound_nodes": []}, {"name": "REACTOME_INFLUENZA_VIRAL_RNA_TRANSCRIPTION_AND_REPLICATION", "class_name": "InputLayer", "config": {"batch_input_shape": [null, 123], "dtype": "float32", "sparse": false, "name": "REACTOME_INFLUENZA_VIRAL_RNA_TRANSCRIPTION_AND_REPLICATION"}, "inbound_nodes": []}, {"name": "REACTOME_NEP_NS2_INTERACTS_WITH_THE_CELLULAR_EXPORT_MACHINERY", "class_name": "InputLayer", "config": {"batch_input_shape": [null, 27], "dtype": "float32", "sparse": false, "name": "REACTOME_NEP_NS2_INTERACTS_WITH_THE_CELLULAR_EXPORT_MACHINERY"}, "inbound_nodes": []}, {"name": "REACTOME_HIV_INFECTION", "class_name": "InputLayer", "config": {"batch_input_shape": [null, 192], "dtype": "float32", "sparse": false, "name": "REACTOME_HIV_INFECTION"}, "inbound_nodes": []}, {"name": "REACTOME_TRANSPORT_OF_RIBONUCLEOPROTEINS_INTO_THE_HOST_NUCLEUS", "class_name": "InputLayer", "config": {"batch_input_shape": [null, 27], "dtype": "float32", "sparse": false, "name": "REACTOME_TRANSPORT_OF_RIBONUCLEOPROTEINS_INTO_THE_HOST_NUCLEUS"}, "inbound_nodes": []}, {"name": "REACTOME_HIV_LIFE_CYCLE", "class_name": "InputLayer", "config": {"batch_input_shape": [null, 112], "dtype": "float32", "sparse": false, "name": "REACTOME_HIV_LIFE_CYCLE"}, "inbound_nodes": []}, {"name": "REACTOME_ABORTIVE_ELONGATION_OF_HIV1_TRANSCRIPT_IN_THE_ABSENCE_OF_TAT", "class_name": "InputLayer", "config": {"batch_input_shape": [null, 19], "dtype": "float32", "sparse": false, "name": "REACTOME_ABORTIVE_ELONGATION_OF_HIV1_TRANSCRIPT_IN_THE_ABSENCE_OF_TAT"}, "inbound_nodes": []}, {"name": "REACTOME_EARLY_PHASE_OF_HIV_LIFE_CYCLE", "class_name": "InputLayer", "config": {"batch_input_shape": [null, 14], "dtype": "float32", "sparse": false, "name": "REACTOME_EARLY_PHASE_OF_HIV_LIFE_CYCLE"}, "inbound_nodes": []}, {"name": "REACTOME_HOST_INTERACTIONS_OF_HIV_FACTORS", "class_name": "InputLayer", "config": {"batch_input_shape": [null, 123], "dtype": "float32", "sparse": false, "name": "REACTOME_HOST_INTERACTIONS_OF_HIV_FACTORS"}, "inbound_nodes": []}, {"name": "REACTOME_RNA_POL_III_TRANSCRIPTION_TERMINATION", "class_name": "InputLayer", "config": {"batch_input_shape": [null, 19], "dtype": "float32", "sparse": false, "name": "REACTOME_RNA_POL_III_TRANSCRIPTION_TERMINATION"}, "inbound_nodes": []}, {"name": "REACTOME_RESPIRATORY_ELECTRON_TRANSPORT_ATP_SYNTHESIS_BY_CHEMIOSMOTIC_COUPLING_AND_HEAT_PRODUCTION_BY_UNCOUPLING_PROTEINS_", "class_name": "InputLayer", "config": {"batch_input_shape": [null, 82], "dtype": "float32", "sparse": false, "name": "REACTOME_RESPIRATORY_ELECTRON_TRANSPORT_ATP_SYNTHESIS_BY_CHEMIOSMOTIC_COUPLING_AND_HEAT_PRODUCTION_BY_UNCOUPLING_PROTEINS_"}, "inbound_nodes": []}, {"name": "REACTOME_FORMATION_OF_THE_HIV1_EARLY_ELONGATION_COMPLEX", "class_name": "InputLayer", "config": {"batch_input_shape": [null, 29], "dtype": "float32", "sparse": false, "name": "REACTOME_FORMATION_OF_THE_HIV1_EARLY_ELONGATION_COMPLEX"}, "inbound_nodes": []}, {"name": "REACTOME_RAF_MAP_KINASE_CASCADE", "class_name": "InputLayer", "config": {"batch_input_shape": [null, 10], "dtype": "float32", "sparse": false, "name": "REACTOME_RAF_MAP_KINASE_CASCADE"}, "inbound_nodes": []}, {"name": "REACTOME_VIRAL_MESSENGER_RNA_SYNTHESIS", "class_name": "InputLayer", "config": {"batch_input_shape": [null, 14], "dtype": "float32", "sparse": false, "name": "REACTOME_VIRAL_MESSENGER_RNA_SYNTHESIS"}, "inbound_nodes": []}, {"name": "REACTOME_LATE_PHASE_OF_HIV_LIFE_CYCLE", "class_name": "InputLayer", "config": {"batch_input_shape": [null, 98], "dtype": "float32", "sparse": false, "name": "REACTOME_LATE_PHASE_OF_HIV_LIFE_CYCLE"}, "inbound_nodes": []}, {"name": "REACTOME_SHC_MEDIATED_SIGNALLING", "class_name": "InputLayer", "config": {"batch_input_shape": [null, 15], "dtype": "float32", "sparse": false, "name": "REACTOME_SHC_MEDIATED_SIGNALLING"}, "inbound_nodes": []}, {"name": "REACTOME_INTERACTIONS_OF_VPR_WITH_HOST_CELLULAR_PROTEINS", "class_name": "InputLayer", "config": {"batch_input_shape": [null, 32], "dtype": "float32", "sparse": false, "name": "REACTOME_INTERACTIONS_OF_VPR_WITH_HOST_CELLULAR_PROTEINS"}, "inbound_nodes": []}, {"name": "REACTOME_FORMATION_OF_ATP_BY_CHEMIOSMOTIC_COUPLING", "class_name": "InputLayer", "config": {"batch_input_shape": [null, 13], "dtype": "float32", "sparse": false, "name": "REACTOME_FORMATION_OF_ATP_BY_CHEMIOSMOTIC_COUPLING"}, "inbound_nodes": []}, {"name": "REACTOME_APC_C_CDH1_MEDIATED_DEGRADATION_OF_CDC20_AND_OTHER_APC_C_CDH1_TARGETED_PROTEINS_IN_LATE_MITOSIS_EARLY_G1", "class_name": "InputLayer", "config": {"batch_input_shape": [null, 64], "dtype": "float32", "sparse": false, "name": "REACTOME_APC_C_CDH1_MEDIATED_DEGRADATION_OF_CDC20_AND_OTHER_APC_C_CDH1_TARGETED_PROTEINS_IN_LATE_MITOSIS_EARLY_G1"}, "inbound_nodes": []}, {"name": "REACTOME_ACTIVATION_OF_ATR_IN_RESPONSE_TO_REPLICATION_STRESS", "class_name": "InputLayer", "config": {"batch_input_shape": [null, 35], "dtype": "float32", "sparse": false, "name": "REACTOME_ACTIVATION_OF_ATR_IN_RESPONSE_TO_REPLICATION_STRESS"}, "inbound_nodes": []}, {"name": "REACTOME_UNWINDING_OF_DNA", "class_name": "InputLayer", "config": {"batch_input_shape": [null, 11], "dtype": "float32", "sparse": false, "name": "REACTOME_UNWINDING_OF_DNA"}, "inbound_nodes": []}, {"name": "REACTOME_APC_C_CDC20_MEDIATED_DEGRADATION_OF_MITOTIC_PROTEINS", "class_name": "InputLayer", "config": {"batch_input_shape": [null, 65], "dtype": "float32", "sparse": false, "name": "REACTOME_APC_C_CDC20_MEDIATED_DEGRADATION_OF_MITOTIC_PROTEINS"}, "inbound_nodes": []}, {"name": "REACTOME_GLUCURONIDATION", "class_name": "InputLayer", "config": {"batch_input_shape": [null, 18], "dtype": "float32", "sparse": false, "name": "REACTOME_GLUCURONIDATION"}, "inbound_nodes": []}, {"name": "REACTOME_AUTODEGRADATION_OF_CDH1_BY_CDH1_APC_C", "class_name": "InputLayer", "config": {"batch_input_shape": [null, 56], "dtype": "float32", "sparse": false, "name": "REACTOME_AUTODEGRADATION_OF_CDH1_BY_CDH1_APC_C"}, "inbound_nodes": []}, {"name": "REACTOME_MYD88_MAL_CASCADE_INITIATED_ON_PLASMA_MEMBRANE", "class_name": "InputLayer", "config": {"batch_input_shape": [null, 81], "dtype": "float32", "sparse": false, "name": "REACTOME_MYD88_MAL_CASCADE_INITIATED_ON_PLASMA_MEMBRANE"}, "inbound_nodes": []}, {"name": "REACTOME_INNATE_IMMUNE_SYSTEM", "class_name": "InputLayer", "config": {"batch_input_shape": [null, 268], "dtype": "float32", "sparse": false, "name": "REACTOME_INNATE_IMMUNE_SYSTEM"}, "inbound_nodes": []}, {"name": "REACTOME_REGULATION_OF_GLUCOKINASE_BY_GLUCOKINASE_REGULATORY_PROTEIN", "class_name": "InputLayer", "config": {"batch_input_shape": [null, 27], "dtype": "float32", "sparse": false, "name": "REACTOME_REGULATION_OF_GLUCOKINASE_BY_GLUCOKINASE_REGULATORY_PROTEIN"}, "inbound_nodes": []}, {"name": "REACTOME_MITOTIC_PROMETAPHASE", "class_name": "InputLayer", "config": {"batch_input_shape": [null, 83], "dtype": "float32", "sparse": false, "name": "REACTOME_MITOTIC_PROMETAPHASE"}, "inbound_nodes": []}, {"name": "REACTOME_APC_C_CDC20_MEDIATED_DEGRADATION_OF_CYCLIN_B", "class_name": "InputLayer", "config": {"batch_input_shape": [null, 19], "dtype": "float32", "sparse": false, "name": "REACTOME_APC_C_CDC20_MEDIATED_DEGRADATION_OF_CYCLIN_B"}, "inbound_nodes": []}, {"name": "REACTOME_SCF_BETA_TRCP_MEDIATED_DEGRADATION_OF_EMI1", "class_name": "InputLayer", "config": {"batch_input_shape": [null, 49], "dtype": "float32", "sparse": false, "name": "REACTOME_SCF_BETA_TRCP_MEDIATED_DEGRADATION_OF_EMI1"}, "inbound_nodes": []}, {"name": "REACTOME_LIPOPROTEIN_METABOLISM", "class_name": "InputLayer", "config": {"batch_input_shape": [null, 28], "dtype": "float32", "sparse": false, "name": "REACTOME_LIPOPROTEIN_METABOLISM"}, "inbound_nodes": []}, {"name": "REACTOME_G1_S_SPECIFIC_TRANSCRIPTION", "class_name": "InputLayer", "config": {"batch_input_shape": [null, 18], "dtype": "float32", "sparse": false, "name": "REACTOME_G1_S_SPECIFIC_TRANSCRIPTION"}, "inbound_nodes": []}, {"name": "REACTOME_THE_ROLE_OF_NEF_IN_HIV1_REPLICATION_AND_DISEASE_PATHOGENESIS", "class_name": "InputLayer", "config": {"batch_input_shape": [null, 28], "dtype": "float32", "sparse": false, "name": "REACTOME_THE_ROLE_OF_NEF_IN_HIV1_REPLICATION_AND_DISEASE_PATHOGENESIS"}, "inbound_nodes": []}, {"name": "REACTOME_CHYLOMICRON_MEDIATED_LIPID_TRANSPORT", "class_name": "InputLayer", "config": {"batch_input_shape": [null, 16], "dtype": "float32", "sparse": false, "name": "REACTOME_CHYLOMICRON_MEDIATED_LIPID_TRANSPORT"}, "inbound_nodes": []}, {"name": "REACTOME_SIGNALING_BY_TGF_BETA_RECEPTOR_COMPLEX", "class_name": "InputLayer", "config": {"batch_input_shape": [null, 60], "dtype": "float32", "sparse": false, "name": "REACTOME_SIGNALING_BY_TGF_BETA_RECEPTOR_COMPLEX"}, "inbound_nodes": []}, {"name": "REACTOME_CONVERSION_FROM_APC_C_CDC20_TO_APC_C_CDH1_IN_LATE_ANAPHASE", "class_name": "InputLayer", "config": {"batch_input_shape": [null, 16], "dtype": "float32", "sparse": false, "name": "REACTOME_CONVERSION_FROM_AP…
99", 0, 0, {}], ["dense_400", 0, 0, {}], ["dense_401", 0, 0, {}], ["dense_402", 0, 0, {}], ["dense_403", 0, 0, {}], ["dense_404", 0, 0, {}], ["dense_405", 0, 0, {}], ["dense_406", 0, 0, {}], ["dense_407", 0, 0, {}], ["dense_408", 0, 0, {}], ["dense_409", 0, 0, {}], ["dense_410", 0, 0, {}], ["dense_411", 0, 0, {}], ["dense_412", 0, 0, {}], ["dense_413", 0, 0, {}], ["dense_414", 0, 0, {}], ["dense_415", 0, 0, {}], ["dense_416", 0, 0, {}], ["dense_417", 0, 0, {}], ["dense_418", 0, 0, {}], ["dense_419", 0, 0, {}], ["dense_420", 0, 0, {}], ["dense_421", 0, 0, {}], ["dense_422", 0, 0, {}], ["dense_423", 0, 0, {}], ["dense_424", 0, 0, {}], ["dense_425", 0, 0, {}], ["dense_426", 0, 0, {}], ["dense_427", 0, 0, {}], ["dense_428", 0, 0, {}], ["dense_429", 0, 0, {}], ["dense_430", 0, 0, {}], ["dense_431", 0, 0, {}], ["dense_432", 0, 0, {}], ["dense_433", 0, 0, {}], ["dense_434", 0, 0, {}], ["dense_435", 0, 0, {}], ["dense_436", 0, 0, {}], ["dense_437", 0, 0, {}], ["dense_438", 0, 0, {}], ["dense_439", 0, 0, {}], ["dense_440", 0, 0, {}], ["dense_441", 0, 0, {}], ["dense_442", 0, 0, {}], ["dense_443", 0, 0, {}], ["dense_444", 0, 0, {}], ["dense_445", 0, 0, {}], ["dense_446", 0, 0, {}], ["dense_447", 0, 0, {}], ["dense_448", 0, 0, {}], ["dense_449", 0, 0, {}], ["dense_450", 0, 0, {}], ["dense_451", 0, 0, {}], ["dense_452", 0, 0, {}], ["dense_453", 0, 0, {}], ["dense_454", 0, 0, {}], ["dense_455", 0, 0, {}], ["dense_456", 0, 0, {}], ["dense_457", 0, 0, {}], ["dense_458", 0, 0, {}], ["dense_459", 0, 0, {}], ["dense_460", 0, 0, {}], ["dense_461", 0, 0, {}], ["dense_462", 0, 0, {}], ["dense_463", 0, 0, {}], ["dense_464", 0, 0, {}], ["dense_465", 0, 0, {}], ["dense_466", 0, 0, {}], ["dense_467", 0, 0, {}], ["dense_468", 0, 0, {}], ["dense_469", 0, 0, {}], ["dense_470", 0, 0, {}], ["dense_471", 0, 0, {}], ["dense_472", 0, 0, {}], ["dense_473", 0, 0, {}], ["dense_474", 0, 0, {}], ["dense_475", 0, 0, {}], ["dense_476", 0, 0, {}], ["dense_477", 0, 0, {}], ["dense_478", 0, 0, {}], ["dense_479", 0, 0, {}], ["dense_480", 0, 0, {}], ["dense_481", 0, 0, {}], ["dense_482", 0, 0, {}], ["dense_483", 0, 0, {}], ["dense_484", 0, 0, {}], ["dense_485", 0, 0, {}], ["dense_486", 0, 0, {}], ["dense_487", 0, 0, {}], ["dense_488", 0, 0, {}], ["dense_489", 0, 0, {}], ["dense_490", 0, 0, {}], ["dense_491", 0, 0, {}], ["dense_492", 0, 0, {}], ["dense_493", 0, 0, {}], ["dense_494", 0, 0, {}], ["dense_495", 0, 0, {}], ["dense_496", 0, 0, {}], ["dense_497", 0, 0, {}], ["dense_498", 0, 0, {}], ["dense_499", 0, 0, {}], ["dense_500", 0, 0, {}], ["dense_501", 0, 0, {}], ["dense_502", 0, 0, {}], ["dense_503", 0, 0, {}], ["dense_504", 0, 0, {}], ["dense_505", 0, 0, {}], ["dense_506", 0, 0, {}], ["dense_507", 0, 0, {}], ["dense_508", 0, 0, {}], ["dense_509", 0, 0, {}], ["dense_510", 0, 0, {}], ["dense_511", 0, 0, {}], ["dense_512", 0, 0, {}], ["dense_513", 0, 0, {}], ["dense_514", 0, 0, {}], ["dense_515", 0, 0, {}], ["dense_516", 0, 0, {}], ["dense_517", 0, 0, {}], ["dense_518", 0, 0, {}], ["dense_519", 0, 0, {}], ["dense_520", 0, 0, {}], ["dense_521", 0, 0, {}], ["dense_522", 0, 0, {}], ["dense_523", 0, 0, {}], ["dense_524", 0, 0, {}], ["dense_525", 0, 0, {}], ["dense_526", 0, 0, {}], ["dense_527", 0, 0, {}], ["dense_528", 0, 0, {}], ["dense_529", 0, 0, {}], ["dense_530", 0, 0, {}], ["dense_531", 0, 0, {}], ["dense_532", 0, 0, {}], ["dense_533", 0, 0, {}], ["dense_534", 0, 0, {}], ["dense_535", 0, 0, {}], ["dense_536", 0, 0, {}], ["dense_537", 0, 0, {}], ["dense_538", 0, 0, {}], ["dense_539", 0, 0, {}], ["dense_540", 0, 0, {}], ["dense_541", 0, 0, {}], ["dense_542", 0, 0, {}], ["dense_543", 0, 0, {}], ["dense_544", 0, 0, {}], ["dense_545", 0, 0, {}], ["dense_546", 0, 0, {}], ["dense_547", 0, 0, {}], ["dense_548", 0, 0, {}], ["dense_549", 0, 0, {}], ["dense_550", 0, 0, {}], ["dense_551", 0, 0, {}], ["dense_552", 0, 0, {}], ["dense_553", 0, 0, {}], ["dense_554", 0, 0, {}], ["dense_555", 0, 0, {}], ["dense_556", 0, 0, {}], ["dense_557", 0, 0, {}], ["dense_558", 0, 0, {}], ["dense_559", 0, 0, {}], ["dense_560", 0, 0, {}], ["dense_561", 0, 0, {}], ["dense_562", 0, 0, {}], ["dense_563", 0, 0, {}], ["dense_564", 0, 0, {}], ["dense_565", 0, 0, {}], ["dense_566", 0, 0, {}], ["dense_567", 0, 0, {}], ["dense_568", 0, 0, {}], ["dense_569", 0, 0, {}], ["dense_570", 0, 0, {}], ["dense_571", 0, 0, {}], ["dense_572", 0, 0, {}], ["dense_573", 0, 0, {}], ["dense_574", 0, 0, {}], ["dense_575", 0, 0, {}], ["dense_576", 0, 0, {}], ["dense_577", 0, 0, {}], ["dense_578", 0, 0, {}], ["dense_579", 0, 0, {}], ["dense_580", 0, 0, {}], ["dense_581", 0, 0, {}], ["dense_582", 0, 0, {}], ["dense_583", 0, 0, {}], ["dense_584", 0, 0, {}], ["dense_585", 0, 0, {}], ["dense_586", 0, 0, {}], ["dense_587", 0, 0, {}], ["dense_588", 0, 0, {}], ["dense_589", 0, 0, {}], ["dense_590", 0, 0, {}], ["dense_591", 0, 0, {}], ["dense_592", 0, 0, {}], ["dense_593", 0, 0, {}], ["dense_594", 0, 0, {}], ["dense_595", 0, 0, {}], ["dense_596", 0, 0, {}], ["dense_597", 0, 0, {}], ["dense_598", 0, 0, {}], ["dense_599", 0, 0, {}], ["dense_600", 0, 0, {}], ["dense_601", 0, 0, {}], ["dense_602", 0, 0, {}], ["dense_603", 0, 0, {}], ["dense_604", 0, 0, {}], ["dense_605", 0, 0, {}], ["dense_606", 0, 0, {}], ["dense_607", 0, 0, {}], ["dense_608", 0, 0, {}], ["dense_609", 0, 0, {}], ["dense_610", 0, 0, {}], ["dense_611", 0, 0, {}], ["dense_612", 0, 0, {}], ["dense_613", 0, 0, {}], ["dense_614", 0, 0, {}], ["dense_615", 0, 0, {}], ["dense_616", 0, 0, {}], ["dense_617", 0, 0, {}], ["dense_618", 0, 0, {}], ["dense_619", 0, 0, {}], ["dense_620", 0, 0, {}], ["dense_621", 0, 0, {}], ["dense_622", 0, 0, {}], ["dense_623", 0, 0, {}], ["dense_624", 0, 0, {}], ["dense_625", 0, 0, {}], ["dense_626", 0, 0, {}], ["dense_627", 0, 0, {}], ["dense_628", 0, 0, {}], ["dense_629", 0, 0, {}], ["dense_630", 0, 0, {}], ["dense_631", 0, 0, {}], ["dense_632", 0, 0, {}], ["dense_633", 0, 0, {}], ["dense_634", 0, 0, {}], ["dense_635", 0, 0, {}], ["dense_636", 0, 0, {}], ["dense_637", 0, 0, {}], ["dense_638", 0, 0, {}], ["dense_639", 0, 0, {}], ["dense_640", 0, 0, {}], ["dense_641", 0, 0, {}], ["dense_642", 0, 0, {}], ["dense_643", 0, 0, {}], ["dense_644", 0, 0, {}], ["dense_645", 0, 0, {}], ["dense_646", 0, 0, {}], ["dense_647", 0, 0, {}], ["dense_648", 0, 0, {}], ["dense_649", 0, 0, {}], ["dense_650", 0, 0, {}], ["dense_651", 0, 0, {}], ["dense_652", 0, 0, {}], ["dense_653", 0, 0, {}], ["dense_654", 0, 0, {}], ["dense_655", 0, 0, {}], ["dense_656", 0, 0, {}], ["dense_657", 0, 0, {}], ["dense_658", 0, 0, {}], ["dense_659", 0, 0, {}], ["dense_660", 0, 0, {}], ["dense_661", 0, 0, {}], ["dense_662", 0, 0, {}], ["dense_663", 0, 0, {}], ["dense_664", 0, 0, {}], ["dense_665", 0, 0, {}], ["dense_666", 0, 0, {}], ["dense_667", 0, 0, {}], ["dense_668", 0, 0, {}], ["dense_669", 0, 0, {}], ["dense_670", 0, 0, {}], ["dense_671", 0, 0, {}], ["dense_672", 0, 0, {}], ["dense_673", 0, 0, {}], ["dense_674", 0, 0, {}]]]}, {"name": "dense_675", "class_name": "Dense", "config": {"name": "dense_675", "trainable": true, "dtype": "float32", "units": 497, "activation": "relu", "use_bias": true, "kernel_initializer": {"class_name": "VarianceScaling", "config": {"scale": 1.0, "mode": "fan_avg", "distribution": "uniform", "seed": null}}, "bias_initializer": {"class_name": "Zeros", "config": {}}, "kernel_regularizer": null, "bias_regularizer": null, "activity_regularizer": null, "kernel_constraint": null, "bias_constraint": null}, "inbound_nodes": [[["concatenate_1", 0, 0, {}]]]}, {"name": "dropout_1", "class_name": "Dropout", "config": {"name": "dropout_1", "trainable": true, "dtype": "float32", "rate": 0.5, "noise_shape": null, "seed": null}, "inbound_nodes": [[["dense_675", 0, 0, {}]]]}, {"name": "dense_676", "class_name": "Dense", "config": {"name": "dense_676", "trainable": true, "dtype": "float32", "units": 497, "activation": "relu", "use_bias": true, "kernel_initializer": {"class_name": "VarianceScaling", "config": {"scale": 1.0, "mode": "fan_avg", "distribution": "uniform", "seed": null}}, "bias_initializer": {"class_name": "Zeros", "config": {}}, "kernel_regularizer": null, "bias_regularizer": null, "activity_regularizer": null, "kernel_constraint": null, "bias_constraint": null}, "inbound_nodes": [[["dropout_1", 0, 0, {}]]]}, {"name": "dropout_2", "class_name": "Dropout", "config": {"name": "dropout_2", "trainable": true, "dtype": "float32", "rate": 0.5, "noise_shape": null, "seed": null}, "inbound_nodes": [[["dense_676", 0, 0, {}]]]}, {"name": "dense_677", "class_name": "Dense", "config": {"name": "dense_677", "trainable": true, "dtype": "float32", "units": 199, "activation": "relu", "use_bias": true, "kernel_initializer": {"class_name": "VarianceScaling", "config": {"scale": 1.0, "mode": "fan_avg", "distribution": "uniform", "seed": null}}, "bias_initializer": {"class_name": "Zeros", "config": {}}, "kernel_regularizer": null, "bias_regularizer": null, "activity_regularizer": null, "kernel_constraint": null, "bias_constraint": null}, "inbound_nodes": [[["dropout_2", 0, 0, {}]]]}, {"name": "dropout_3", "class_name": "Dropout", "config": {"name": "dropout_3", "trainable": true, "dtype": "float32", "rate": 0.5, "noise_shape": null, "seed": null}, "inbound_nodes": [[["dense_677", 0, 0, {}]]]}, {"name": "dense_678", "class_name": "Dense", "config": {"name": "dense_678", "trainable": true, "dtype": "float32", "units": 298, "activation": "relu", "use_bias": true, "kernel_initializer": {"class_name": "VarianceScaling", "config": {"scale": 1.0, "mode": "fan_avg", "distribution": "uniform", "seed": null}}, "bias_initializer": {"class_name": "Zeros", "config": {}}, "kernel_regularizer": null, "bias_regularizer": null, "activity_regularizer": null, "kernel_constraint": null, "bias_constraint": null}, "inbound_nodes": [[["dropout_3", 0, 0, {}]]]}, {"name": "dropout_4", "class_name": "Dropout", "config": {"name": "dropout_4", "trainable": true, "dtype": "float32", "rate": 0.5, "noise_shape": null, "seed": null}, "inbound_nodes": [[["dense_678", 0, 0, {}]]]}, {"name": "dense_679", "class_name": "Dense", "config": {"name": "dense_679", "trainable": true, "dtype": "float32", "units": 199, "activation": "relu", "use_bias": true, "kernel_initializer": {"class_name": "VarianceScaling", "config": {"scale": 1.0, "mode": "fan_avg", "distribution": "uniform", "seed": null}}, "bias_initializer": {"class_name": "Zeros", "config": {}}, "kernel_regularizer": null, "bias_regularizer": null, "activity_regularizer": null, "kernel_constraint": null, "bias_constraint": null}, "inbound_nodes": [[["dropout_4", 0, 0, {}]]]}, {"name": "dropout_5", "class_name": "Dropout", "config": {"name": "dropout_5", "trainable": true, "dtype": "float32", "rate": 0.5, "noise_shape": null, "seed": null}, "inbound_nodes": [[["dense_679", 0, 0, {}]]]}, {"name": "dense_680", "class_name": "Dense", "config": {"name": "dense_680", "trainable": true, "dtype": "float32", "units": 99, "activation": "relu", "use_bias": true, "kernel_initializer": {"class_name": "VarianceScaling", "config": {"scale": 1.0, "mode": "fan_avg", "distribution": "uniform", "seed": null}}, "bias_initializer": {"class_name": "Zeros", "config": {}}, "kernel_regularizer": null, "bias_regularizer": null, "activity_regularizer": null, "kernel_constraint": null, "bias_constraint": null}, "inbound_nodes": [[["dropout_5", 0, 0, {}]]]}, {"name": "dropout_6", "class_name": "Dropout", "config": {"name": "dropout_6", "trainable": true, "dtype": "float32", "rate": 0.5, "noise_shape": null, "seed": null}, "inbound_nodes": [[["dense_680", 0, 0, {}]]]}, {"name": "predictions", "class_name": "Dense", "config": {"name": "predictions", "trainable": true, "dtype": "float32", "units": 1, "activation": "sigmoid", "use_bias": true, "kernel_initializer": {"class_name": "VarianceScaling", "config": {"scale": 1.0, "mode": "fan_avg", "distribution": "uniform", "seed": null}}, "bias_initializer": {"class_name": "Zeros", "config": {}}, "kernel_regularizer": null, "bias_regularizer": null, "activity_regularizer": null, "kernel_constraint": null, "bias_constraint": null}, "inbound_nodes": [[["dropout_6", 0, 0, {}]]]}], "input_layers": [["REACTOME_GLYCOGEN_BREAKDOWN_GLYCOGENOLYSIS", 0, 0], ["REACTOME_TRANSLATION", 0, 0], ["REACTOME_PYRIMIDINE_CATABOLISM", 0, 0], ["REACTOME_RNA_POL_III_TRANSCRIPTION_INITIATION_FROM_TYPE_2_PROMOTER", 0, 0], ["REACTOME_INHIBITION_OF_THE_PROTEOLYTIC_ACTIVITY_OF_APC_C_REQUIRED_FOR_THE_ONSET_OF_ANAPHASE_BY_MITOTIC_SPINDLE_CHECKPOINT_COMPONENTS", 0, 0], ["REACTOME_PYRUVATE_METABOLISM_AND_CITRIC_ACID_TCA_CYCLE", 0, 0], ["REACTOME_EXTRINSIC_PATHWAY_FOR_APOPTOSIS", 0, 0], ["REACTOME_PTM_GAMMA_CARBOXYLATION_HYPUSINE_FORMATION_AND_ARYLSULFATASE_ACTIVATION", 0, 0], ["REACTOME_APOPTOTIC_CLEAVAGE_OF_CELLULAR_PROTEINS", 0, 0], ["REACTOME_RNA_POL_I_TRANSCRIPTION_TERMINATION", 0, 0], ["REACTOME_FORMATION_OF_THE_TERNARY_COMPLEX_AND_SUBSEQUENTLY_THE_43S_COMPLEX", 0, 0], ["REACTOME_ACTIVATION_OF_THE_PRE_REPLICATIVE_COMPLEX", 0, 0], ["REACTOME_PROCESSING_OF_INTRONLESS_PRE_MRNAS", 0, 0], ["REACTOME_GAP_JUNCTION_DEGRADATION", 0, 0], ["REACTOME_BASE_EXCISION_REPAIR", 0, 0], ["REACTOME_BILE_ACID_AND_BILE_SALT_METABOLISM", 0, 0], ["REACTOME_SYNTHESIS_OF_BILE_ACIDS_AND_BILE_SALTS_VIA_7ALPHA_HYDROXYCHOLESTEROL", 0, 0], ["REACTOME_RECYCLING_OF_BILE_ACIDS_AND_SALTS", 0, 0], ["REACTOME_SIGNALING_BY_RHO_GTPASES", 0, 0], ["REACTOME_SIGNALING_BY_WNT", 0, 0], ["REACTOME_METABOLISM_OF_NON_CODING_RNA", 0, 0], ["REACTOME_SYNTHESIS_OF_BILE_ACIDS_AND_BILE_SALTS_VIA_24_HYDROXYCHOLESTEROL", 0, 0], ["REACTOME_SYNTHESIS_OF_BILE_ACIDS_AND_BILE_SALTS", 0, 0], ["REACTOME_METABOLISM_OF_STEROID_HORMONES_AND_VITAMINS_A_AND_D", 0, 0], ["REACTOME_ANDROGEN_BIOSYNTHESIS", 0, 0], ["REACTOME_SIGNALLING_BY_NGF", 0, 0], ["REACTOME_CTNNB1_PHOSPHORYLATION_CASCADE", 0, 0], ["REACTOME_INSULIN_RECEPTOR_RECYCLING", 0, 0], ["REACTOME_COPI_MEDIATED_TRANSPORT", 0, 0], ["REACTOME_NEF_MEDIATED_DOWNREGULATION_OF_MHC_CLASS_I_COMPLEX_CELL_SURFACE_EXPRESSION", 0, 0], ["REACTOME_SIGNALING_BY_SCF_KIT", 0, 0], ["REACTOME_DEVELOPMENTAL_BIOLOGY", 0, 0], ["REACTOME_CROSS_PRESENTATION_OF_SOLUBLE_EXOGENOUS_ANTIGENS_ENDOSOMES", 0, 0], ["REACTOME_SIGNALING_BY_NODAL", 0, 0], ["REACTOME_DAG_AND_IP3_SIGNALING", 0, 0], ["REACTOME_SPRY_REGULATION_OF_FGF_SIGNALING", 0, 0], ["REACTOME_TCA_CYCLE_AND_RESPIRATORY_ELECTRON_TRANSPORT", 0, 0], ["REACTOME_BMAL1_CLOCK_NPAS2_ACTIVATES_CIRCADIAN_EXPRESSION", 0, 0], ["REACTOME_ANTIGEN_PROCESSING_CROSS_PRESENTATION", 0, 0], ["REACTOME_GROWTH_HORMONE_RECEPTOR_SIGNALING", 0, 0], ["REACTOME_TRIF_MEDIATED_TLR3_SIGNALING", 0, 0], ["REACTOME_CELL_CELL_COMMUNICATION", 0, 0], ["REACTOME_ABCA_TRANSPORTERS_IN_LIPID_HOMEOSTASIS", 0, 0], ["REACTOME_ENDOSOMAL_VACUOLAR_PATHWAY", 0, 0], ["REACTOME_TETRAHYDROBIOPTERIN_BH4_SYNTHESIS_RECYCLING_SALVAGE_AND_REGULATION", 0, 0], ["REACTOME_ER_PHAGOSOME_PATHWAY", 0, 0], ["REACTOME_MEIOSIS", 0, 0], ["REACTOME_NEGATIVE_REGULATION_OF_FGFR_SIGNALING", 0, 0], ["REACTOME_G0_AND_EARLY_G1", 0, 0], ["REACTOME_REGULATION_OF_KIT_SIGNALING", 0, 0], ["REACTOME_MEMBRANE_TRAFFICKING", 0, 0], ["REACTOME_NEF_MEDIATES_DOWN_MODULATION_OF_CELL_SURFACE_RECEPTORS_BY_RECRUITING_THEM_TO_CLATHRIN_ADAPTERS", 0, 0], ["REACTOME_IMMUNOREGULATORY_INTERACTIONS_BETWEEN_A_LYMPHOID_AND_A_NON_LYMPHOID_CELL", 0, 0], ["REACTOME_ACTIVATED_AMPK_STIMULATES_FATTY_ACID_OXIDATION_IN_MUSCLE", 0, 0], ["REACTOME_VITAMIN_B5_PANTOTHENATE_METABOLISM", 0, 0], ["REACTOME_BOTULINUM_NEUROTOXICITY", 0, 0], ["REACTOME_METABOLISM_OF_VITAMINS_AND_COFACTORS", 0, 0], ["REACTOME_TRANS_GOLGI_NETWORK_VESICLE_BUDDING", 0, 0], ["REACTOME_PROTEOLYTIC_CLEAVAGE_OF_SNARE_COMPLEX_PROTEINS", 0, 0], ["REACTOME_RESOLUTION_OF_AP_SITES_VIA_THE_MULTIPLE_NUCLEOTIDE_PATCH_REPLACEMENT_PATHWAY", 0, 0], ["REACTOME_GAMMA_CARBOXYLATION_TRANSPORT_AND_AMINO_TERMINAL_CLEAVAGE_OF_PROTEINS", 0, 0], ["REACTOME_IL_7_SIGNALING", 0, 0], ["REACTOME_CELL_CYCLE", 0, 0], ["REACTOME_SIGNALING_BY_ERBB4", 0, 0], ["REACTOME_ORC1_REMOVAL_FROM_CHROMATIN", 0, 0], ["REACTOME_O_LINKED_GLYCOSYLATION_OF_MUCINS", 0, 0], ["REACTOME_SULFUR_AMINO_ACID_METABOLISM", 0, 0], ["REACTOME_DOWNREGULATION_OF_ERBB2_ERBB3_SIGNALING", 0, 0], ["REACTOME_ANTIVIRAL_MECHANISM_BY_IFN_STIMULATED_GENES", 0, 0], ["REACTOME_PROLACTIN_RECEPTOR_SIGNALING", 0, 0], ["REACTOME_SIGNALING_BY_ERBB2", 0, 0], ["REACTOME_SPHINGOLIPID_DE_NOVO_BIOSYNTHESIS", 0, 0], ["REACTOME_TERMINATION_OF_O_GLYCAN_BIOSYNTHESIS", 0, 0], ["REACTOME_DEFENSINS", 0, 0], ["REACTOME_SIGNALING_BY_CONSTITUTIVELY_ACTIVE_EGFR", 0, 0], ["REACTOME_GRB2_EVENTS_IN_ERBB2_SIGNALING", 0, 0], ["REACTOME_SIGNALING_BY_EGFR_IN_CANCER", 0, 0], ["REACTOME_MEMBRANE_BINDING_AND_TARGETTING_OF_GAG_PROTEINS", 0, 0], ["REACTOME_BETA_DEFENSINS", 0, 0], ["REACTOME_SRP_DEPENDENT_COTRANSLATIONAL_PROTEIN_TARGETING_TO_MEMBRANE", 0, 0], ["REACTOME_PI3K_EVENTS_IN_ERBB4_SIGNALING", 0, 0], ["REACTOME_SHC1_EVENTS_IN_ERBB4_SIGNALING", 0, 0], ["REACTOME_PI3K_EVENTS_IN_ERBB2_SIGNALING", 0, 0], ["REACTOME_NUCLEAR_SIGNALING_BY_ERBB4", 0, 0], ["REACTOME_GLYCOSPHINGOLIPID_METABOLISM", 0, 0], ["REACTOME_PPARA_ACTIVATES_GENE_EXPRESSION", 0, 0], ["REACTOME_ASSOCIATION_OF_LICENSING_FACTORS_WITH_THE_PRE_REPLICATIVE_COMPLEX", 0, 0], ["REACTOME_RIP_MEDIATED_NFKB_ACTIVATION_VIA_DAI", 0, 0], ["REACTOME_PRE_NOTCH_TRANSCRIPTION_AND_TRANSLATION", 0, 0], ["REACTOME_DEGRADATION_OF_THE_EXTRACELLULAR_MATRIX", 0, 0], ["REACTOME_MITOCHONDRIAL_PROTEIN_IMPORT", 0, 0], ["REACTOME_SIGNALING_BY_HIPPO", 0, 0], ["REACTOME_ACTIVATED_NOTCH1_TRANSMITS_SIGNAL_TO_THE_NUCLEUS", 0, 0], ["REACTOME_TRAFFICKING_AND_PROCESSING_OF_ENDOSOMAL_TLR", 0, 0], ["REACTOME_SIGNALING_BY_NOTCH4", 0, 0], ["REACTOME_DOWNSTREAM_SIGNALING_EVENTS_OF_B_CELL_RECEPTOR_BCR", 0, 0], ["REACTOME_ACTIVATION_OF_NF_KAPPAB_IN_B_CELLS", 0, 0], ["REACTOME_RORA_ACTIVATES_CIRCADIAN_EXPRESSION", 0, 0], ["REACTOME_ANTIGEN_ACTIVATES_B_CELL_RECEPTOR_LEADING_TO_GENERATION_OF_SECOND_MESSENGERS", 0, 0], ["REACTOME_REGULATION_OF_COMPLEMENT_CASCADE", 0, 0], ["REACTOME_YAP1_AND_WWTR1_TAZ_STIMULATED_GENE_EXPRESSION", 0, 0], ["REACTOME_SIGNALING_BY_NOTCH2", 0, 0], ["REACTOME_PRE_NOTCH_EXPRESSION_AND_PROCESSING", 0, 0], ["REACTOME_SIGNALING_BY_THE_B_CELL_RECEPTOR_BCR", 0, 0], ["REACTOME_EXTRACELLULAR_MATRIX_ORGANIZATION", 0, 0], ["REACTOME_NOTCH1_INTRACELLULAR_DOMAIN_REGULATES_TRANSCRIPTION", 0, 0], ["REACTOME_CIRCADIAN_REPRESSION_OF_EXPRESSION_BY_REV_ERBA", 0, 0], ["REACTOME_PRE_NOTCH_PROCESSING_IN_GOLGI", 0, 0], ["REACTOME_SIGNALING_BY_NOTCH1", 0, 0], ["REACTOME_SIGNALING_BY_NOTCH3", 0, 0], ["REACTOME_TRIGLYCERIDE_BIOSYNTHESIS", 0, 0], ["REACTOME_INSULIN_RECEPTOR_SIGNALLING_CASCADE", 0, 0], ["REACTOME_ARMS_MEDIATED_ACTIVATION", 0, 0], ["REACTOME_PROLONGED_ERK_ACTIVATION_EVENTS", 0, 0], ["REACTOME_SIGNALLING_TO_RAS", 0, 0], ["REACTOME_SIGNALING_BY_BMP", 0, 0], ["REACTOME_CELL_SURFACE_INTERACTIONS_AT_THE_VASCULAR_WALL", 0, 0], ["REACTOME_NGF_SIGNALLING_VIA_TRKA_FROM_THE_PLASMA_MEMBRANE", 0, 0], ["REACTOME_SIGNALLING_TO_ERKS", 0, 0], ["REACTOME_P38MAPK_EVENTS", 0, 0], ["REACTOME_ACYL_CHAIN_REMODELLING_OF_PI", 0, 0], ["REACTOME_TGF_BETA_RECEPTOR_SIGNALING_IN_EMT_EPITHELIAL_TO_MESENCHYMAL_TRANSITION", 0, 0], ["REACTOME_DOWNREGULATION_OF_TGF_BETA_RECEPTOR_SIGNALING", 0, 0], ["REACTOME_COLLAGEN_FORMATION", 0, 0], ["REACTOME_SMAD2_SMAD3_SMAD4_HETEROTRIMER_REGULATES_TRANSCRIPTION", 0, 0], ["REACTOME_SIGNALING_BY_FGFR_IN_DISEASE", 0, 0], ["REACTOME_HS_GAG_DEGRADATION", 0, 0], ["REACTOME_SYNTHESIS_OF_PIPS_AT_THE_EARLY_ENDOSOME_MEMBRANE", 0, 0], ["REACTOME_SIGNALLING_TO_P38_VIA_RIT_AND_RIN", 0, 0], ["REACTOME_P53_INDEPENDENT_G1_S_DNA_DAMAGE_CHECKPOINT", 0, 0], ["REACTOME_REGULATION_OF_HYPOXIA_INDUCIBLE_FACTOR_HIF_BY_OXYGEN", 0, 0], ["REACTOME_ACYL_CHAIN_REMODELLING_OF_PC", 0, 0], ["REACTOME_SYNTHESIS_OF_PIPS_AT_THE_GOLGI_MEMBRANE", 0, 0], ["REACTOME_TGF_BETA_RECEPTOR_SIGNALING_ACTIVATES_SMADS", 0, 0], ["REACTOME_ACTIVATED_POINT_MUTANTS_OF_FGFR2", 0, 0], ["REACTOME_PHOSPHOLIPID_METABOLISM", 0, 0], ["REACTOME_CS_DS_DEGRADATION", 0, 0], ["REACTOME_SYNTHESIS_OF_PA", 0, 0], ["REACTOME_OXYGEN_DEPENDENT_PROLINE_HYDROXYLATION_OF_HYPOXIA_INDUCIBLE_FACTOR_ALPHA", 0, 0], ["REACTOME_SYNTHESIS_OF_PIPS_AT_THE_LATE_ENDOSOME_MEMBRANE", 0, 0], ["REACTOME_SYNTHESIS_OF_PE", 0, 0], ["REACTOME_GASTRIN_CREB_SIGNALLING_PATHWAY_VIA_PKC_AND_MAPK", 0, 0], ["REACTOME_CHONDROITIN_SULFATE_BIOSYNTHESIS", 0, 0], ["REACTOME_HYALURONAN_UPTAKE_AND_DEGRADATION", 0, 0], ["REACTOME_SIGNALING_BY_FGFR1_MUTANTS", 0, 0], ["REACTOME_SYNTHESIS_OF_PIPS_AT_THE_PLASMA_MEMBRANE", 0, 0], ["REACTOME_THE_ACTIVATION_OF_ARYLSULFATASES", 0, 0], ["REACTOME_TRANSCRIPTIONAL_ACTIVITY_OF_SMAD2_SMAD3_SMAD4_HETEROTRIMER", 0, 0], ["REACTOME_HYALURONAN_METABOLISM", 0, 0], ["REACTOME_DOWNREGULATION_OF_SMAD2_3_SMAD4_TRANSCRIPTIONAL_ACTIVITY", 0, 0], ["REACTOME_KERATAN_SULFATE_BIOSYNTHESIS", 0, 0], ["REACTOME_REVERSIBLE_HYDRATION_OF_CARBON_DIOXIDE", 0, 0], ["REACTOME_SIGNALING_BY_FGFR1_FUSION_MUTANTS", 0, 0], ["REACTOME_ALPHA_LINOLENIC_ACID_ALA_METABOLISM", 0, 0], ["REACTOME_SIGNALING_BY_ACTIVATED_POINT_MUTANTS_OF_FGFR1", 0, 0], ["REACTOME_PI_METABOLISM", 0, 0], ["REACTOME_ABACAVIR_TRANSPORT_AND_METABOLISM", 0, 0], ["REACTOME_CHONDROITIN_SULFATE_DERMATAN_SULFATE_METABOLISM", 0, 0], ["REACTOME_LATENT_INFECTION_OF_HOMO_SAPIENS_WITH_MYCOBACTERIUM_TUBERCULOSIS", 0, 0], ["REACTOME_SYNTHESIS_OF_PC", 0, 0], ["REACTOME_HS_GAG_BIOSYNTHESIS", 0, 0], ["REACTOME_SIGNALING_BY_FGFR3_MUTANTS", 0, 0], ["REACTOME_KERATAN_SULFATE_KERATIN_METABOLISM", 0, 0], ["REACTOME_APOPTOSIS_INDUCED_DNA_FRAGMENTATION", 0, 0], ["REACTOME_KERATAN_SULFATE_DEGRADATION", 0, 0], ["REACTOME_HEPARAN_SULFATE_HEPARIN_HS_GAG_METABOLISM", 0, 0], ["REACTOME_GLYCOSAMINOGLYCAN_METABOLISM", 0, 0], ["REACTOME_ACYL_CHAIN_REMODELLING_OF_PG", 0, 0], ["REACTOME_ACYL_CHAIN_REMODELLING_OF_PE", 0, 0], ["REACTOME_ACYL_CHAIN_REMODELLING_OF_PS", 0, 0], ["REACTOME_SIGNALING_BY_FGFR_MUTANTS", 0, 0], ["REACTOME_MHC_CLASS_II_ANTIGEN_PRESENTATION", 0, 0], ["REACTOME_GLYCEROPHOSPHOLIPID_BIOSYNTHESIS", 0, 0], ["REACTOME_A_TETRASACCHARIDE_LINKER_SEQUENCE_IS_REQUIRED_FOR_GAG_SYNTHESIS", 0, 0], ["REACTOME_CDK_MEDIATED_PHOSPHORYLATION_AND_REMOVAL_OF_CDC6", 0, 0], ["REACTOME_PLATELET_ADHESION_TO_EXPOSED_COLLAGEN", 0, 0], ["REACTOME_VEGF_LIGAND_RECEPTOR_INTERACTIONS", 0, 0], ["REACTOME_ENOS_ACTIVATION_AND_REGULATION", 0, 0], ["REACTOME_MICRORNA_MIRNA_BIOGENESIS", 0, 0], ["REACTOME_NUCLEAR_EVENTS_KINASE_AND_TRANSCRIPTION_FACTOR_ACTIVATION", 0, 0], ["REACTOME_RETROGRADE_NEUROTROPHIN_SIGNALLING", 0, 0], ["REACTOME_ERKS_ARE_INACTIVATED", 0, 0], ["REACTOME_NEGATIVE_REGULATION_OF_THE_PI3K_AKT_NETWORK", 0, 0], ["REACTOME_PI3K_AKT_ACTIVATION", 0, 0], ["REACTOME_REGULATORY_RNA_PATHWAYS", 0, 0], ["REACTOME_EGFR_DOWNREGULATION", 0, 0], ["REACTOME_PROCESSING_OF_CAPPED_INTRON_CONTAINING_PRE_MRNA", 0, 0], ["REACTOME_PECAM1_INTERACTIONS", 0, 0], ["REACTOME_TCR_SIGNALING", 0, 0], ["REACTOME_REGULATION_OF_PYRUVATE_DEHYDROGENASE_PDH_COMPLEX", 0, 0], ["REACTOME_DOWNSTREAM_TCR_SIGNALING", 0, 0], ["REACTOME_BASIGIN_INTERACTIONS", 0, 0], ["REACTOME_AKT_PHOSPHORYLATES_TARGETS_IN_THE_CYTOSOL", 0, 0], ["REACTOME_GAB1_SIGNALOSOME", 0, 0], ["REACTOME_SHC1_EVENTS_IN_EGFR_SIGNALING", 0, 0], ["REACTOME_ACTIVATION_OF_THE_MRNA_UPON_BINDING_OF_THE_CAP_BINDING_COMPLEX_AND_EIFS_AND_SUBSEQUENT_BINDING_TO_43S", 0, 0], ["REACTOME_PHOSPHORYLATION_OF_CD3_AND_TCR_ZETA_CHAINS", 0, 0], ["REACTOME_GLUTAMATE_NEUROTRANSMITTER_RELEASE_CYCLE", 0, 0], ["REACTOME_TRANSLOCATION_OF_ZAP_70_TO_IMMUNOLOGICAL_SYNAPSE", 0, 0], ["REACTOME_ERK_MAPK_TARGETS", 0, 0], ["REACTOME_TIE2_SIGNALING", 0, 0], ["REACTOME_GENERATION_OF_SECOND_MESSENGER_MOLECULES", 0, 0], ["REACTOME_GENERIC_TRANSCRIPTION_PATHWAY", 0, 0], ["REACTOME_RESPONSE_TO_ELEVATED_PLATELET_CYTOSOLIC_CA2_", 0, 0], ["REACTOME_TRANSPORT_OF_MATURE_TRANSCRIPT_TO_CYTOPLASM", 0, 0], ["REACTOME_METABOLISM_OF_AMINO_ACIDS_AND_DERIVATIVES", 0, 0], ["REACTOME_RNA_POL_I_TRANSCRIPTION", 0, 0], ["REACTOME_FATTY_ACYL_COA_BIOSYNTHESIS", 0, 0], ["REACTOME_E2F_ENABLED_INHIBITION_OF_PRE_REPLICATION_COMPLEX_FORMATION", 0, 0], ["REACTOME_P75NTR_RECRUITS_SIGNALLING_COMPLEXES", 0, 0], ["REACTOME_BIOLOGICAL_OXIDATIONS", 0, 0], ["REACTOME_REGULATED_PROTEOLYSIS_OF_P75NTR", 0, 0], ["REACTOME_TRANSMISSION_ACROSS_CHEMICAL_SYNAPSES", 0, 0], ["REACTOME_P75NTR_SIGNALS_VIA_NFKB", 0, 0], ["REACTOME_CASPASE_MEDIATED_CLEAVAGE_OF_CYTOSKELETAL_PROTEINS", 0, 0], ["REACTOME_XENOBIOTICS", 0, 0], ["REACTOME_INTEGRIN_CELL_SURFACE_INTERACTIONS", 0, 0], ["REACTOME_REGULATION_OF_ORNITHINE_DECARBOXYLASE_ODC", 0, 0], ["REACTOME_CYTOCHROME_P450_ARRANGED_BY_SUBSTRATE_TYPE", 0, 0], ["REACTOME_BASE_FREE_SUGAR_PHOSPHATE_REMOVAL_VIA_THE_SINGLE_NUCLEOTIDE_REPLACEMENT_PATHWAY", 0, 0], ["REACTOME_APOPTOTIC_CLEAVAGE_OF_CELL_ADHESION_PROTEINS", 0, 0], ["REACTOME_HDL_MEDIATED_LIPID_TRANSPORT", 0, 0], ["REACTOME_NRAGE_SIGNALS_DEATH_THROUGH_JNK", 0, 0], ["REACTOME_SLBP_DEPENDENT_PROCESSING_OF_REPLICATION_DEPENDENT_HISTONE_PRE_MRNAS", 0, 0], ["REACTOME_NRIF_SIGNALS_CELL_DEATH_FROM_THE_NUCLEUS", 0, 0], ["REACTOME_REGULATION_OF_APOPTOSIS", 0, 0], ["REACTOME_RNA_POL_II_TRANSCRIPTION", 0, 0], ["REACTOME_NEURONAL_SYSTEM", 0, 0], ["REACTOME_NFKB_IS_ACTIVATED_AND_SIGNALS_SURVIVAL", 0, 0], ["REACTOME_REGULATION_OF_BETA_CELL_DEVELOPMENT", 0, 0], ["REACTOME_PHASE1_FUNCTIONALIZATION_OF_COMPOUNDS", 0, 0], ["REACTOME_RNA_POL_III_TRANSCRIPTION", 0, 0], ["REACTOME_CELL_DEATH_SIGNALLING_VIA_NRAGE_NRIF_AND_NADE", 0, 0], ["REACTOME_NEUROTRANSMITTER_RELEASE_CYCLE", 0, 0], ["REACTOME_P75_NTR_RECEPTOR_MEDIATED_SIGNALLING", 0, 0], ["REACTOME_AMINO_ACID_TRANSPORT_ACROSS_THE_PLASMA_MEMBRANE", 0, 0], ["REACTOME_ENDOGENOUS_STEROLS", 0, 0], ["REACTOME_REGULATION_OF_GENE_EXPRESSION_IN_BETA_CELLS", 0, 0], ["REACTOME_GLYCOLYSIS", 0, 0], ["REACTOME_PROCESSIVE_SYNTHESIS_ON_THE_LAGGING_STRAND", 0, 0], ["REACTOME_PEPTIDE_CHAIN_ELONGATION", 0, 0], ["REACTOME_COMMON_PATHWAY", 0, 0], ["REACTOME_MRNA_CAPPING", 0, 0], ["REACTOME_MITOCHONDRIAL_FATTY_ACID_BETA_OXIDATION", 0, 0], ["REACTOME_SIGNALING_BY_GPCR", 0, 0], ["REACTOME_PEPTIDE_LIGAND_BINDING_RECEPTORS", 0, 0], ["REACTOME_METABOLISM_OF_POLYAMINES", 0, 0], ["REACTOME_CLASS_A1_RHODOPSIN_LIKE_RECEPTORS", 0, 0], ["REACTOME_NOTCH_HLH_TRANSCRIPTION_PATHWAY", 0, 0], ["REACTOME_INTEGRATION_OF_ENERGY_METABOLISM", 0, 0], ["REACTOME_CELL_CYCLE_MITOTIC", 0, 0], ["REACTOME_GLUCONEOGENESIS", 0, 0], ["REACTOME_DOPAMINE_NEUROTRANSMITTER_RELEASE_CYCLE", 0, 0], ["REACTOME_OPIOID_SIGNALLING", 0, 0], ["REACTOME_RECRUITMENT_OF_MITOTIC_CENTROSOME_PROTEINS_AND_COMPLEXES", 0, 0], ["REACTOME_MITOCHONDRIAL_TRNA_AMINOACYLATION", 0, 0], ["REACTOME_CYTOSOLIC_TRNA_AMINOACYLATION", 0, 0], ["REACTOME_CA_DEPENDENT_EVENTS", 0, 0], ["REACTOME_ACETYLCHOLINE_NEUROTRANSMITTER_RELEASE_CYCLE", 0, 0], ["REACTOME_ADENYLATE_CYCLASE_ACTIVATING_PATHWAY", 0, 0], ["REACTOME_ADENYLATE_CYCLASE_INHIBITORY_PATHWAY", 0, 0], ["REACTOME_DARPP_32_EVENTS", 0, 0], ["REACTOME_CHEMOKINE_RECEPTORS_BIND_CHEMOKINES", 0, 0], ["REACTOME_LOSS_OF_NLP_FROM_MITOTIC_CENTROSOMES", 0, 0], ["REACTOME_NEUROTRANSMITTER_RECEPTOR_BINDING_AND_DOWNSTREAM_TRANSMISSION_IN_THE_POSTSYNAPTIC_CELL", 0, 0], ["REACTOME_CELL_CYCLE_CHECKPOINTS", 0, 0], ["REACTOME_DIABETES_PATHWAYS", 0, 0], ["REACTOME_P130CAS_LINKAGE_TO_MAPK_SIGNALING_FOR_INTEGRINS", 0, 0], ["REACTOME_GLYCOPROTEIN_HORMONES", 0, 0], ["REACTOME_NOREPINEPHRINE_NEUROTRANSMITTER_RELEASE_CYCLE", 0, 0], ["REACTOME_PLC_BETA_MEDIATED_EVENTS", 0, 0], ["REACTOME_REGULATION_OF_INSULIN_LIKE_GROWTH_FACTOR_IGF_ACTIVITY_BY_INSULIN_LIKE_GROWTH_FACTOR_BINDING_PROTEINS_IGFBPS", 0, 0], ["REACTOME_GRB2_SOS_PROVIDES_LINKAGE_TO_MAPK_SIGNALING_FOR_INTERGRINS_", 0, 0], ["REACTOME_PEPTIDE_HORMONE_BIOSYNTHESIS", 0, 0], ["REACTOME_G_PROTEIN_ACTIVATION", 0, 0], ["REACTOME_ACETYLCHOLINE_BINDING_AND_DOWNSTREAM_EVENTS", 0, 0], ["REACTOME_ABC_FAMILY_PROTEINS_MEDIATED_TRANSPORT", 0, 0], ["REACTOME_TRNA_AMINOACYLATION", 0, 0], ["REACTOME_OLFACTORY_SIGNALING_PATHWAY", 0, 0], ["REACTOME_STEROID_HORMONES", 0, 0], ["REACTOME_PKA_MEDIATED_PHOSPHORYLATION_OF_CREB", 0, 0], ["REACTOME_RECRUITMENT_OF_NUMA_TO_MITOTIC_CENTROSOMES", 0, 0], ["REACTOME_AMINE_DERIVED_HORMONES", 0, 0], ["REACTOME_TRANSMEMBRANE_TRANSPORT_OF_SMALL_MOLECULES", 0, 0], ["REACTOME_INTEGRIN_ALPHAIIB_BETA3_SIGNALING", 0, 0], ["REACTOME_NUCLEAR_RECEPTOR_TRANSCRIPTION_PATHWAY", 0, 0], ["REACTOME_INSULIN_SYNTHESIS_AND_PROCESSING", 0, 0], ["REACTOME_CYCLIN_E_ASSOCIATED_EVENTS_DURING_G1_S_TRANSITION_", 0, 0], ["REACTOME_HOMOLOGOUS_RECOMBINATION_REPAIR_OF_REPLICATION_INDEPENDENT_DOUBLE_STRAND_BREAKS", 0, 0], ["REACTOME_G1_PHASE", 0, 0], ["REACTOME_ELEVATION_OF_CYTOSOLIC_CA2_LEVELS", 0, 0], ["REACTOME_P53_DEPENDENT_G1_DNA_DAMAGE_RESPONSE", 0, 0], ["REACTOME_TRANSCRIPTION_COUPLED_NER_TC_NER", 0, 0], ["REACTOME_RNA_POL_II_TRANSCRIPTION_PRE_INITIATION_AND_PROMOTER_OPENING", 0, 0], ["REACTOME_GLUCAGON_SIGNALING_IN_METABOLIC_REGULATION", 0, 0], ["REACTOME_MRNA_PROCESSING", 0, 0], ["REACTOME_SIGNALING_BY_PDGF", 0, 0], ["REACTOME_ASSOCIATION_OF_TRIC_CCT_WITH_TARGET_PROTEINS_DURING_BIOSYNTHESIS", 0, 0], ["REACTOME_PREFOLDIN_MEDIATED_TRANSFER_OF_SUBSTRATE_TO_CCT_TRIC", 0, 0], ["REACTOME_HORMONE_LIGAND_BINDING_RECEPTORS", 0, 0], ["REACTOME_GPVI_MEDIATED_ACTIVATION_CASCADE", 0, 0], ["REACTOME_PROTEIN_FOLDING", 0, 0], ["REACTOME_FORMATION_OF_TUBULIN_FOLDING_INTERMEDIATES_BY_CCT_TRIC", 0, 0], ["REACTOME_PEROXISOMAL_LIPID_METABOLISM", 0, 0], ["REACTOME_POST_CHAPERONIN_TUBULIN_FOLDING_PATHWAY", 0, 0], ["REACTOME_STRIATED_MUSCLE_CONTRACTION", 0, 0], ["REACTOME_METABOLISM_OF_NUCLEOTIDES", 0, 0], ["REACTOME_AMINE_LIGAND_BINDING_RECEPTORS", 0, 0], ["REACTOME_METABOLISM_OF_PROTEINS", 0, 0], ["REACTOME_DOWNSTREAM_SIGNAL_TRANSDUCTION", 0, 0], ["REACTOME_MUSCLE_CONTRACTION", 0, 0], ["REACTOME_SEROTONIN_RECEPTORS", 0, 0], ["REACTOME_CDC6_ASSOCIATION_WITH_THE_ORC_ORIGIN_COMPLEX", 0, 0], ["REACTOME_M_G1_TRANSITION", 0, 0], ["REACTOME_MRNA_SPLICING", 0, 0], ["REACTOME_MRNA_SPLICING_MINOR_PATHWAY", 0, 0], ["REACTOME_3_UTR_MEDIATED_TRANSLATIONAL_REGULATION", 0, 0], ["REACTOME_PROCESSING_OF_CAPPED_INTRONLESS_PRE_MRNA", 0, 0], ["REACTOME_PURINE_RIBONUCLEOSIDE_MONOPHOSPHATE_BIOSYNTHESIS", 0, 0], ["REACTOME_G1_S_TRANSITION", 0, 0], ["REACTOME_CITRIC_ACID_CYCLE_TCA_CYCLE", 0, 0], ["REACTOME_TRANSCRIPTION", 0, 0], ["REACTOME_POL_SWITCHING", 0, 0], ["REACTOME_NUCLEOTIDE_EXCISION_REPAIR", 0, 0], ["REACTOME_REGULATION_OF_THE_FANCONI_ANEMIA_PATHWAY", 0, 0], ["REACTOME_AXON_GUIDANCE", 0, 0], ["REACTOME_ACTIVATION_OF_CHAPERONE_GENES_BY_XBP1S", 0, 0], ["REACTOME_REGULATION_OF_INSULIN_SECRETION_BY_GLUCAGON_LIKE_PEPTIDE1", 0, 0], ["REACTOME_PERK_REGULATED_GENE_EXPRESSION", 0, 0], ["REACTOME_G_ALPHA_Q_SIGNALLING_EVENTS", 0, 0], ["REACTOME_P2Y_RECEPTORS", 0, 0], ["REACTOME_TRAFFICKING_OF_AMPA_RECEPTORS", 0, 0], ["REACTOME_NCAM1_INTERACTIONS", 0, 0], ["REACTOME_CLASS_C_3_METABOTROPIC_GLUTAMATE_PHEROMONE_RECEPTORS", 0, 0], ["REACTOME_REGULATION_OF_INSULIN_SECRETION", 0, 0], ["REACTOME_NCAM_SIGNALING_FOR_NEURITE_OUT_GROWTH", 0, 0], ["REACTOME_INHIBITION_OF_INSULIN_SECRETION_BY_ADRENALINE_NORADRENALINE", 0, 0], ["REACTOME_NUCLEOTIDE_LIKE_PURINERGIC_RECEPTORS", 0, 0], ["REACTOME_ACTIVATION_OF_CHAPERONES_BY_ATF6_ALPHA", 0, 0], ["REACTOME_TRANSPORT_OF_MATURE_MRNA_DERIVED_FROM_AN_INTRONLESS_TRANSCRIPT", 0, 0], ["REACTOME_EICOSANOID_LIGAND_BINDING_RECEPTORS", 0, 0], ["REACTOME_ACTIVATION_OF_GENES_BY_ATF4", 0, 0], ["REACTOME_UNFOLDED_PROTEIN_RESPONSE", 0, 0], ["REACTOME_CLASS_B_2_SECRETIN_FAMILY_RECEPTORS", 0, 0], ["REACTOME_GLUCAGON_TYPE_LIGAND_RECEPTORS", 0, 0], ["REACTOME_REGULATION_OF_INSULIN_SECRETION_BY_ACETYLCHOLINE", 0, 0], ["REACTOME_G_ALPHA1213_SIGNALLING_EVENTS", 0, 0], ["REACTOME_FANCONI_ANEMIA_PATHWAY", 0, 0], ["REACTOME_TRAFFICKING_OF_GLUR2_CONTAINING_AMPA_RECEPTORS", 0, 0], ["REACTOME_ACTIVATION_OF_CHAPERONE_GENES_BY_ATF6_ALPHA", 0, 0], ["REACTOME_PROSTANOID_LIGAND_RECEPTORS", 0, 0], ["REACTOME_OPSINS", 0, 0], ["REACTOME_FORMATION_OF_RNA_POL_II_ELONGATION_COMPLEX_", 0, 0], ["REACTOME_MRNA_3_END_PROCESSING", 0, 0], ["REACTOME_POST_TRANSLATIONAL_MODIFICATION_SYNTHESIS_OF_GPI_ANCHORED_PROTEINS", 0, 0], ["REACTOME_CYCLIN_A_B1_ASSOCIATED_EVENTS_DURING_G2_M_TRANSITION", 0, 0], ["REACTOME_ELONGATION_ARREST_AND_RECOVERY", 0, 0], ["REACTOME_SLC_MEDIATED_TRANSMEMBRANE_TRANSPORT", 0, 0], ["REACTOME_ADP_SIGNALLING_THROUGH_P2RY1", 0, 0], ["REACTOME_G_BETA_GAMMA_SIGNALLING_THROUGH_PLC_BETA", 0, 0], ["REACTOME_CD28_CO_STIMULATION", 0, 0], ["REACTOME_GPCR_DOWNSTREAM_SIGNALING", 0, 0], ["REACTOME_SYNTHESIS_SECRETION_AND_DEACYLATION_OF_GHRELIN", 0, 0], ["REACTOME_ADHERENS_JUNCTIONS_INTERACTIONS", 0, 0], ["REACTOME_CRMPS_IN_SEMA3A_SIGNALING", 0, 0], ["REACTOME_OTHER_SEMAPHORIN_INTERACTIONS", 0, 0], ["REACTOME_ACTIVATION_OF_RAC", 0, 0], ["REACTOME_PURINE_SALVAGE", 0, 0], ["REACTOME_G_ALPHA_I_SIGNALLING_EVENTS", 0, 0], ["REACTOME_SEMA3A_PAK_DEPENDENT_AXON_REPULSION", 0, 0], ["REACTOME_CD28_DEPENDENT_VAV1_PATHWAY", 0, 0], ["REACTOME_SEMA4D_IN_SEMAPHORIN_SIGNALING", 0, 0], ["REACTOME_SEMAPHORIN_INTERACTIONS", 0, 0], ["REACTOME_SEMA4D_INDUCED_CELL_MIGRATION_AND_GROWTH_CONE_COLLAPSE", 0, 0], ["REACTOME_SEMA3A_PLEXIN_REPULSION_SIGNALING_BY_INHIBITING_INTEGRIN_ADHESION", 0, 0], ["REACTOME_LYSOSOME_VESICLE_BIOGENESIS", 0, 0], ["REACTOME_G_BETA_GAMMA_SIGNALLING_THROUGH_PI3KGAMMA", 0, 0], ["REACTOME_TRANSPORT_OF_GLUCOSE_AND_OTHER_SUGARS_BILE_SALTS_AND_ORGANIC_ACIDS_METAL_IONS_AND_AMINE_COMPOUNDS", 0, 0], ["REACTOME_SPHINGOLIPID_METABOLISM", 0, 0], ["REACTOME_PD1_SIGNALING", 0, 0], ["REACTOME_G_ALPHA_S_SIGNALLING_EVENTS", 0, 0], ["REACTOME_CELL_CELL_JUNCTION_ORGANIZATION", 0, 0], ["REACTOME_G_ALPHA_Z_SIGNALLING_EVENTS", 0, 0], ["REACTOME_FACILITATIVE_NA_INDEPENDENT_GLUCOSE_TRANSPORTERS", 0, 0], ["REACTOME_COSTIMULATION_BY_THE_CD28_FAMILY", 0, 0], ["REACTOME_SIGNALING_BY_ROBO_RECEPTOR", 0, 0], ["REACTOME_CD28_DEPENDENT_PI3K_AKT_SIGNALING", 0, 0], ["REACTOME_TIGHT_JUNCTION_INTERACTIONS", 0, 0], ["REACTOME_G_PROTEIN_BETA_GAMMA_SIGNALLING", 0, 0], ["REACTOME_TRANSPORT_OF_INORGANIC_CATIONS_ANIONS_AND_AMINO_ACIDS_OLIGOPEPTIDES", 0, 0], ["REACTOME_GOLGI_ASSOCIATED_VESICLE_BIOGENESIS", 0, 0], ["REACTOME_CTLA4_INHIBITORY_SIGNALING", 0, 0], ["REACTOME_FORMATION_OF_TRANSCRIPTION_COUPLED_NER_TC_NER_REPAIR_COMPLEX", 0, 0], ["REACTOME_AMINO_ACID_AND_OLIGOPEPTIDE_SLC_TRANSPORTERS", 0, 0], ["REACTOME_CDT1_ASSOCIATION_WITH_THE_CDC6_ORC_ORIGIN_COMPLEX", 0, 0], ["REACTOME_BRANCHED_CHAIN_AMINO_ACID_CATABOLISM", 0, 0], ["REACTOME_REPAIR_SYNTHESIS_FOR_GAP_FILLING_BY_DNA_POL_IN_TC_NER", 0, 0], ["REACTOME_RECEPTOR_LIGAND_BINDING_INITIATES_THE_SECOND_PROTEOLYTIC_CLEAVAGE_OF_NOTCH_RECEPTOR", 0, 0], ["REACTOME_SYNTHESIS_OF_DNA", 0, 0], ["REACTOME_NA_CL_DEPENDENT_NEUROTRANSMITTER_TRANSPORTERS", 0, 0], ["REACTOME_FORMATION_OF_FIBRIN_CLOT_CLOTTING_CASCADE", 0, 0], ["REACTOME_DEADENYLATION_OF_MRNA", 0, 0], ["REACTOME_MRNA_DECAY_BY_5_TO_3_EXORIBONUCLEASE", 0, 0], ["REACTOME_SIGNAL_AMPLIFICATION", 0, 0], ["REACTOME_ZINC_TRANSPORTERS", 0, 0], ["REACTOME_DOUBLE_STRAND_BREAK_REPAIR", 0, 0], ["REACTOME_RAS_ACTIVATION_UOPN_CA2_INFUX_THROUGH_NMDA_RECEPTOR", 0, 0], ["REACTOME_METAL_ION_SLC_TRANSPORTERS", 0, 0], ["REACTOME_AUTODEGRADATION_OF_THE_E3_UBIQUITIN_LIGASE_COP1", 0, 0], ["REACTOME_SMOOTH_MUSCLE_CONTRACTION", 0, 0], ["REACTOME_ACTIVATION_OF_NMDA_RECEPTOR_UPON_GLUTAMATE_BINDING_AND_POSTSYNAPTIC_EVENTS", 0, 0], ["REACTOME_CREB_PHOSPHORYLATION_THROUGH_THE_ACTIVATION_OF_RAS", 0, 0], ["REACTOME_POST_NMDA_RECEPTOR_ACTIVATION_EVENTS", 0, 0], ["REACTOME_UNBLOCKING_OF_NMDA_RECEPTOR_GLUTAMATE_BINDING_AND_ACTIVATION", 0, 0], ["REACTOME_METABOLISM_OF_MRNA", 0, 0], ["REACTOME_MRNA_DECAY_BY_3_TO_5_EXORIBONUCLEASE", 0, 0], ["REACTOME_BILE_SALT_AND_ORGANIC_ANION_SLC_TRANSPORTERS", 0, 0], ["REACTOME_DEADENYLATION_DEPENDENT_MRNA_DECAY", 0, 0], ["REACTOME_CREB_PHOSPHORYLATION_THROUGH_THE_ACTIVATION_OF_CAMKII", 0, 0], ["REACTOME_THROMBOXANE_SIGNALLING_THROUGH_TP_RECEPTOR", 0, 0], ["REACTOME_CELL_EXTRACELLULAR_MATRIX_INTERACTIONS", 0, 0], ["REACTOME_ADP_SIGNALLING_THROUGH_P2RY12", 0, 0], ["REACTOME_CELL_JUNCTION_ORGANIZATION", 0, 0], ["REACTOME_AMINE_COMPOUND_SLC_TRANSPORTERS", 0, 0], ["REACTOME_PYRUVATE_METABOLISM", 0, 0], ["REACTOME_PURINE_CATABOLISM", 0, 0], ["REACTOME_GLUCOSE_TRANSPORT", 0, 0], ["REACTOME_FRS2_MEDIATED_CASCADE", 0, 0], ["REACTOME_METABOLISM_OF_RNA", 0, 0], ["REACTOME_MITOTIC_G1_G1_S_PHASES", 0, 0], ["REACTOME_PI_3K_CASCADE", 0, 0], ["REACTOME_DOWNSTREAM_SIGNALING_OF_ACTIVATED_FGFR", 0, 0], ["REACTOME_REGULATION_OF_MITOTIC_CELL_CYCLE", 0, 0], ["REACTOME_TAK1_ACTIVATES_NFKB_BY_PHOSPHORYLATION_AND_ACTIVATION_OF_IKKS_COMPLEX", 0, 0], ["REACTOME_REGULATION_OF_AMPK_ACTIVITY_VIA_LKB1", 0, 0], ["REACTOME_MITOTIC_M_M_G1_PHASES", 0, 0], ["REACTOME_MYOGENESIS", 0, 0], ["REACTOME_MAP_KINASE_ACTIVATION_IN_TLR_CASCADE", 0, 0], ["REACTOME_PHOSPHOLIPASE_C_MEDIATED_CASCADE", 0, 0], ["REACTOME_ACTIVATION_OF_KAINATE_RECEPTORS_UPON_GLUTAMATE_BINDING", 0, 0], ["REACTOME_IONOTROPIC_ACTIVITY_OF_KAINATE_RECEPTORS", 0, 0], ["REACTOME_ACTIVATION_OF_THE_AP1_FAMILY_OF_TRANSCRIPTION_FACTORS", 0, 0], ["REACTOME_MAPK_TARGETS_NUCLEAR_EVENTS_MEDIATED_BY_MAP_KINASES", 0, 0], ["REACTOME_SYNTHESIS_AND_INTERCONVERSION_OF_NUCLEOTIDE_DI_AND_TRIPHOSPHATES", 0, 0], ["REACTOME_GPCR_LIGAND_BINDING", 0, 0], ["REACTOME_RNA_POL_I_RNA_POL_III_AND_MITOCHONDRIAL_TRANSCRIPTION", 0, 0], ["REACTOME_JNK_C_JUN_KINASES_PHOSPHORYLATION_AND_ACTIVATION_MEDIATED_BY_ACTIVATED_HUMAN_TAK1", 0, 0], ["REACTOME_SHC_MEDIATED_CASCADE", 0, 0], ["REACTOME_THROMBIN_SIGNALLING_THROUGH_PROTEINASE_ACTIVATED_RECEPTORS_PARS", 0, 0], ["REACTOME_ENERGY_DEPENDENT_REGULATION_OF_MTOR_BY_LKB1_AMPK", 0, 0], ["REACTOME_MITOTIC_G2_G2_M_PHASES", 0, 0], ["REACTOME_REGULATION_OF_RHEB_GTPASE_ACTIVITY_BY_AMPK", 0, 0], ["REACTOME_ACTIVATED_TAK1_MEDIATES_P38_MAPK_ACTIVATION", 0, 0], ["REACTOME_DNA_REPAIR", 0, 0], ["REACTOME_EFFECTS_OF_PIP2_HYDROLYSIS", 0, 0], ["REACTOME_RNA_POL_II_PRE_TRANSCRIPTION_EVENTS", 0, 0], ["REACTOME_ROLE_OF_DCC_IN_REGULATING_APOPTOSIS", 0, 0], ["REACTOME_POST_TRANSLATIONAL_PROTEIN_MODIFICATION", 0, 0], ["REACTOME_CHROMOSOME_MAINTENANCE", 0, 0], ["REACTOME_DEPOSITION_OF_NEW_CENPA_CONTAINING_NUCLEOSOMES_AT_THE_CENTROMERE", 0, 0], ["REACTOME_L1CAM_INTERACTIONS", 0, 0], ["REACTOME_ROLE_OF_SECOND_MESSENGERS_IN_NETRIN1_SIGNALING", 0, 0], ["REACTOME_SIGNALING_BY_ILS", 0, 0], ["REACTOME_NETRIN1_SIGNALING", 0, 0], ["REACTOME_METABOLISM_OF_LIPIDS_AND_LIPOPROTEINS", 0, 0], ["REACTOME_INTERACTION_BETWEEN_L1_AND_ANKYRINS", 0, 0], ["REACTOME_SIGNAL_TRANSDUCTION_BY_L1", 0, 0], ["REACTOME_FATTY_ACID_TRIACYLGLYCEROL_AND_KETONE_BODY_METABOLISM", 0, 0], ["REACTOME_TRANSPORT_OF_VITAMINS_NUCLEOSIDES_AND_RELATED_MOLECULES", 0, 0], ["REACTOME_HIGHLY_CALCIUM_PERMEABLE_POSTSYNAPTIC_NICOTINIC_ACETYLCHOLINE_RECEPTORS", 0, 0], ["REACTOME_RNA_POL_I_PROMOTER_OPENING", 0, 0], ["REACTOME_PRESYNAPTIC_NICOTINIC_ACETYLCHOLINE_RECEPTORS", 0, 0], ["REACTOME_ORGANIC_CATION_ANION_ZWITTERION_TRANSPORT", 0, 0], ["REACTOME_DCC_MEDIATED_ATTRACTIVE_SIGNALING", 0, 0], ["REACTOME_RECYCLING_PATHWAY_OF_L1", 0, 0], ["REACTOME_SYNTHESIS_OF_SUBSTRATES_IN_N_GLYCAN_BIOSYTHESIS", 0, 0], ["REACTOME_RESPIRATORY_ELECTRON_TRANSPORT", 0, 0], ["REACTOME_ASPARAGINE_N_LINKED_GLYCOSYLATION", 0, 0], ["REACTOME_ASSEMBLY_OF_THE_PRE_REPLICATIVE_COMPLEX", 0, 0], ["REACTOME_BIOSYNTHESIS_OF_THE_N_GLYCAN_PRECURSOR_DOLICHOL_LIPID_LINKED_OLIGOSACCHARIDE_LLO_AND_TRANSFER_TO_A_NASCENT_PROTEIN", 0, 0], ["REACTOME_IL1_SIGNALING", 0, 0], ["REACTOME_GLOBAL_GENOMIC_NER_GG_NER", 0, 0], ["REACTOME_CGMP_EFFECTS", 0, 0], ["REACTOME_REGULATION_OF_SIGNALING_BY_CBL", 0, 0], ["REACTOME_AMINO_ACID_SYNTHESIS_AND_INTERCONVERSION_TRANSAMINATION", 0, 0], ["REACTOME_CALNEXIN_CALRETICULIN_CYCLE", 0, 0], ["REACTOME_SYNTHESIS_SECRETION_AND_INACTIVATION_OF_GIP", 0, 0], ["REACTOME_PASSIVE_TRANSPORT_BY_AQUAPORINS", 0, 0], ["REACTOME_NEPHRIN_INTERACTIONS", 0, 0], ["REACTOME_IL_3_5_AND_GM_CSF_SIGNALING", 0, 0], ["REACTOME_NITRIC_OXIDE_STIMULATES_GUANYLATE_CYCLASE", 0, 0], ["REACTOME_PLATELET_HOMEOSTASIS", 0, 0], ["REACTOME_N_GLYCAN_TRIMMING_IN_THE_ER_AND_CALNEXIN_CALRETICULIN_CYCLE", 0, 0], ["REACTOME_PLATELET_SENSITIZATION_BY_LDL", 0, 0], ["REACTOME_AQUAPORIN_MEDIATED_TRANSPORT", 0, 0], ["REACTOME_IL_RECEPTOR_SHC_SIGNALING", 0, 0], ["REACTOME_RAP1_SIGNALLING", 0, 0], ["REACTOME_PLATELET_CALCIUM_HOMEOSTASIS", 0, 0], ["REACTOME_SIGNAL_REGULATORY_PROTEIN_SIRP_FAMILY_INTERACTIONS", 0, 0], ["REACTOME_PROSTACYCLIN_SIGNALLING_THROUGH_PROSTACYCLIN_RECEPTOR", 0, 0], ["REACTOME_GABA_SYNTHESIS_RELEASE_REUPTAKE_AND_DEGRADATION", 0, 0], ["REACTOME_INCRETIN_SYNTHESIS_SECRETION_AND_INACTIVATION", 0, 0], ["REACTOME_TRANSPORT_OF_ORGANIC_ANIONS", 0, 0], ["REACTOME_SYNTHESIS_SECRETION_AND_INACTIVATION_OF_GLP1", 0, 0], ["REACTOME_REGULATION_OF_WATER_BALANCE_BY_RENAL_AQUAPORINS", 0, 0], ["REACTOME_DESTABILIZATION_OF_MRNA_BY_BRF1", 0, 0], ["REACTOME_IRAK1_RECRUITS_IKK_COMPLEX", 0, 0], ["REACTOME_TRAF6_MEDIATED_IRF7_ACTIVATION", 0, 0], ["REACTOME_CIRCADIAN_CLOCK", 0, 0], ["REACTOME_TRAF6_MEDIATED_NFKB_ACTIVATION", 0, 0], ["REACTOME_FACTORS_INVOLVED_IN_MEGAKARYOCYTE_DEVELOPMENT_AND_PLATELET_PRODUCTION", 0, 0], ["REACTOME_REGULATION_OF_IFNG_SIGNALING", 0, 0], ["REACTOME_GABA_A_RECEPTOR_ACTIVATION", 0, 0], ["REACTOME_REGULATION_OF_MRNA_STABILITY_BY_PROTEINS_THAT_BIND_AU_RICH_ELEMENTS", 0, 0], ["REACTOME_INHIBITION_OF_VOLTAGE_GATED_CA2_CHANNELS_VIA_GBETA_GAMMA_SUBUNITS", 0, 0], ["REACTOME_IRAK2_MEDIATED_ACTIVATION_OF_TAK1_COMPLEX_UPON_TLR7_8_OR_9_STIMULATION", 0, 0], ["REACTOME_TRAF6_MEDIATED_INDUCTION_OF_NFKB_AND_MAP_KINASES_UPON_TLR7_8_OR_9_ACTIVATION", 0, 0], ["REACTOME_TRAF3_DEPENDENT_IRF_ACTIVATION_PATHWAY", 0, 0], ["REACTOME_GABA_B_RECEPTOR_ACTIVATION", 0, 0], ["REACTOME_NFKB_ACTIVATION_THROUGH_FADD_RIP1_PATHWAY_MEDIATED_BY_CASPASE_8_AND10", 0, 0], ["REACTOME_DESTABILIZATION_OF_MRNA_BY_KSRP", 0, 0], ["REACTOME_TRANSPORT_TO_THE_GOLGI_AND_SUBSEQUENT_MODIFICATION", 0, 0], ["REACTOME_IRON_UPTAKE_AND_TRANSPORT", 0, 0], ["REACTOME_DESTABILIZATION_OF_MRNA_BY_TRISTETRAPROLIN_TTP", 0, 0], ["REACTOME_INTERFERON_GAMMA_SIGNALING", 0, 0], ["REACTOME_N_GLYCAN_ANTENNAE_ELONGATION", 0, 0], ["REACTOME_TRAF6_MEDIATED_IRF7_ACTIVATION_IN_TLR7_8_OR_9_SIGNALING", 0, 0], ["REACTOME_ACTIVATION_OF_IRF3_IRF7_MEDIATED_BY_TBK1_IKK_EPSILON", 0, 0], ["REACTOME_ION_TRANSPORT_BY_P_TYPE_ATPASES", 0, 0], ["REACTOME_INTERFERON_ALPHA_BETA_SIGNALING", 0, 0], ["REACTOME_ADVANCED_GLYCOSYLATION_ENDPRODUCT_RECEPTOR_SIGNALING", 0, 0], ["REACTOME_GABA_RECEPTOR_ACTIVATION", 0, 0], ["REACTOME_KINESINS", 0, 0], ["REACTOME_N_GLYCAN_ANTENNAE_ELONGATION_IN_THE_MEDIAL_TRANS_GOLGI", 0, 0], ["REACTOME_REGULATION_OF_IFNA_SIGNALING", 0, 0], ["REACTOME_INTERFERON_SIGNALING", 0, 0], ["REACTOME_NEGATIVE_REGULATORS_OF_RIG_I_MDA5_SIGNALING", 0, 0], ["REACTOME_NFKB_AND_MAP_KINASES_ACTIVATION_MEDIATED_BY_TLR4_SIGNALING_REPERTOIRE", 0, 0], ["REACTOME_TRANSFERRIN_ENDOCYTOSIS_AND_RECYCLING", 0, 0], ["REACTOME_DSCAM_INTERACTIONS", 0, 0], ["REACTOME_ION_CHANNEL_TRANSPORT", 0, 0], ["REACTOME_DESTABILIZATION_OF_MRNA_BY_AUF1_HNRNP_D0", 0, 0], ["REACTOME_TRAF6_MEDIATED_INDUCTION_OF_TAK1_COMPLEX", 0, 0], ["REACTOME_RIG_I_MDA5_MEDIATED_INDUCTION_OF_IFN_ALPHA_BETA_PATHWAYS", 0, 0], ["REACTOME_IKK_COMPLEX_RECRUITMENT_MEDIATED_BY_RIP1", 0, 0], ["REACTOME_LIGAND_GATED_ION_CHANNEL_TRANSPORT", 0, 0], ["REACTOME_FORMATION_OF_INCISION_COMPLEX_IN_GG_NER", 0, 0], ["REACTOME_TRANSCRIPTIONAL_REGULATION_OF_WHITE_ADIPOCYTE_DIFFERENTIATION", 0, 0], ["REACTOME_ENDOSOMAL_SORTING_COMPLEX_REQUIRED_FOR_TRANSPORT_ESCRT", 0, 0], ["REACTOME_MEIOTIC_RECOMBINATION", 0, 0], ["REACTOME_IL_2_SIGNALING", 0, 0], ["REACTOME_IL_6_SIGNALING", 0, 0], ["REACTOME_PLATELET_AGGREGATION_PLUG_FORMATION", 0, 0], ["REACTOME_SIGNALING_BY_NOTCH", 0, 0], ["REACTOME_LAGGING_STRAND_SYNTHESIS", 0, 0], ["REACTOME_INTRINSIC_PATHWAY", 0, 0], ["REACTOME_INHIBITION_OF_REPLICATION_INITIATION_OF_DAMAGED_DNA_BY_RB1_E2F1", 0, 0], ["REACTOME_ETHANOL_OXIDATION", 0, 0], ["REACTOME_SYNTHESIS_OF_VERY_LONG_CHAIN_FATTY_ACYL_COAS", 0, 0], ["REACTOME_DNA_REPLICATION", 0, 0], ["REACTOME_CLEAVAGE_OF_GROWING_TRANSCRIPT_IN_THE_TERMINATION_REGION_", 0, 0], ["REACTOME_PKB_MEDIATED_EVENTS", 0, 0], ["REACTOME_E2F_MEDIATED_REGULATION_OF_DNA_REPLICATION", 0, 0], ["REACTOME_METABOLISM_OF_CARBOHYDRATES", 0, 0], ["REACTOME_HORMONE_SENSITIVE_LIPASE_HSL_MEDIATED_TRIACYLGLYCEROL_HYDROLYSIS", 0, 0], ["REACTOME_SIGNALING_BY_INSULIN_RECEPTOR", 0, 0], ["REACTOME_SIGNAL_ATTENUATION", 0, 0], ["REACTOME_PURINE_METABOLISM", 0, 0], ["REACTOME_SOS_MEDIATED_SIGNALLING", 0, 0], ["REACTOME_RNA_POL_III_TRANSCRIPTION_INITIATION_FROM_TYPE_3_PROMOTER", 0, 0], ["REACTOME_APOPTOSIS", 0, 0], ["REACTOME_LIPID_DIGESTION_MOBILIZATION_AND_TRANSPORT", 0, 0], ["REACTOME_HEMOSTASIS", 0, 0], ["REACTOME_INFLUENZA_LIFE_CYCLE", 0, 0], ["REACTOME_INFLUENZA_VIRAL_RNA_TRANSCRIPTION_AND_REPLICATION", 0, 0], ["REACTOME_NEP_NS2_INTERACTS_WITH_THE_CELLULAR_EXPORT_MACHINERY", 0, 0], ["REACTOME_HIV_INFECTION", 0, 0], ["REACTOME_TRANSPORT_OF_RIBONUCLEOPROTEINS_INTO_THE_HOST_NUCLEUS", 0, 0], ["REACTOME_HIV_LIFE_CYCLE", 0, 0], ["REACTOME_ABORTIVE_ELONGATION_OF_HIV1_TRANSCRIPT_IN_THE_ABSENCE_OF_TAT", 0, 0], ["REACTOME_EARLY_PHASE_OF_HIV_LIFE_CYCLE", 0, 0], ["REACTOME_HOST_INTERACTIONS_OF_HIV_FACTORS", 0, 0], ["REACTOME_RNA_POL_III_TRANSCRIPTION_TERMINATION", 0, 0], ["REACTOME_RESPIRATORY_ELECTRON_TRANSPORT_ATP_SYNTHESIS_BY_CHEMIOSMOTIC_COUPLING_AND_HEAT_PRODUCTION_BY_UNCOUPLING_PROTEINS_", 0, 0], ["REACTOME_FORMATION_OF_THE_HIV1_EARLY_ELONGATION_COMPLEX", 0, 0], ["REACTOME_RAF_MAP_KINASE_CASCADE", 0, 0], ["REACTOME_VIRAL_MESSENGER_RNA_SYNTHESIS", 0, 0], ["REACTOME_LATE_PHASE_OF_HIV_LIFE_CYCLE", 0, 0], ["REACTOME_SHC_MEDIATED_SIGNALLING", 0, 0], ["REACTOME_INTERACTIONS_OF_VPR_WITH_HOST_CELLULAR_PROTEINS", 0, 0], ["REACTOME_FORMATION_OF_ATP_BY_CHEMIOSMOTIC_COUPLING", 0, 0], ["REACTOME_APC_C_CDH1_MEDIATED_DEGRADATION_OF_CDC20_AND_OTHER_APC_C_CDH1_TARGETED_PROTEINS_IN_LATE_MITOSIS_EARLY_G1", 0, 0], ["REACTOME_ACTIVATION_OF_ATR_IN_RESPONSE_TO_REPLICATION_STRESS", 0, 0], ["REACTOME_UNWINDING_OF_DNA", 0, 0], ["REACTOME_APC_C_CDC20_MEDIATED_DEGRADATION_OF_MITOTIC_PROTEINS", 0, 0], ["REACTOME_GLUCURONIDATION", 0, 0], ["REACTOME_AUTODEGRADATION_OF_CDH1_BY_CDH1_APC_C", 0, 0], ["REACTOME_MYD88_MAL_CASCADE_INITIATED_ON_PLASMA_MEMBRANE", 0, 0], ["REACTOME_INNATE_IMMUNE_SYSTEM", 0, 0], ["REACTOME_REGULATION_OF_GLUCOKINASE_BY_GLUCOKINASE_REGULATORY_PROTEIN", 0, 0], ["REACTOME_MITOTIC_PROMETAPHASE", 0, 0], ["REACTOME_APC_C_CDC20_MEDIATED_DEGRADATION_OF_CYCLIN_B", 0, 0], ["REACTOME_SCF_BETA_TRCP_MEDIATED_DEGRADATION_OF_EMI1", 0, 0], ["REACTOME_LIPOPROTEIN_METABOLISM", 0, 0], ["REACTOME_G1_S_SPECIFIC_TRANSCRIPTION", 0, 0], ["REACTOME_THE_ROLE_OF_NEF_IN_HIV1_REPLICATION_AND_DISEASE_PATHOGENESIS", 0, 0], ["REACTOME_CHYLOMICRON_MEDIATED_LIPID_TRANSPORT", 0, 0], ["REACTOME_SIGNALING_BY_TGF_BETA_RECEPTOR_COMPLEX", 0, 0], ["REACTOME_CONVERSION_FROM_APC_C_CDC20_TO_APC_C_CDH1_IN_LATE_ANAPHASE", 0, 0], ["REACTOME_ACTIVATED_TLR4_SIGNALLING", 0, 0], ["REACTOME_IMMUNE_SYSTEM", 0, 0], ["REACTOME_BINDING_AND_ENTRY_OF_HIV_VIRION", 0, 0], ["REACTOME_PHOSPHORYLATION_OF_THE_APC_C", 0, 0], ["REACTOME_CYTOSOLIC_SULFONATION_OF_SMALL_MOLECULES", 0, 0], ["REACTOME_INTEGRATION_OF_PROVIRUS", 0, 0], ["REACTOME_GLUTATHIONE_CONJUGATION", 0, 0], ["REACTOME_COMPLEMENT_CASCADE", 0, 0], ["REACTOME_PHASE_II_CONJUGATION", 0, 0], ["REACTOME_MTORC1_MEDIATED_SIGNALLING", 0, 0], ["REACTOME_TOLL_RECEPTOR_CASCADES", 0, 0], ["REACTOME_ACTIVATION_OF_BH3_ONLY_PROTEINS", 0, 0], ["REACTOME_GLUCOSE_METABOLISM", 0, 0], ["REACTOME_RNA_POL_III_CHAIN_ELONGATION", 0, 0], ["REACTOME_VOLTAGE_GATED_POTASSIUM_CHANNELS", 0, 0], ["REACTOME_ADAPTIVE_IMMUNE_SYSTEM", 0, 0], ["REACTOME_NOD1_2_SIGNALING_PATHWAY", 0, 0], ["REACTOME_CYTOKINE_SIGNALING_IN_IMMUNE_SYSTEM", 0, 0], ["REACTOME_MEIOTIC_SYNAPSIS", 0, 0], ["REACTOME_ANTIGEN_PRESENTATION_FOLDING_ASSEMBLY_AND_PEPTIDE_LOADING_OF_CLASS_I_MHC", 0, 0], ["REACTOME_THE_NLRP3_INFLAMMASOME", 0, 0], ["REACTOME_CLASS_I_MHC_MEDIATED_ANTIGEN_PROCESSING_PRESENTATION", 0, 0], ["REACTOME_NONSENSE_MEDIATED_DECAY_ENHANCED_BY_THE_EXON_JUNCTION_COMPLEX", 0, 0], ["REACTOME_PIP3_ACTIVATES_AKT_SIGNALING", 0, 0], ["REACTOME_ANTIGEN_PROCESSING_UBIQUITINATION_PROTEASOME_DEGRADATION", 0, 0], ["REACTOME_TANDEM_PORE_DOMAIN_POTASSIUM_CHANNELS", 0, 0], ["REACTOME_INFLAMMASOMES", 0, 0], ["REACTOME_POTASSIUM_CHANNELS", 0, 0], ["REACTOME_NUCLEOTIDE_BINDING_DOMAIN_LEUCINE_RICH_REPEAT_CONTAINING_RECEPTOR_NLR_SIGNALING_PATHWAYS", 0, 0], ["REACTOME_INWARDLY_RECTIFYING_K_CHANNELS", 0, 0], ["REACTOME_AMYLOIDS", 0, 0], ["REACTOME_PACKAGING_OF_TELOMERE_ENDS", 0, 0], ["REACTOME_TELOMERE_MAINTENANCE", 0, 0], ["REACTOME_PLATELET_ACTIVATION_SIGNALING_AND_AGGREGATION", 0, 0], ["REACTOME_REMOVAL_OF_THE_FLAP_INTERMEDIATE_FROM_THE_C_STRAND", 0, 0], ["REACTOME_CREATION_OF_C4_AND_C2_ACTIVATORS", 0, 0], ["REACTOME_APC_CDC20_MEDIATED_DEGRADATION_OF_NEK2A", 0, 0], ["REACTOME_INITIAL_TRIGGERING_OF_COMPLEMENT", 0, 0], ["REACTOME_EXTENSION_OF_TELOMERES", 0, 0], ["REACTOME_G2_M_CHECKPOINTS", 0, 0], ["REACTOME_G2_M_DNA_DAMAGE_CHECKPOINT", 0, 0], ["REACTOME_S_PHASE", 0, 0], ["REACTOME_SCFSKP2_MEDIATED_DEGRADATION_OF_P27_P21", 0, 0], ["REACTOME_TRYPTOPHAN_CATABOLISM", 0, 0], ["REACTOME_DNA_STRAND_ELONGATION", 0, 0], ["REACTOME_RESOLUTION_OF_AP_SITES_VIA_THE_SINGLE_NUCLEOTIDE_REPLACEMENT_PATHWAY", 0, 0], ["REACTOME_FGFR_LIGAND_BINDING_AND_ACTIVATION", 0, 0], ["REACTOME_CHOLESTEROL_BIOSYNTHESIS", 0, 0], ["REACTOME_APOBEC3G_MEDIATED_RESISTANCE_TO_HIV1_INFECTION", 0, 0], ["REACTOME_GAP_JUNCTION_TRAFFICKING", 0, 0], ["REACTOME_FGFR2C_LIGAND_BINDING_AND_ACTIVATION", 0, 0], ["REACTOME_METABOLISM_OF_PORPHYRINS", 0, 0], ["REACTOME_FGFR4_LIGAND_BINDING_AND_ACTIVATION", 0, 0], ["REACTOME_VIF_MEDIATED_DEGRADATION_OF_APOBEC3G", 0, 0], ["REACTOME_SIGNALING_BY_FGFR", 0, 0], ["REACTOME_DIGESTION_OF_DIETARY_CARBOHYDRATE", 0, 0], ["REACTOME_FGFR1_LIGAND_BINDING_AND_ACTIVATION", 0, 0], ["REACTOME_GAP_JUNCTION_ASSEMBLY", 0, 0], ["REACTOME_SYNTHESIS_OF_GLYCOSYLPHOSPHATIDYLINOSITOL_GPI", 0, 0], ["REACTOME_RNA_POL_I_TRANSCRIPTION_INITIATION", 0, 0], ["REACTOME_PYRIMIDINE_METABOLISM", 0, 0], ["REACTOME_INTRINSIC_PATHWAY_FOR_APOPTOSIS", 0, 0], ["REACTOME_PI3K_CASCADE", 0, 0], ["REACTOME_APOPTOTIC_EXECUTION_PHASE", 0, 0], ["REACTOME_SHC_RELATED_EVENTS", 0, 0]], "output_layers": [["predictions", 0, 0]]}, "keras_version": "2.3.1", "backend": "tensorflow"}